Notebooks_Development/mlartifacts/400716610318719328/e20bcfe9567a4f39ad3c52fd2c37e772/artifacts/model/data/model.pth (torch, 917307 bytes, 337 tensors)

weight f4 [32, 1]
0	0x3ed11aed	0.40840855
1	0x3f2a32d3	0.664838
2	0xbe10861f	-0.14113663
3	0x3f1f73ac	0.62285876
4	0x3d74aa02	0.059732445
5	0x3f641b02	0.8910371
6	0xbdcd5122	-0.100252405
7	0x3f5a9888	0.85388994
8	0x3bcff8a7	0.0063467803
9	0x3f1e8d7a	0.61934626
10	0xbe86e08d	-0.26343194
11	0xbde1987d	-0.11015413
12	0x3e88943f	0.26675603
13	0x3f0e86d3	0.55674475
14	0x3f17a9ed	0.5924366
15	0x3eeca73b	0.46221337
16	0x3ee53eac	0.44774377
17	0xbe317124	-0.17328316
18	0xbec80c23	-0.3907176
19	0x3f5e126a	0.8674685
20	0x3edc7eb0	0.43065405
21	0xbf2281f4	-0.6347954
22	0xbf3e32c4	-0.7429621
23	0xbf37b9a4	-0.7176764
24	0x3f306b8f	0.6891412
25	0x3f4db357	0.80351776
26	0xbf074ec9	-0.5285459
27	0xbf14c1a7	-0.5810799
28	0xbf65edd5	-0.8981603
29	0x3f1d041c	0.61334395
30	0x3f3b9848	0.7327924
31	0x3f3de99d	0.7418459

bias f4 [32]
0	0x3ef0bd59	0.4701946
1	0xbe6427bf	-0.22280787
2	0x3f50e0c4	0.81592965
3	0x3cbfb517	0.02340178
4	0xbf689b2c	-0.90861773
5	0xbf42ccf2	-0.7609397
6	0x3f4d252c	0.80134845
7	0x3e96e30b	0.29470095
8	0x3f2f7d32	0.6855041
9	0xbf7a1276	-0.9768442
10	0x3ec8c52f	0.3921294
11	0x3cf2f614	0.029658355
12	0x3e992fb7	0.29919216
13	0x3f666c29	0.9000879
14	0x3ed09980	0.4074211
15	0xbf5f79eb	-0.8729541
16	0xbef51214	-0.47865355
17	0x3f7e095f	0.9923305
18	0x3edcd56d	0.4313158
19	0x3f10e684	0.5660174
20	0x3e91be74	0.28465617
21	0xbbb5812f	-0.0055390815
22	0x3f35e9a0	0.7105961
23	0xbed31d3e	-0.41233248
24	0x3f0c31df	0.547636
25	0xbead39b3	-0.33833084
26	0x3d382ab9	0.04496262
27	0xbdba19e8	-0.090869725
28	0xbf2b040d	-0.66803056
29	0x3e9c57be	0.30535692
30	0xbf1e8a5e	-0.6192988
31	0xbe90a9c9	-0.28254536

weight f4 [32, 1]
0	0x3f3b84de	0.73249614
1	0xbeff44a7	-0.49857065
2	0xbec76290	-0.38942385
3	0x3f0c5c51	0.54828364
4	0xbc9f0729	-0.019412594
5	0x3ef91e79	0.4865606
6	0xbf467a1a	-0.7753006
7	0xbf423b10	-0.7587137
8	0xbf32bf39	-0.6982303
9	0xbf347db3	-0.705043
10	0xbeb7ca4f	-0.35896537
11	0x3f6e2c23	0.930361
12	0x3e0ab163	0.1354423
13	0xbd9d2d83	-0.07674696
14	0x3f499c6a	0.78754294
15	0x3e089b66	0.1334053
16	0x3e7f8e7a	0.24956694
17	0xbf692044	-0.9106486
18	0xbf415439	-0.7551914
19	0x3f0a8f05	0.5412448
20	0x3f3fbed5	0.7490056
21	0x3f4725bd	0.7779196
22	0xbf73d4e5	-0.95246726
23	0x3ebec1ac	0.37257135
24	0xbee78258	-0.45216632
25	0x3f5402a0	0.82816505
26	0x3f59d404	0.85089135
27	0xbf2bf06a	-0.6716372
28	0xbeb1ce59	-0.34727743
29	0x3f1c05e0	0.60946465
30	0xbf243ee0	-0.6415844
31	0xbf65500c	-0.89575267

bias f4 [32]
0	0x3e58e683	0.21181683
1	0xbf639ca7	-0.8891091
2	0x3f02eb18	0.51139975
3	0xbf61589d	-0.8802584
4	0x3f321f95	0.6957944
5	0x3f346cfc	0.70478797
6	0xbe584abd	-0.2112226
7	0xbf2cc671	-0.674903
8	0xbf379323	-0.7170889
9	0x3f134618	0.5752883
10	0xbf6aabfc	-0.9166868
11	0xbcfb36a9	-0.030665712
12	0x3dca7826	0.09886198
13	0x3e8b905a	0.2725857
14	0xbeb7200f	-0.35766646
15	0x3f6eefee	0.93334854
16	0xbf697825	-0.9119895
17	0x3f1e18b4	0.61756444
18	0x3f0872aa	0.53299963
19	0x3e9608bd	0.29303542
20	0xbf64b9b5	-0.89345866
21	0x3f61db7c	0.8822553
22	0x3e3a5ca3	0.181994
23	0xbf128e37	-0.5724825
24	0xbabcbad2	-0.0014398939
25	0xbf02f03b	-0.5114781
26	0x3f15fa53	0.5858509
27	0xbda0d9ef	-0.078540675
28	0xbe18f43e	-0.14936921
29	0x3f1eccab	0.6203105
30	0x3e866ef4	0.26256526
31	0x3e0aa9e5	0.13541372

weight f4 [32, 1]
0	0xbf623279	-0.88358265
1	0xbf085278	-0.5325084
2	0x3f7d43d4	0.9893162
3	0xbf58970f	-0.846055
4	0xbf22492d	-0.6339291
5	0x3f6e0871	0.9298163
6	0x3e1fdcd1	0.15611579
7	0x3f71a7cd	0.9439667
8	0x3bf7b126	0.0075589595
9	0xbe9aebd6	-0.30258054
10	0xbcd487cc	-0.02594366
11	0xbf6a0d46	-0.91426504
12	0x3e5a79d4	0.21335536
13	0xbf0e7fec	-0.55663943
14	0x3dd2f4c3	0.10300591
15	0x3f1f0829	0.62121826
16	0x3b6bf7d6	0.0036005876
17	0x3ef53dd9	0.4789875
18	0xbedc761a	-0.43058854
19	0x3f32b5b4	0.69808507
20	0xbf296675	-0.6617196
21	0x3cdea8bd	0.02718007
22	0x3d902c25	0.0703967
23	0x3f52a67d	0.8228529
24	0xbedd2a9a	-0.43196565
25	0x3d4f900a	0.050674476
26	0xbeade609	-0.33964565
27	0xbf00861c	-0.50204635
28	0xbec2d11a	-0.38050157
29	0x3e4b0153	0.19824724
30	0xbf409115	-0.7522138
31	0xbeaa0860	-0.33209515

bias f4 [32]
0	0xbdf55c26	-0.119804665
1	0x3f6583d5	0.89654285
2	0xbe290710	-0.165066
3	0xbe89b085	-0.26892486
4	0xbe806e66	-0.25084227
5	0xbd8426d9	-0.06452722
6	0x3d6daf39	0.058028433
7	0x3dcd34ac	0.10019812
8	0x3ecf427d	0.40480414
9	0xbf2d27fc	-0.67639136
10	0xbeada887	-0.3391764
11	0xbe963422	-0.2933665
12	0x3ea7cfcd	0.32775727
13	0x3f2c2920	0.6725025
14	0xbf3f30b9	-0.7468372
15	0xbf18e662	-0.59726536
16	0xbec1cd06	-0.37851733
17	0x3f204f9c	0.62621474
18	0x3f3c84b5	0.73639995
19	0xbe0a3a8c	-0.13498896
20	0xbf2b0514	-0.66804624
21	0x3f2ce8e9	0.6754289
22	0xbf165a8b	-0.5873191
23	0xbf0d2597	-0.5513548
24	0x3f2caa08	0.6744695
25	0x3e2b04d8	0.16701066
26	0xbe4e1d96	-0.20128474
27	0xbf07f7b0	-0.53112316
28	0xbe2bed4f	-0.16789745
29	0x3f726bf5	0.9469598
30	0x3e58e2d1	0.21180274
31	0xbf58976d	-0.8460606

weight f4 [32, 1]
0	0xbf4e6143	-0.8061716
1	0x3ef52315	0.47878328
2	0x3e8f2b3c	0.27962673
3	0xbee6a98c	-0.4505123
4	0x3f58e0d0	0.84718037
5	0x3ddae8e4	0.106889516
6	0xbf502536	-0.8130678
7	0x3eb817ef	0.3595576
8	0x3f6d4a87	0.92691845
9	0xbd7d500a	-0.06184391
10	0xbf6d4d6f	-0.9269628
11	0xbf0df65a	-0.5545403
12	0x3f784c67	0.9699158
13	0xbee67099	-0.4500778
14	0x3f0e768a	0.55649626
15	0xbf406be1	-0.7516461
16	0x3f575e6f	0.8412847
17	0x3f1e496c	0.6183078
18	0x3da6f395	0.08151928
19	0xbf359473	-0.7092964
20	0x3f7ec863	0.99524516
21	0x3e3f0eac	0.1865794
22	0x3f6cea35	0.9254487
23	0x3f2f0ea0	0.6838169
24	0xbf001ac2	-0.5004083
25	0x3eb24536	0.3481843
26	0x3f287cb4	0.6581528
27	0xbef05ce1	-0.4694586
28	0x3dca5e89	0.098813124
29	0x3f57938e	0.84209526
30	0x3cbab1fa	0.022789944
31	0xbd98173d	-0.07426307

bias f4 [32]
0	0xbea52e6a	-0.32261974
1	0x3ef74427	0.48294184
2	0xbf6ac2a7	-0.91703266
3	0xbf198eb2	-0.5998336
4	0xbede9c6c	-0.43478715
5	0x3ea0c9b1	0.31403878
6	0xbf634085	-0.88770324
7	0xbf616942	-0.88051236
8	0xbd6a0b8a	-0.05713991
9	0xbea100e7	-0.31446
10	0xbedfbafd	-0.43697348
11	0x3e8289c0	0.2549572
12	0x3f5545ee	0.8330983
13	0x3effeb3f	0.49984166
14	0x3eef4ff5	0.4674069
15	0xbc80f8ca	-0.015743632
16	0xbea85f12	-0.32885033
17	0xbcd01a8f	-0.02540329
18	0x3cf6918c	0.030098699
19	0x3f2e039e	0.6797427
20	0xbec43794	-0.38323653
21	0xbf576643	-0.84140414
22	0x3f44a304	0.7681124
23	0xbebeec3b	-0.37289605
24	0xbf63cd4b	-0.8898513
25	0x3f4acbb4	0.79217076
26	0x3ed39392	0.41323525
27	0xbeda38b8	-0.42621398
28	0x3ebd457f	0.36967084
29	0xbd12b93d	-0.03582119
30	0x3f06cd32	0.52656853
31	0x3f66a29c	0.9009187

weight f4 [32, 1]
0	0xbf1118b1	-0.566783
1	0xbf009838	-0.5023227
2	0x3f26e878	0.6519847
3	0xbf2d37fd	-0.67663556
4	0xbf3488f9	-0.70521504
5	0x3e4684f1	0.1938665
6	0x3eb6806b	0.3564485
7	0x3ebd6734	0.369928
8	0xbee0dcaa	-0.43918353
9	0x3f428369	0.75981766
10	0x3e7d7d58	0.24754846
11	0xbf0b30d6	-0.5437139
12	0x3deea8cc	0.11653289
13	0x3d47ec79	0.048809502
14	0x3f76ac8d	0.9635704
15	0xbe3ba16f	-0.18323301
16	0x3f191fd8	0.59814215
17	0xbe3ab829	-0.18234314
18	0xbe2f699a	-0.17130128
19	0x3e896fe9	0.26843193
20	0x3f4271ac	0.759547
21	0xbec1d6e9	-0.37859276
22	0x3f2ab81e	0.6668719
23	0x3e900332	0.28127438
24	0xbd314d9b	-0.0432869
25	0x3f584a5a	0.8448845
26	0x3e6d7791	0.23190142
27	0x3f67d6f8	0.9056239
28	0x3f274894	0.6534512
29	0x3f4e4c77	0.80585426
30	0x3e807588	0.2508967
31	0xbeb00f2c	-0.34386575

bias f4 [32]
0	0x3e6d0d9c	0.23149723
1	0x3eb2983a	0.34881765
2	0x3b451766	0.003007376
3	0x3f7304c4	0.94929147
4	0xbe8d9d20	-0.2765894
5	0x3ec0e14b	0.37671885
6	0x3ecffd2a	0.40622836
7	0xbe9fccb6	-0.3121087
8	0xbe746fa4	-0.23870713
9	0xbe9c546d	-0.30533162
10	0xbef829ac	-0.48469293
11	0xbf4494bd	-0.76789457
12	0xbd95d4fe	-0.07316016
13	0xbf31ef2f	-0.6950559
14	0x3f312541	0.6919747
15	0x3f5367d4	0.82580304
16	0x3f4a8ab8	0.7911792
17	0xbe976d6b	-0.29575667
18	0xbf56dcf3	-0.8393089
19	0x3f369b47	0.71330684
20	0xbd10f131	-0.035386268
21	0xbf790ccc	-0.9728515
22	0xbe939164	-0.28821862
23	0x3ec0dd0a	0.3766864
24	0x3eb6d118	0.357064
25	0x3f2a7025	0.6657737
26	0xbef9dc36	-0.4880082
27	0xbe7a08ca	-0.24417415
28	0xbebf429f	-0.37355515
29	0xbf7a24cc	-0.977124
30	0xbf55f61f	-0.83578676
31	0xbea51092	-0.32239205

weight f4 [32, 1]
0	0x3ee9bc6b	0.45651564
1	0xbf68a122	-0.9087087
2	0xbdb8fe94	-0.09032932
3	0x3dfb2ac0	0.12264013
4	0x3c86e9f2	0.016468976
5	0xbecc554e	-0.39908832
6	0xbed08f35	-0.40734258
7	0x3f16b818	0.58874655
8	0x3ea3b6df	0.31975457
9	0x3f32c6fc	0.69834876
10	0xbf4f8f4f	-0.81078047
11	0xbec27944	-0.37983143
12	0xbf3766a9	-0.7164102
13	0xbeb56a59	-0.354327
14	0x3ef9c3d8	0.4878223
15	0x3f4e9c48	0.80707216
16	0xbf616214	-0.8804028
17	0xbec2c8d5	-0.38043848
18	0xbe3ec7f4	-0.18630964
19	0xbf7d1f91	-0.9887629
20	0xbf0bbf42	-0.5458871
21	0xbd3a3a19	-0.045465562
22	0xbf26b7c6	-0.65124166
23	0xbf0ed6bf	-0.55796427
24	0x3f817e0e	1.0116594
25	0x3e43a992	0.19107655
26	0xbeb93f82	-0.36181265
27	0xbf0eade4	-0.55734086
28	0x3f42f040	0.7614784
29	0x3e547cf3	0.2075079
30	0x3f0d43a1	0.5518132
31	0xbdb245ae	-0.087046966

bias f4 [32]
0	0x3e9cab26	0.30599326
1	0xbf0b1bcc	-0.5433929
2	0xbf2f1be3	-0.68401927
3	0x3f271482	0.6526567
4	0x3f208601	0.62704474
5	0xbf6208d5	-0.88294727
6	0xbf3a65ca	-0.7281157
7	0x3f07614c	0.5288284
8	0x3f064178	0.5244365
9	0x3f45d7ad	0.7728222
10	0x3f671ec5	0.90281326
11	0x3e91f6cc	0.28508604
12	0x3e523626	0.20528468
13	0x3e822e85	0.25426117
14	0x3f8053c3	1.0025562
15	0x3eb71731	0.3575988
16	0xbee22c58	-0.44174457
17	0x3f1c0b70	0.6095495
18	0x3ef22e62	0.47301012
19	0xbce06d7e	-0.02739596
20	0xbf0bcf9c	-0.5461366
21	0x3f2d7983	0.6776354
22	0x3d341803	0.04396821
23	0xbeefdf25	-0.46849933
24	0xbf6a21fb	-0.914581
25	0xbe70eccd	-0.23527832
26	0x3f3815f7	0.71908516
27	0xbf42977a	-0.76012385
28	0x3de15bf2	0.11003865
29	0xbf4b453a	-0.79402506
30	0x3ea38f07	0.3194506
31	0xbe140bfb	-0.14457695

weight f4 [32, 1]
0	0x3d9fffa5	0.07812432
1	0x3f3d3dac	0.7392223
2	0x3f27ba9e	0.6551913
3	0xbec2847f	-0.37991711
4	0xbebf2d3b	-0.37339196
5	0xbee1c698	-0.44096828
6	0x3f590793	0.8477718
7	0x3da13e11	0.07873166
8	0x3e683c9f	0.22679375
9	0xbf1c40db	-0.6103646
10	0x3e00699a	0.12540284
11	0xbe4bd434	-0.19905168
12	0x3f14678f	0.5797052
13	0xbf735ed9	-0.950666
14	0xbf71a288	-0.9438863
15	0xbf1be26b	-0.6089236
16	0x3d0d68ab	0.034523647
17	0x3d94afd6	0.072601005
18	0x3e1f0a7c	0.15531343
19	0xbf09fbeb	-0.5390002
20	0x3e14a27b	0.14515106
21	0xbf120bfe	-0.5704955
22	0xbe91dad5	-0.28487268
23	0x3cc68516	0.024233382
24	0x3f2d1e85	0.67624694
25	0x3eaed745	0.34148613
26	0x3db2fe75	0.0873994
27	0xbebc370f	-0.36760756
28	0xbe95affc	-0.29235828
29	0x3f457956	0.7713827
30	0x3f18cb6d	0.59685403
31	0xbeec7430	-0.46182394

bias f4 [32]
0	0xbeb592e5	-0.35463634
1	0xbdfc323d	-0.1231427
2	0xbed4aa72	-0.4153629
3	0x3f6810eb	0.90650815
4	0xbed576c9	-0.41692188
5	0x3ec2cea2	0.38048273
6	0xbf519bcb	-0.81878346
7	0xbe2a89a6	-0.16654071
8	0xbebfc06d	-0.37451497
9	0xbf0162a1	-0.5054112
10	0xbecc31fb	-0.39881882
11	0x3e11a2e7	0.14222299
12	0x3e8f4549	0.27982548
13	0x3f1cda6c	0.61270785
14	0x3f23b5b5	0.6394914
15	0xbec24406	-0.37942523
16	0x3ead8acd	0.3389496
17	0x3f461c7a	0.773872
18	0x3f53fcec	0.82807803
19	0xbd70c222	-0.05877889
20	0xbf6d21e0	-0.92629814
21	0x3f1b121f	0.60574526
22	0x3e80cf20	0.25158024
23	0xbf4fc2ce	-0.81156623
24	0x3ecf053f	0.4043369
25	0xbd946959	-0.07246656
26	0xbef176d5	-0.47160974
27	0x3cbcf067	0.023063852
28	0x3f41cafb	0.7570035
29	0xbf60fffd	-0.8789061
30	0xbe5187d9	-0.20461978
31	0x3ea10fb7	0.31457302

weight f4 [32, 1]
0	0xbf2b8a25	-0.67007667
1	0xbf2ee737	-0.68321556
2	0xbefe23fc	-0.4963683
3	0xbf58ca8e	-0.84684074
4	0x3f6d95e7	0.9280686
5	0xbea280ad	-0.31738797
6	0x3f5dd8ff	0.86659235
7	0xbe8bdc8f	-0.2731671
8	0xbdaeead9	-0.085408874
9	0x3eb1b6bd	0.3470973
10	0xbf62eb17	-0.8863997
11	0xbebd4519	-0.3696678
12	0xbe95de5d	-0.29271212
13	0xbf0e18f1	-0.5550681
14	0xbf5fb1b7	-0.87380546
15	0x3f2bf43d	0.67169553
16	0x3e7b363c	0.24532408
17	0xbdf82e15	-0.121181644
18	0xbe483372	-0.19550875
19	0xbf3214f7	-0.6956324
20	0xbeb0e14d	-0.3454689
21	0x3ef3cd24	0.47617447
22	0x3c74702c	0.014919322
23	0x3ed5c70e	0.4175343
24	0xbe8ac60b	-0.2710422
25	0xbea07996	-0.31342763
26	0xbf679990	-0.9046869
27	0xbe249eb5	-0.16076167
28	0x3ea7f543	0.32804307
29	0xbf5da11f	-0.86573976
30	0x3f041204	0.5158999
31	0x3e104133	0.14087372

bias f4 [32]
0	0xbe243403	-0.16035466
1	0x3eb9bbdd	0.3627614
2	0xbf0605fe	-0.52352893
3	0x3f05fcf1	0.5233908
4	0xbe9a0b2e	-0.30086654
5	0xbdd57a60	-0.10423732
6	0xbeafb66b	-0.3431886
7	0xbf63036a	-0.88677084
8	0x3f18fd10	0.5976114
9	0xbd3ca716	-0.046057783
10	0xbe580531	-0.2109573
11	0x3f7cccca	0.98749983
12	0x38c31042	9.301353e-05
13	0xbe88e1e9	-0.26734856
14	0x3efd2f85	0.49450317
15	0x3e8e3538	0.27774978
16	0x3f63c2e1	0.88969237
17	0xbf3fbe76	-0.74899995
18	0xbed38650	-0.4131341
19	0x3c2a460e	0.010392679
20	0x3ea87517	0.32901832
21	0x3e927a53	0.2860895
22	0x3f018ee4	0.5060866
23	0xbc14eb2b	-0.009089272
24	0xbe67385d	-0.22580095
25	0x3e4fdc24	0.2029882
26	0xbf04baaf	-0.51847357
27	0x3c321118	0.010868333
28	0xbf1cd689	-0.61264855
29	0x3f3845bb	0.719814
30	0xbd979a26	-0.07402448
31	0x3f149dbe	0.58053195

weight f4 [32, 1]
0	0xbf2fb47f	-0.6863479
1	0x3da7d556	0.081949875
2	0x3e85b514	0.26114714
3	0x3ec1d584	0.37858212
4	0xbf4c584b	-0.79822224
5	0x3f57ab41	0.8424569
6	0x3f13e5fa	0.5777279
7	0xbf60406c	-0.875983
8	0xbf610cec	-0.8791034
9	0xbf0c5aa0	-0.5482578
10	0xbf2ebf7c	-0.6826093
11	0x3e121034	0.14263994
12	0xbf6c3d0f	-0.9228067
13	0xbec76829	-0.38946655
14	0xbc7c8353	-0.0154121695
15	0x3f1b6265	0.60697013
16	0x3e0aa93d	0.13541122
17	0xbc432759	-0.011911237
18	0x3dd95d8c	0.10613546
19	0xbeb356de	-0.35027212
20	0x3f3f003c	0.7460973
21	0xbeb42469	-0.3518403
22	0x3f16983f	0.5882606
23	0x3f63d0eb	0.8899066
24	0x3d284784	0.041083828
25	0xbf43d30a	-0.76493895
26	0x3f5e235b	0.867727
27	0x3f7e2e05	0.9928897
28	0xbf43a71d	-0.7642687
29	0xbf4b531b	-0.79423684
30	0xbf4354b9	-0.7630115
31	0x3f678b07	0.90446514

bias f4 [32]
0	0xbf5317bc	-0.8245809
1	0x3f0e8453	0.5567066
2	0x3f4d0f2a	0.80101264
3	0xbe93271f	-0.28740785
4	0x3ef7f47e	0.4842872
5	0xbf0a54af	-0.54035467
6	0xbf47083d	-0.77746946
7	0x3f2df6cc	0.6795471
8	0x3f51f626	0.8201622
9	0x3dd85b30	0.10564268
10	0xbceba3ac	-0.028764568
11	0xbf43248d	-0.7622765
12	0xbf44d57e	-0.76888263
13	0xbe8a8fd7	-0.27062866
14	0x3f6774b4	0.9041245
15	0x3eb7cc60	0.35898113
16	0x3efeddc8	0.4977858
17	0x3f042814	0.51623654
18	0xbf48bfae	-0.7841748
19	0x3f1ee9b4	0.6207535
20	0x3e8f1d4e	0.27952045
21	0xbf7452db	-0.9543893
22	0x3f6448e0	0.891737
23	0x3f604842	0.87610257
24	0xbea38bca	-0.31942588
25	0x3f1e637d	0.6187056
26	0x3f14aabb	0.58073014
27	0xbd683265	-0.056688685
28	0x3e2a118f	0.1660826
29	0xbf1e53c2	-0.61846554
30	0xbf599aa8	-0.8500161
31	0x3d220354	0.039553955

weight f4 [32, 1]
0	0x3f1f0a8a	0.62125456
1	0x3eabbedd	0.33544055
2	0x3f690603	0.910248
3	0xbd8d941e	-0.06913017
4	0x3f2df6a3	0.6795446
5	0xbf2074c2	-0.6267816
6	0xbf2ca482	-0.6743852
7	0xbf0152bf	-0.50516886
8	0xbe54475c	-0.20730346
9	0x3e87df81	0.26537707
10	0xbd2c995f	-0.042138454
11	0xbdc1ac25	-0.09456662
12	0x3f4fa0a5	0.811045
13	0xbd4c0b11	-0.04981524
14	0x3d2acec2	0.041701086
15	0x3e0ca854	0.13736087
16	0xbf5b5125	-0.8567069
17	0xbf63735f	-0.8884792
18	0xbf33ec56	-0.70282495
19	0xbea065c5	-0.31327644
20	0xbe8b4525	-0.2720119
21	0x3e978699	0.29594877
22	0xbe1e0494	-0.15431434
23	0xbf57a5af	-0.8423719
24	0x3f5b0974	0.855613
25	0xbea9e938	-0.33185744
26	0xbec3b721	-0.38225654
27	0x3eb62b43	0.3557988
28	0xbe6469b8	-0.22305954
29	0x3f313e35	0.69235545
30	0xbf1c8862	-0.61145604
31	0x3f5f0d74	0.871299

bias f4 [32]
0	0xbd9a086b	-0.07521137
1	0xbeb510cf	-0.35364386
2	0xbe916b88	-0.28402352
3	0xbecc7bc8	-0.39938188
4	0x3c87a389	0.016557472
5	0xbf179120	-0.5920582
6	0x3e0ea22d	0.13929053
7	0xbe697bf0	-0.22801185
8	0x3d01bf34	0.031676486
9	0x3f77bb21	0.9676991
10	0xbf72cd1e	-0.94844234
11	0xbf35ecc4	-0.710644
12	0xbe9a7ba6	-0.3017246
13	0x3e879868	0.26483464
14	0xbf28fe65	-0.66013175
15	0x3f6a5dc7	0.9154934
16	0x3ed6e1f3	0.4196926
17	0xbf286ea2	-0.6579381
18	0xbebb72c1	-0.36610988
19	0xbf4e5e0c	-0.80612254
20	0xbe61fade	-0.22068354
21	0x3f183043	0.5944864
22	0x3f009a1a	0.5023514
23	0x3f342ece	0.7038392
24	0x3eb76b23	0.35823926
25	0x3f168392	0.5879451
26	0xbf0a9831	-0.54138476
27	0xbf4c59f1	-0.7982474
28	0xbebb6437	-0.36599895
29	0xbf217d55	-0.63081867
30	0xbe8d2fa5	-0.27575412
31	0xbf434bc9	-0.76287514

weight f4 [32, 1]
0	0xbf316221	-0.6929036
1	0x3f739cdb	0.9516122
2	0xbe9208a3	-0.28522214
3	0xbf282e7f	-0.6569595
4	0x3f13082a	0.5743433
5	0x3e9f0e7e	0.31065744
6	0x3f760e8b	0.9611594
7	0xbf21b18c	-0.6316154
8	0xbf3f6955	-0.747701
9	0x3f40a562	0.75252354
10	0x3f093cee	0.53608596
11	0x3ebfee8f	0.37486693
12	0x3f3eefa3	0.74584407
13	0x3ee9e42b	0.4568189
14	0x3f40d21a	0.7532059
15	0x3db5ebf8	0.08882898
16	0x3f2a6159	0.6655479
17	0xbd0561db	-0.032564025
18	0xbf03134e	-0.5120133
19	0xbf584029	-0.844729
20	0xbf262710	-0.64903355
21	0xbf61c76e	-0.8819493
22	0x3efba52b	0.4914945
23	0x3ef17370	0.47158384
24	0xbeba9fbf	-0.36450002
25	0xbf404f26	-0.7512077
26	0xbe862a07	-0.2620394
27	0x3ea079e9	0.3134301
28	0x3ebab2b0	0.36464453
29	0x3f020909	0.50795037
30	0x3f7016d4	0.9378483
31	0x3e53b18c	0.20673198

bias f4 [32]
0	0x3ea290c6	0.31751078
1	0x3f5655b3	0.83724517
2	0xbe2c53a0	-0.16828775
3	0x3f623c61	0.8837338
4	0x3d9c74d9	0.076394744
5	0xbeedfa93	-0.46480235
6	0x3f627f76	0.8847574
7	0x3e560d1e	0.20903441
8	0x3f27155a	0.65266955
9	0x3e819798	0.2531097
10	0xbeecbdb0	-0.4623847
11	0xbf5c2790	-0.8599787
12	0x3ed4ec13	0.4158636
13	0xbf246ae7	-0.6422562
14	0xbf4543d6	-0.77056634
15	0x3f4e4e98	0.80588675
16	0x3e9e1e71	0.308826
17	0xbe739a4f	-0.23789333
18	0xbf148a28	-0.5802331
19	0xbf7578f6	-0.95887697
20	0xbeb81d28	-0.35959744
21	0x3e634d48	0.22197449
22	0x3eccc00b	0.39990267
23	0xbf0a537e	-0.5403365
24	0xbec11444	-0.37710774
25	0x3ec3fc54	0.3827845
26	0xbefe7191	-0.4969602
27	0x3f2fd8a4	0.6868994
28	0x3f1f45d3	0.6221592
29	0x3f70ad41	0.94014364
30	0xbe94fa05	-0.29097
31	0x3ef966b8	0.4871118

weight f4 [32, 1]
0	0xbed438be	-0.4144954
1	0x3f17704b	0.5915572
2	0xbe8d7596	-0.27628773
3	0xbf7bb628	-0.98324823
4	0x3d83848c	0.06421766
5	0x3f4a1c33	0.7894928
6	0xbe0d31bf	-0.13788508
7	0xbf6d46ae	-0.92685974
8	0x3f460da0	0.7736454
9	0x3f67cda9	0.9054819
10	0xbf033e56	-0.5126699
11	0x3df7b4dd	0.12095044
12	0xbda16c51	-0.07881988
13	0xbf61e989	-0.8824697
14	0x3e8a1343	0.2696782
15	0xbf623a8c	-0.88370585
16	0xbf8497eb	-1.0358862
17	0x3f0f6386	0.56011236
18	0x3f0b0f1d	0.54319936
19	0xbdee1cd2	-0.11626591
20	0xbf1b11b3	-0.6057388
21	0x3f0d11e6	0.55105436
22	0x3f815e25	1.0106856
23	0xbd1c6057	-0.038177814
24	0x3ed8b1cf	0.42323157
25	0x3dd48e17	0.10378664
26	0xbf598864	-0.8497374
27	0xbec6314a	-0.3870948
28	0xbf7df277	-0.99198097
29	0xbf46a460	-0.77594566
30	0xbf029065	-0.5100158
31	0x3f725554	0.9466145

bias f4 [32]
0	0x3f57581e	0.8411883
1	0x3f2283a9	0.6348215
2	0x3c543465	0.012951945
3	0xbf507fd3	-0.81445044
4	0xbf3c16b6	-0.73472154
5	0xbf6ffdbc	-0.9374654
6	0xbf14daa1	-0.581461
7	0x3e1df4e9	0.15425457
8	0x3efc778a	0.4930995
9	0x3f4052f7	0.75126594
10	0x3f53b900	0.8270416
11	0x3dd420a1	0.10357786
12	0xbef2c282	-0.47414023
13	0xbf2239c6	-0.63369405
14	0x3dca392d	0.09874187
15	0xbe9f771b	-0.31145558
16	0x3f0ace1a	0.54220736
17	0xbecc463f	-0.39897344
18	0x3e363bea	0.17796293
19	0x3eb9c945	0.3628637
20	0x3f4d811a	0.8027512
21	0xbd072097	-0.032990064
22	0xbe8a9d8f	-0.27073333
23	0xbf5dcac0	-0.86637497
24	0xbf29e72a	-0.66368353
25	0x3f1e6799	0.6187683
26	0xbf13c644	-0.57724404
27	0xbf01f81a	-0.507692
28	0xbf30999a	-0.6898438
29	0xbcf46584	-0.029833563
30	0x3e21bf73	0.15795688
31	0xbefc60df	-0.49292657

weight f4 [32, 1]
0	0x3f6dc866	0.9288391
1	0x3e89eff4	0.26940882
2	0xbe0264ef	-0.12733816
3	0xbf6f76bd	-0.93540555
4	0xbf7532c6	-0.957806
5	0x3dd5b794	0.104354054
6	0x3f5b6fa3	0.8571722
7	0x3f13ec43	0.5778238
8	0xbd4b874d	-0.04968958
9	0xbd9ffa1f	-0.07811379
10	0xbcc3fc2d	-0.023923958
11	0x3e03ee35	0.12883838
12	0x3ed0ddbf	0.4079418
13	0xbe64deab	-0.22350566
14	0x3f38e3fe	0.7222289
15	0xbe9455a7	-0.28971598
16	0x3c1d7258	0.009609781
17	0xbf521b15	-0.82072574
18	0x3f160f9a	0.58617556
19	0xbf439ae5	-0.76408225
20	0x3f625665	0.8841308
21	0xbe25cad1	-0.1619065
22	0xbf0d7666	-0.55258787
23	0xbcc7a063	-0.02436847
24	0xbddd1468	-0.10794908
25	0x3dac87fc	0.084243745
26	0xbf05c32a	-0.5225092
27	0x3efc6677	0.49296924
28	0xbe07e7fe	-0.13272092
29	0x3f6cd49e	0.9251193
30	0x3f5320e8	0.82472086
31	0xbeccbf36	-0.39989632

bias f4 [32]
0	0x3ea07f51	0.31347135
1	0xbeb94f0d	-0.36193123
2	0x3f534c79	0.82538563
3	0xbf2846c2	-0.6573297
4	0xbf3e2eb4	-0.74290013
5	0xbed6b454	-0.41934454
6	0x3ec24222	0.3794108
7	0xbedf4c63	-0.43612966
8	0x3f34b537	0.7058901
9	0x3e1413b2	0.14460638
10	0xbd721df7	-0.059110608
11	0xbd822c0d	-0.06356058
12	0xbf4512cf	-0.76981825
13	0xbf31c948	-0.69447756
14	0x3f3bbe6e	0.7333745
15	0x3f33e309	0.70268303
16	0xbe183927	-0.14865552
17	0xbf6acb6d	-0.91716653
18	0x3f3fba00	0.7489319
19	0x3f0a8cee	0.5412129
20	0xbf728dc5	-0.94747573
21	0x3ed4f188	0.41590524
22	0xbf27238e	-0.6528863
23	0x3eb290fc	0.3487624
24	0x3f2c43d4	0.67291
25	0xbf18f055	-0.5974172
26	0x3f3140b8	0.6923938
27	0x3eaf1c4a	0.3420127
28	0xbcc737f4	-0.024318673
29	0xbf80468d	-1.002153
30	0xbf431290	-0.762002
31	0x3eee0025	0.46484485

weight f4 [32, 1]
0	0xbef88eab	-0.48546347
1	0x3f01a2da	0.50639117
2	0xbeea005f	-0.45703408
3	0x3db04e63	0.08608701
4	0xbf518fe5	-0.8186019
5	0xbf75239b	-0.95757455
6	0x3e68e278	0.22742641
7	0x3f1c5d0e	0.6107949
8	0x3f1afa26	0.60537946
9	0x3f3732d2	0.7156192
10	0xbf1257d9	-0.57165295
11	0xbe7f4449	-0.24928392
12	0xbf614980	-0.8800278
13	0xbe9621d0	-0.29322672
14	0xbf0b1884	-0.5433428
15	0x3f1da3d1	0.6157809
16	0x3e9f1705	0.3107225
17	0x3e41b6ac	0.1891734
18	0x3f83d3fc	1.0299067
19	0xbeb09e62	-0.34495836
20	0x3f73fe87	0.9531025
21	0xbf5ee0d1	-0.8706179
22	0x3e1b3d59	0.15160121
23	0x3f76c332	0.96391594
24	0xbe9627c8	-0.29327226
25	0xbf4297e0	-0.7601299
26	0x3d3c9e8a	0.046049632
27	0xbf36bb0b	-0.71379155
28	0xbeb5b626	-0.3549053
29	0x3f3e8835	0.74426585
30	0x3f1e09b2	0.61733544
31	0x3e2100eb	0.15723006

bias f4 [32]
0	0xbde34d93	-0.110987805
1	0xbeb8822e	-0.3603682
2	0xbf447489	-0.7674032
3	0x3f5c69dc	0.8609903
4	0x3b8987d7	0.0041971016
5	0x3f5e41f6	0.868194
6	0x3f2e35fd	0.6805113
7	0x3ddbe881	0.10737706
8	0x3efa9ad7	0.48946258
9	0x3f0ed3f8	0.5579219
10	0xbe9d3651	-0.30705503
11	0x3dbb8437	0.09156077
12	0x3f39ea02	0.7262269
13	0x3f0e2d53	0.5553791
14	0x3f526c2a	0.82196295
15	0x3e855720	0.26043034
16	0xbf2fc525	-0.68660194
17	0x3ebcd015	0.36877504
18	0x3e38692e	0.18008873
19	0xbd9a249b	-0.07526513
20	0x3f4d947b	0.8030469
21	0xbd873704	-0.0660229
22	0x3f3b5d36	0.73189104
23	0x3f3e8fb6	0.74438035
24	0xbdbc17f2	-0.09184255
25	0x3e963d7a	0.29343778
26	0x3f4b71c9	0.794705
27	0xbd8f56de	-0.069989905
28	0xbf222275	-0.6333383
29	0x3e21c1fe	0.15796658
30	0xbee48e1e	-0.44639677
31	0x3c9f0fe1	0.019416751

mask f4 [3]
0	0xbc9f706b	-0.019462785
1	0x3ca1cbe6	0.019750547
2	0x3c82a5bd	0.01594817

weight f4 [3]
0	0x3f77affe	0.9675292
1	0x3f871b4c	1.0555205
2	0x3f8067bf	1.0031661

bias f4 [3]
0	0xbd218e3b	-0.039442282
1	0x3d0d4c55	0.034496624
2	0xba96d088	-0.0011506239

weight f4 [3, 96]
0	0xbb956588	-0.0045592226
1	0xbe072cb9	-0.13200654
2	0xbd920804	-0.07130435
3	0x3e3306fa	0.1748313
4	0xbe486f45	-0.19573696
5	0xbe493afd	-0.19651408
6	0x3c98254f	0.018572478
7	0x3d8ac2b9	0.06775422
8	0x3dcd51f7	0.10025399
9	0xbe682187	-0.2266904
10	0x3e3c054f	0.183614
11	0xbe344421	-0.17604114
12	0x3e23a357	0.15980278
13	0x3e082a74	0.13297445
14	0x3d798d40	0.060925722
15	0xbe3cc893	-0.18435888
16	0x3b312a0f	0.0027033126
17	0xbd9e3f44	-0.07726911
18	0x3dc6fd28	0.097162545
19	0xbdf5c337	-0.12000125
20	0x3d1a8095	0.03772028
21	0xbd16121f	-0.036638375
22	0xbe238426	-0.1596838
23	0x3cb222e4	0.021745153
24	0xbd15000a	-0.03637699
25	0x3e10c407	0.14137278
26	0x3dc7f41f	0.09763359
27	0xbc98ba7d	-0.018643612
28	0xbdaea9cc	-0.0852848
29	0xbe32e0e1	-0.17468597
30	0xbd78795e	-0.06066262
31	0xbe054101	-0.13013078
32	0xbded8cfc	-0.11599156
33	0xbd7b684a	-0.061378755
34	0xbcfdf00a	-0.030998249
35	0xbddd544d	-0.10807095
36	0x3d01b033	0.031662177
37	0xbe7d569b	-0.24740069
38	0xbc5a7c1f	-0.013335257
39	0x3dfdb6ee	0.12388407
40	0xbc6628c2	-0.014047803
41	0x3dc0836b	0.09400066
42	0x3e169533	0.14705352
43	0xbe30e6df	-0.1727557
44	0xbdb6080d	-0.08888254
45	0x3e229d31	0.15880276
46	0x3caad113	0.020851647
47	0x3df82b9b	0.12117692
48	0xbe0db0b8	-0.13836944
49	0x3e081b3e	0.13291642
50	0x3b65c469	0.0035059697
51	0x3de305d9	0.110851
52	0x3e4ba23c	0.19886106
53	0xbd6af1c6	-0.05735948
54	0x3cf6f3e7	0.030145599
55	0x3cb74506	0.02237178
56	0xbe2d1929	-0.16904129
57	0x3dd783af	0.105231635
58	0x3de38bbb	0.11110636
59	0xbde447f4	-0.111465365
60	0xbdab85eb	-0.08375152
61	0x3df31497	0.118691616
62	0x3dcbaa65	0.099446096
63	0x3ea5ae7d	0.32359686
64	0xbdcb98e8	-0.09941274
65	0x3c8e6116	0.017380279
66	0x3da68148	0.08130127
67	0xbdf59eb0	-0.11993158
68	0x3c957b53	0.018247282
69	0xbd36a518	-0.04459104
70	0x3e65365b	0.22384016
71	0x3e723ba7	0.23655568
72	0x3ea61785	0.3243982
73	0xbe4cde80	-0.20006752
74	0x3e690158	0.22754419
75	0xbde99993	-0.11406245
76	0xbdc3e232	-0.09564628
77	0x3e29b61b	0.16573374
78	0x3ce03da7	0.027373148
79	0x3d0ab4ae	0.033863716
80	0xb9563d3d	-0.00020431443
81	0x3d3d2105	0.046174068
82	0xbda3b065	-0.07992629
83	0xbe57a4f8	-0.21059024
84	0xbe117b35	-0.14207156
85	0xbd1e811c	-0.038697347
86	0xbe0b6cf8	-0.13615787
87	0x3d9ebdc0	0.07751036
88	0x3e6d4777	0.23171793
89	0x3db16449	0.08661706
90	0xbd7486b3	-0.05969877
91	0x3c761221	0.015018971
92	0xbe83bd38	-0.257303
93	0x3e070ec9	0.13189234
94	0xbe3182c5	-0.17335041
95	0xbcd1763f	-0.02556908
96	0xbce32442	-0.02772725
97	0x3e3af823	0.18258719
98	0xbdf8aa55	-0.12141863
99	0xbe8df862	-0.27728564
100	0xbe1d2cec	-0.15349168
101	0x3d44ad6f	0.04801696
102	0xbdf1302a	-0.11776765
103	0xbe5528f0	-0.20816398
104	0x3e054b5a	0.13017026
105	0x3d51d22b	0.051225822
106	0xbe0d0195	-0.13770135
107	0x3dd895dd	0.10575459
108	0x3e29a867	0.16568147
109	0xbc592ced	-0.01325534
110	0x3e26a81b	0.16275065
111	0x3e1ea050	0.15490842
112	0x3de999f3	0.114063166
113	0xbdcb468b	-0.099255644
114	0x3db08335	0.08618776
115	0xbd2cec87	-0.042217758
116	0xbe747549	-0.23872866
117	0xbda36372	-0.07977952
118	0x3bd9f008	0.0066509284
119	0xbd73b681	-0.05950022
120	0xbdb47289	-0.08810908
121	0xbc9f55ea	-0.019450147
122	0x3d27f41c	0.041004285
123	0xbdd9d039	-0.106354184
124	0x3e3f203e	0.18664643
125	0x3c396401	0.011315347
126	0xbe5ab063	-0.21356349
127	0xbd76f30f	-0.060290392
128	0xbe738327	-0.237805
129	0x3d24ff8e	0.04028278
130	0x3de1d52b	0.11026987
131	0x3da811b1	0.08206499
132	0x3edf27f1	0.4358516
133	0xbcca74a1	-0.024713816
134	0x3e28b8e8	0.16476786
135	0xbe19609e	-0.14978263
136	0x3d8d6907	0.06904798
137	0xbe8ec577	-0.2788503
138	0xbdd8d790	-0.1058799
139	0xbc40a423	-0.011757883
140	0x3e581e31	0.21105267
141	0xbdbb534b	-0.09146746
142	0xbe7c7646	-0.24654493
143	0xbc8b4f34	-0.01700554
144	0xbe2b1090	-0.16705537
145	0x3e08e8b5	0.1337002
146	0xbdb80f08	-0.08987242
147	0xbd0909b5	-0.033456523
148	0xbba12984	-0.004918279
149	0x3df78eef	0.12087809
150	0xbc336978	-0.010950439
151	0xbb1a44c4	-0.0023539523
152	0xbe101fb7	-0.14074598
153	0xbe4eefbe	-0.20208642
154	0x3e0adbd6	0.13560423
155	0xbd6201b4	-0.055177405
156	0x3e139584	0.14412504
157	0xbe237880	-0.15963936
158	0xbe362bca	-0.17790142
159	0x3d1bbc04	0.038021103
160	0xbd45397a	-0.048150517
161	0x3e5943f7	0.21217333
162	0x3e95c1ff	0.2924957
163	0xbe59162b	-0.21199863
164	0xbd8c5de1	-0.068538435
165	0xbe5e073e	-0.2168245
166	0x3e0cf2b8	0.13764465
167	0x3c9aeedb	0.018912723
168	0x3d17eab2	0.037089057
169	0x3e7881fa	0.24268332
170	0xbd56112c	-0.05226247
171	0x3d584db7	0.05280849
172	0xbd86aeb2	-0.06576289
173	0xbd9e5780	-0.07731533
174	0x3df41317	0.119177036
175	0xbd4ecbc4	-0.050487295
176	0xbceb3c35	-0.028715232
177	0x3e5eee9f	0.21770714
178	0xbe0c315d	-0.13690706
179	0xbdee39f1	-0.11632145
180	0xbdcb71f6	-0.09933846
181	0x3de29734	0.11063996
182	0x3e06524a	0.13117328
183	0x3dc88a61	0.09792019
184	0x3d5ad6f5	0.053427655
185	0x3daf9495	0.08573262
186	0x3e903b71	0.2817035
187	0x3d941bc8	0.07231861
188	0x3e23168d	0.15926571
189	0xbcf1d296	-0.02951936
190	0x3d47dc52	0.0487941
191	0xbd8acc7b	-0.06777283
192	0x3ea71772	0.32635075
193	0xbe198b1c	-0.14994472
194	0xbd03048c	-0.031986758
195	0x3c47029e	0.01214662
196	0x3ca3dc43	0.02000249
197	0x3d6d50c9	0.05793837
198	0xbe2847ca	-0.16433635
199	0xbc8cc78a	-0.017184991
200	0x3de3ff42	0.11132671
201	0x3e2ec64b	0.1706783
202	0xbcf07b53	-0.02935568
203	0x3dc079c2	0.093982235
204	0x3c59acdd	0.013285843
205	0xbe4381d0	-0.19092488
206	0x3dfd1fa2	0.12359549
207	0x3dab9584	0.08378127
208	0x3d17835b	0.036990505
209	0xbd1a5a66	-0.037683867
210	0xbe29d74f	-0.1658604
211	0x3de7b4a4	0.11313751
212	0xbc884ec1	-0.016639115
213	0x3e445e10	0.19176507
214	0x3c4446de	0.011979787
215	0xbe2528dc	-0.16128868
216	0x3d86015e	0.065432295
217	0x3d9839e3	0.07432916
218	0x3e2b3241	0.16718389
219	0xbe56fe39	-0.20995416
220	0xbe07fe91	-0.13280703
221	0x3cfbb20d	0.03072455
222	0xbe697cc6	-0.22801504
223	0x3e3c12ed	0.18366595
224	0x3a750ea2	0.0009348189
225	0xbc35d830	-0.011098906
226	0x3d8445d7	0.064586334
227	0x3cc07661	0.023493947
228	0xbd529271	-0.05140919
229	0xbe072ba3	-0.1320024
230	0x3e87cf3b	0.26525292
231	0xbc0849d2	-0.008318381
232	0xbe013359	-0.12617244
233	0xbe2c49b3	-0.16824989
234	0xbdc0e118	-0.09417933
235	0x3e9f9cca	0.31174308
236	0xbd202f99	-0.039107893
237	0xbe46f98c	-0.19431132
238	0xbd8b0c32	-0.067894354
239	0xbebdb81d	-0.3705453
240	0xbe01d2b5	-0.12678035
241	0xbeeb3df7	-0.45945713
242	0x3d9d7e74	0.07690135
243	0xbd3e4af4	-0.0464582
244	0xbc7987af	-0.015230103
245	0x3ea202de	0.31642812
246	0xbdb7b390	-0.08969796
247	0xbad14a51	-0.0015967583
248	0x3dcebbd3	0.100944184
249	0x3e1b8d54	0.15190631
250	0xbcefbd91	-0.029265197
251	0xbda1f15b	-0.07907363
252	0x3e7a2216	0.24427065
253	0xbe402095	-0.18762429
254	0xbe1e70b4	-0.1547268
255	0x3e6e2ac0	0.23258495

bias f4 [3]
0	0x3c2e8171	0.010650978
1	0xbc6a581c	-0.0143032335
2	0x3a72ae55	0.0009257545

weight f4 [3, 3]
0	0x3e8dbd4e	0.2768349
1	0x3fb27306	1.3941352
2	0x3f9d116a	1.2270939
3	0xbf1382ee	-0.5762166
4	0xbe98bb0f	-0.29830214
5	0xbdbd56c8	-0.09245068
6	0x3eaa7721	0.33294013
7	0x3ee1f1e7	0.4412987
8	0xbf322d98	-0.6960082

bias f4 [3]
0	0xbc3e3fb5	-0.011611869
1	0xbd6dcc03	-0.05805589
2	0xbd6931a8	-0.05693212

weight f4 [6, 3]
0	0x3f181823	0.5941183
1	0x3f220b9f	0.6329898
2	0x3eb20c0d	0.3477482
3	0xbec37d47	-0.38181517
4	0x3e3d65d8	0.18495882
5	0x3ed643db	0.41848645
6	0x3ecb318a	0.39686233
7	0xbf08bed0	-0.53416157
8	0xbf5df6e3	-0.86704844
9	0xbeaaef19	-0.33385542
10	0x3ecbf742	0.3983708
11	0x3ef01af1	0.46895555
12	0xbf3e13d1	-0.7424899
13	0x3f2bd1ea	0.6711718
14	0xbee3cb76	-0.44491166
15	0x3c410ee7	0.011783338
16	0x3eb2a293	0.3488966
17	0xbf28345e	-0.65704906

bias f4 [6]
0	0xbd0f0e5e	-0.03492581
1	0xbcd45d40	-0.025923371
2	0x3d4381a8	0.04773107
3	0xbd8ee902	-0.069780365
4	0xba829ad4	-0.0009964355
5	0x3cbd43eb	0.023103675

weight f4 [3]
0	0x3f57c822	0.84289753
1	0x3f826a66	1.018872
2	0x3f5102e5	0.8164504

bias f4 [3]
0	0xbdffa5d0	-0.12482798
1	0x3d816038	0.063171804
2	0x3e518fd7	0.20465027

weight f4 [32, 32]
0	0xbe1e9e44	-0.15490061
1	0x3e1b7c58	0.15184152
2	0x3e59ed73	0.21281986
3	0xbb507fe4	-0.003181451
4	0xbdc54015	-0.09631363
5	0x3de0519e	0.10953067
6	0xbedd4ed6	-0.4322421
7	0x3eed1647	0.4630606
8	0x3e8cb4ae	0.27481598
9	0xbe496070	-0.19665694
10	0x3e04b91a	0.12961236
11	0x3e27e724	0.16396767
12	0x3e209153	0.15680437
13	0x3de88e4a	0.113552645
14	0xbd0a0a04	-0.033700958
15	0x3e381526	0.17976817
16	0xbe24c1a9	-0.160895
17	0xbcec22dd	-0.028825218
18	0xbe9c6490	-0.30545473
19	0xbd6fcddd	-0.058545936
20	0xbe49f69e	-0.19722983
21	0x3ca5c99b	0.020237735
22	0x3df3ad6f	0.11898314
23	0xbe9e9cce	-0.30979007
24	0x3de3313b	0.11093374
25	0xbdfdcace	-0.123921975
26	0x3cbc4bf3	0.022985434
27	0x3e85f89b	0.26166233
28	0xbf36f456	-0.7146658
29	0x3eac4ea2	0.33653742
30	0x3e50578a	0.20345894
31	0xbe288fb1	-0.16461064
32	0xbadf5217	-0.0017038014
33	0xbba129bd	-0.0049183057
34	0xbdc2ef08	-0.09518248
35	0xbde175a8	-0.11008769
36	0xbeba7ad1	-0.36421826
37	0x3eab205d	0.3342313
38	0xbd8f1ef1	-0.069883235
39	0xbe03c527	-0.12868176
40	0xbea374bc	-0.31925
41	0xbd61d2c8	-0.055132657
42	0x3c9cd50e	0.019144561
43	0xbd8d7ddb	-0.06908771
44	0x3ea1d43e	0.3160724
45	0xbda79001	-0.081817634
46	0x3e806da8	0.2508366
47	0x3dc0d23d	0.094151
48	0xbdf719fe	-0.120655045
49	0x3dcdbe5b	0.10046073
50	0xbd857474	-0.06516352
51	0x3e987aa7	0.29781076
52	0x3d7c12e9	0.06154147
53	0xbea28cec	-0.3174814
54	0xbe2c986d	-0.16855021
55	0x3efeece0	0.49790096
56	0xbd99a0b1	-0.075013526
57	0x3efb042f	0.4902663
58	0x3e99a444	0.30008137
59	0x3d144e0e	0.03620725
60	0x3ed07e8f	0.40721557
61	0x3e9a9cc2	0.30197722
62	0xbe0812c9	-0.13288416
63	0x3e399165	0.1812187
64	0xbec593e2	-0.38589388
65	0x3e31a8a9	0.17349495
66	0xbe8e8b27	-0.2784054
67	0xbd147576	-0.036244832
68	0xbb3f233d	-0.002916529
69	0x3db39bad	0.08769927
70	0xbec3ea3d	-0.38264647
71	0xbf20d035	-0.628177
72	0x3e30fff6	0.17285141
73	0x3e86bf3a	0.2631777
74	0x3d9c5148	0.07632691
75	0x3c0e2f3b	0.008678253
76	0x3eb5d9d6	0.35517758
77	0x3ed7cb0a	0.42147094
78	0xbe5a75f8	-0.21334064
79	0xbbd68e91	-0.006547757
80	0xbd810793	-0.06300273
81	0x3d5a6905	0.05332281
82	0x3e0ad3b6	0.13557324
83	0x3e67320e	0.22577688
84	0x3dc04e51	0.09389938
85	0x3d97ce43	0.07412388
86	0x3b9bb372	0.004751616
87	0xbd6163f0	-0.05502695
88	0xbe4efc8e	-0.2021353
89	0x3da1b546	0.07895903
90	0xbeb6a4d7	-0.35672638
91	0x3edc4e5f	0.43028542
92	0x3ef1f23c	0.47255123
93	0xbd634d4c	-0.055493638
94	0x3d17a6e5	0.037024397
95	0xbeb6410b	-0.355965
96	0x3eb48c6b	0.3526338
97	0xbd5be32b	-0.05368344
98	0x3e1d4da4	0.15361649
99	0xbdb71fa2	-0.0894158
100	0x3e82d8a1	0.255559
101	0xbe3c29fc	-0.18375391
102	0x3eae2bbb	0.3401774
103	0x3e4197cb	0.1890556
104	0xbe803c1f	-0.2504587
105	0xbb80f270	-0.003935151
106	0x3d5ed363	0.054400813
107	0xbdc960e9	-0.09832937
108	0x3e95e5ce	0.2927689
109	0xbf0473cb	-0.51739186
110	0xbe2acd02	-0.16679767
111	0x3e1ff5f0	0.15621161
112	0xbe28410c	-0.16431063
113	0x3e3e709c	0.18597645
114	0xbe7257a6	-0.23666248
115	0x3e907ed5	0.28221765
116	0x3cc5f5f4	0.024165131
117	0x3e4bd15a	0.1990408
118	0xbe5482dc	-0.20753044
119	0xbe6e9d3d	-0.23302169
120	0x3de1bd38	0.11022419
121	0x3e0594b4	0.13045007
122	0xbebc0ba3	-0.36727628
123	0xbe5a43ba	-0.21314898
124	0xbc300456	-0.010743221
125	0xbc8a7a9c	-0.016904168
126	0x3d43b676	0.04778143
127	0x3dfddaeb	0.12395271
128	0xbe9fe688	-0.3123057
129	0xbdda1da1	-0.106501825
130	0x3d4f8231	0.05066127
131	0xbe0198d9	-0.12655963
132	0x3e8cd1b7	0.2750375
133	0xbed3c5ef	-0.4136195
134	0xbea61282	-0.32435995
135	0x3c5c5ea9	0.013450303
136	0x3e430f92	0.19048908
137	0x3ea18191	0.31544164
138	0x3dfc06cb	0.12305983
139	0xbe3bed80	-0.18352318
140	0xbee8c53d	-0.4546298
141	0x3e17b6a1	0.14815761
142	0xbd00877c	-0.031379208
143	0x3e060d1a	0.13090935
144	0xbe171058	-0.14752328
145	0x3d297b16	0.04137715
146	0xbe50e631	-0.20400311
147	0x3df3ba19	0.1190073
148	0x3dc16409	0.09442908
149	0xbea9e6e8	-0.3318398
150	0x3c154484	0.009110574
151	0x3e8f7476	0.2801854
152	0xbc20ca47	-0.009813852
153	0xbe3f9b64	-0.1871162
154	0xbf1a6fa8	-0.60326624
155	0xbe2768a2	-0.16348508
156	0x3e4d8023	0.20068412
157	0xbe62c2d3	-0.22144632
158	0xbdfe28fd	-0.12410162
159	0x3e6fd51f	0.23421143
160	0x3d973887	0.073838286
161	0xbd23efb3	-0.040023517
162	0xbea5fbd9	-0.32418707
163	0x3db8c732	0.090223685
164	0xbe96578c	-0.29363668
165	0x3cc60205	0.024170885
166	0xbe80387e	-0.250431
167	0xbeada287	-0.3391306
168	0x3f39469a	0.72373354
169	0xbe49a99a	-0.19693604
170	0xbe0b8856	-0.13626227
171	0x3caed31d	0.021340901
172	0x3ea06024	0.3132335
173	0x3f0a1a15	0.5394605
174	0x3d20d4d6	0.039265476
175	0x3dba8817	0.09107988
176	0x3dfe30f2	0.12411679
177	0xbd2dd0e6	-0.04243555
178	0xbee7662a	-0.45195132
179	0xbeb11d19	-0.34592512
180	0xbe3efdae	-0.18651459
181	0x3d9beb8d	0.07613287
182	0xbe444256	-0.1916593
183	0xbdedcdcc	-0.11611518
184	0xbf17c758	-0.5928855
185	0x3d8352a8	0.0641225
186	0x3eb8b5e6	0.36076277
187	0x3dce8a11	0.10084928
188	0xbefa0b13	-0.48836574
189	0xbe2aa2b9	-0.16663636
190	0xbedf7202	-0.4364167
191	0xbdbd0c71	-0.09230889
192	0xbc6c7bed	-0.014433843
193	0xbe011d4e	-0.12608835
194	0xbd66aa16	-0.05631455
195	0xbdbae0fa	-0.09124942
196	0x3e0a631a	0.13514367
197	0xbe4b0905	-0.1982766
198	0xbec54fa1	-0.38537315
199	0x3e391e9f	0.18078087
200	0xbe9e0ae0	-0.30867672
201	0xbdcba70a	-0.099439695
202	0xbeb180e3	-0.34668645
203	0x3f0af2a7	0.5427651
204	0x3e966688	0.293751
205	0xbe751ee6	-0.23937568
206	0xbe14abc6	-0.14518651
207	0xbd4d16b3	-0.050070476
208	0x3ccead25	0.025229046
209	0xbd9b3e15	-0.075802006
210	0xbe694433	-0.22779922
211	0x3ed5f5f9	0.41789225
212	0xbe725d42	-0.23668388
213	0xbd58a938	-0.052895755
214	0xbea64290	-0.32472658
215	0x3e8fdc39	0.28097704
216	0xbddf8397	-0.10913771
217	0xbdfb192f	-0.12260663
218	0xbe391a04	-0.1807633
219	0x3c0b721e	0.008511094
220	0x3e150129	0.14551224
221	0x3d676ab2	0.056498237
222	0xbd79086d	-0.06079905
223	0xbe891c2f	-0.26779315
224	0x3dd629f3	0.1045722
225	0x3ed41451	0.4142175
226	0x3f1f9216	0.62332284
227	0x3ddd8a1b	0.10817357
228	0x3ed6a753	0.41924533
229	0xbe2f950c	-0.171467
230	0x3e73acdb	0.23796408
231	0xbe632aba	-0.22184268
232	0xbd1ab081	-0.037765983
233	0x3e8398a7	0.25702402
234	0x3eb62719	0.35576704
235	0xbe8901be	-0.26759142
236	0xbe863b9b	-0.2621735
237	0x3e7286e7	0.23684274
238	0xbdd8e5a7	-0.10590678
239	0xbe4f6afc	-0.20255655
240	0x399a4b28	0.00029429165
241	0xbd9679de	-0.07347463
242	0xbed26ee3	-0.41100225
243	0xbdabf89f	-0.0839703
244	0x3ea774cb	0.32706293
245	0xbe8fc417	-0.28079292
246	0xbef4bd3d	-0.47800627
247	0xbd8a1887	-0.067429595
248	0xbde0c35e	-0.10974763
249	0x3f322a93	0.69596213
250	0x3e95af9e	0.29235548
251	0x3d52b94b	0.05144624
252	0xbe277cdd	-0.16356225
253	0xbe9a4fc5	-0.30138984
254	0x3daf4548	0.08558136
255	0xbd510cbb	-0.05103753

bias f4 [32]
0	0xbccc8324	-0.024964876
1	0x3cfce9a1	0.030873122
2	0xbc808c5e	-0.015691932
3	0x3bd80cdb	0.0065933294
4	0xbb15ab3d	-0.0022837662
5	0x3a506f4d	0.00079511554
6	0xbc5c6a6e	-0.013453109
7	0xbc8a2e60	-0.016867816
8	0xbc0e24d3	-0.008675772
9	0x3ceca390	0.028886586
10	0xbc181711	-0.009282843
11	0xba9f08a7	-0.0012133316
12	0xbc0b0853	-0.008485871
13	0x3ca15426	0.019693445
14	0xbc971c81	-0.018446209
15	0xbb176c00	-0.0023105145
16	0x3d089d32	0.033353038
17	0xbcac7635	-0.02105246
18	0x3c285fd9	0.010276758
19	0x3c00967b	0.007848377
20	0xbd041716	-0.03224858
21	0xbbefe104	-0.007320525
22	0x3c00b036	0.007854512
23	0x3ca74fd3	0.020423805
24	0x3caa25a3	0.0207699
25	0x3b149179	0.0022669716
26	0xbbf0976b	-0.007342269
27	0x3b4d0f95	0.0031289805
28	0x3bb4f6f7	0.0055226046
29	0x3c5b42ba	0.013382608
30	0xbc8abd65	-0.016936013
31	0x3c13a45d	0.009011355

weight f4 [32, 32]
0	0x3e395761	0.18099739
1	0xbe249a31	-0.16074444
2	0xbed99c58	-0.42502093
3	0x3ec5dca9	0.38644913
4	0x3e896c9e	0.2684068
5	0x3eb5eb47	0.35531065
6	0x3e07d999	0.132666
7	0x3da671d6	0.08127181
8	0x3d7ce697	0.061743345
9	0xbea7f8da	-0.32807046
10	0xbf22245b	-0.63336724
11	0x3e55a24c	0.20862693
12	0x3e814ef2	0.25255543
13	0xbec250b0	-0.37952185
14	0x3ecafc75	0.39645734
15	0xbd34ed2b	-0.044171494
16	0xbba552e7	-0.005045283
17	0xbc92ba80	-0.017911196
18	0x3d059a2d	0.032617737
19	0x3d8becc1	0.068322666
20	0xbde307ac	-0.11085448
21	0xbeebe948	-0.46076417
22	0x3ebfa2ad	0.374288
23	0x3e962ff8	0.29333472
24	0xbe110483	-0.14161877
25	0xbdbe70a1	-0.09298826
26	0xbdd6e401	-0.10492707
27	0xbcd6f7b4	-0.02624116
28	0xbc0f0c1b	-0.0087309135
29	0x3e5e7905	0.21725853
30	0x3dd9d00d	0.10635386
31	0xbd889533	-0.066690825
32	0xbe893739	-0.26799944
33	0x3cdd212d	0.026993359
34	0x3e0b5259	0.13605632
35	0xbe64c995	-0.22342522
36	0x3eb47316	0.35244054
37	0xbe991e76	-0.29906052
38	0xbe81b4e8	-0.25333333
39	0x3e8a71c9	0.27039936
40	0x3e80eec8	0.25182176
41	0xbecd2bf5	-0.400726
42	0xbe3e21c1	-0.18567564
43	0xbdac7ce4	-0.084222585
44	0x3e909db1	0.2824531
45	0x3e78645d	0.24257036
46	0xbe22607f	-0.15857123
47	0xbe383306	-0.17988214
48	0xbe38568b	-0.18001764
49	0xbe99ab31	-0.3001342
50	0xbe57469a	-0.21023026
51	0xbe82594a	-0.25458747
52	0x3ccff044	0.025383122
53	0x3dbf3c22	0.09337641
54	0xbe921c07	-0.28537008
55	0x3dcf4c7b	0.10122009
56	0x3e5751a4	0.21027237
57	0x3d1e9521	0.03871644
58	0xbc61f0d5	-0.013790329
59	0x3dd1407b	0.10217377
60	0xbe9f111d	-0.31067744
61	0x3e1b9385	0.15192993
62	0xbe86b3e4	-0.2630912
63	0x3da6f755	0.081526436
64	0xbeae7973	-0.34077033
65	0x3d66c3dc	0.05633913
66	0x3e4ce33b	0.20008557
67	0x3d67dedb	0.056609016
68	0xbe46f730	-0.19430232
69	0x3d223996	0.0396057
70	0xbe32fa13	-0.17478208
71	0x3e7ad538	0.24495399
72	0x3e442a4a	0.19156757
73	0x3dc64f61	0.09683109
74	0xbeaf8d5d	-0.3428754
75	0x3e021e35	0.12706836
76	0xbea465e5	-0.3210899
77	0x3e776387	0.2415906
78	0x3e8ee87a	0.2791174
79	0xbbe24750	-0.006905474
80	0x3d7f8ad7	0.062388267
81	0x3ea0d396	0.31411427
82	0x3e4bace2	0.19890168
83	0xbcde37dd	-0.027126247
84	0xbde9b70b	-0.11411866
85	0x3ebb9518	0.36637187
86	0x3cac74d0	0.021051794
87	0x3d64b24c	0.0558341
88	0xbaa52409	-0.001259924
89	0xbd49e6b2	-0.049292274
90	0x3f0028a9	0.5006204
91	0xbec77656	-0.3895747
92	0xbe3c2f44	-0.18377405
93	0x3d7715e5	0.060323615
94	0x3c9f8f10	0.019477397
95	0x3f04984a	0.51794875
96	0x3e7c1d55	0.24620564
97	0x3e071502	0.13191608
98	0xbec3338e	-0.3812527
99	0xbeed1e49	-0.46312168
100	0xbda6c75a	-0.08143492
101	0xbe4ec323	-0.20191626
102	0xbe1e242a	-0.15443483
103	0x3e506662	0.20351556
104	0xbda89699	-0.08231849
105	0x3d12e0dd	0.035858978
106	0x3dcc676a	0.09980662
107	0x3c95d603	0.018290525
108	0x3dacc9ec	0.08436951
109	0xbda95935	-0.08268968
110	0xbe519971	-0.2046869
111	0xbe1776d8	-0.14791429
112	0x3e7485ea	0.23879209
113	0x3debb505	0.11509136
114	0xbebc1c37	-0.36740276
115	0xbdf7413b	-0.120729886
116	0x3ebdbd01	0.3705826
117	0xbd8eee04	-0.06978992
118	0x3d8a1368	0.06741983
119	0xbea0bd3a	-0.31394368
120	0x3e0bac82	0.13640025
121	0xbd915cb2	-0.07097758
122	0xbd391125	-0.045182366
123	0xbd8e5058	-0.06948918
124	0x3e07bcfd	0.13255687
125	0xbe16fd80	-0.1474514
126	0x3d379b5f	0.044825908
127	0xbe57d9cf	-0.21079181
128	0xbe026e32	-0.12737349
129	0xbe099906	-0.1343728
130	0x3e4cef20	0.20013094
131	0x3e0d79ea	0.13816038
132	0xbe9bef82	-0.30456167
133	0xbdea3045	-0.11434988
134	0x3e804262	0.25050646
135	0xbac55f09	-0.001505823
136	0x3c93860a	0.01800825
137	0xbe9e7bc8	-0.30953813
138	0x3e343655	0.17598851
139	0x3d8b11ce	0.06790505
140	0x3f4213a2	0.7581121
141	0x3e5e7b42	0.21726707
142	0xbcd8f061	-0.02648181
143	0x3d6eff00	0.058348656
144	0xbd49672a	-0.04917065
145	0x3e8670db	0.26257977
146	0xbed523cb	-0.4162887
147	0xbea1b1b3	-0.31580886
148	0x3eb576cd	0.354422
149	0xbde2f93c	-0.11082694
150	0xbe14b99e	-0.14523932
151	0x3dabada8	0.08382732
152	0x3ebf84b9	0.37405947
153	0xbef71c4e	-0.48263782
154	0xbc4c30d2	-0.012462812
155	0x3d9bbbc3	0.07604172
156	0x3d142638	0.03616926
157	0xbdaa36c1	-0.08311225
158	0xbe5d10a0	-0.21588373
159	0xbdd2d717	-0.102949314
160	0xbdc37ca2	-0.09545256
161	0xbd589746	-0.05287864
162	0xbd065ca6	-0.0328032
163	0xbe840c55	-0.2579066
164	0xbebcd70e	-0.36882824
165	0x3e8d5491	0.27603582
166	0x3e1a77a5	0.15084703
167	0xbe1e6b0b	-0.15470521
168	0xbe27d649	-0.16390337
169	0xbe1d3313	-0.15351515
170	0xbe5a6449	-0.21327318
171	0xbf19957c	-0.5999372
172	0xbe1024d0	-0.14076543
173	0x3bb50d4b	0.0055252663
174	0xbe1cc36b	-0.15308921
175	0x3e276a2c	0.16349095
176	0xbe146850	-0.14492917
177	0xbe4dc875	-0.20096
178	0x3e3c9f75	0.18420203
179	0x3e716d3c	0.23576826
180	0x3e2c5878	0.16830623
181	0x3eaca61b	0.33720478
182	0xbe63992f	-0.22226404
183	0x3e233936	0.15939793
184	0xbf05edbe	-0.5231589
185	0x3cf4c378	0.029878363
186	0x3ea91b93	0.3302885
187	0xbd8c6064	-0.068543226
188	0x3eaa62d1	0.33278516
189	0xbd705f89	-0.05868486
190	0x3c5f339f	0.013623147
191	0xbe4c477b	-0.19949143
192	0x3f20aa4c	0.6275985
193	0x3e430b36	0.19047245
194	0xbea6156f	-0.32438228
195	0x3d744563	0.059636485
196	0xbce839af	-0.028347818
197	0x3ecb2098	0.39673305
198	0xbd191a00	-0.03737831
199	0x3db6b8ab	0.08921941
200	0xbd38597e	-0.04500722
201	0xbef1136d	-0.47085133
202	0x3ea53684	0.32268155
203	0x3e67a29d	0.22620626
204	0x3f06f03f	0.52710336
205	0x3d9b213f	0.075747006
206	0xbd13452f	-0.03595465
207	0xbdacada2	-0.08431555
208	0xbced158b	-0.028940937
209	0x3f2a6466	0.66559446
210	0xbdb95465	-0.090493
211	0x3e39af0e	0.18133184
212	0x3e3024a6	0.1720148
213	0x3e6063f0	0.21913123
214	0x3db44b5b	0.088034354
215	0xbd9c0c5c	-0.07619545
216	0xbe27430b	-0.16334169
217	0x3e558c50	0.20854306
218	0xbdbd211d	-0.092348315
219	0x3e3e8989	0.18607153
220	0xbe02f2a4	-0.12787873
221	0xbe8b7a50	-0.27241755
222	0x3dd746c1	0.10511542
223	0xbdf18c64	-0.117943555
224	0x3e2d8539	0.16945352
225	0xbe7a3dc4	-0.24437624
226	0x3ee0fc0f	0.43942305
227	0xbef31e7f	-0.47484204
228	0x397bc5a5	0.00024010854
229	0x3d691737	0.056906905
230	0x3d154b66	0.03644886
231	0x3deee5ee	0.11664949
232	0xbe31a557	-0.17348228
233	0xbdc2c79b	-0.09510728
234	0x3efddb44	0.4958135
235	0xbe925838	-0.2858293
236	0xbda51c4c	-0.08062038
237	0x3e37decd	0.17956086
238	0xbdb638b2	-0.088975325
239	0x3e6de187	0.23230563
240	0xbedfde02	-0.43724066
241	0x3de99608	0.11405569
242	0xbe995afb	-0.29952225
243	0x3e8b4092	0.271977
244	0x3ead955d	0.33903018
245	0xbe749439	-0.23884667
246	0xbe069d2e	-0.13145897
247	0x3dd288b0	0.10279977
248	0x3e25d36b	0.16193931
249	0x3e943234	0.28944552
250	0x3c97bf82	0.018523935
251	0xbeb03561	-0.34415725
252	0xbe47e4c7	-0.19520865
253	0xbccbe6de	-0.02489036
254	0xbec58a51	-0.3858209
255	0xbd32965e	-0.043600433

bias f4 [32]
0	0xbcaf2c7a	-0.021383513
1	0xbc121b0f	-0.008917584
2	0xba69bc58	-0.000891631
3	0x3bc502a0	0.006012276
4	0xbce65e7d	-0.028121227
5	0xbc24f485	-0.010068064
6	0xbad7e23e	-0.0016470624
7	0xbcc08bd8	-0.023504183
8	0x3ba6bffa	0.0050888034
9	0xbbb9d203	-0.0056707873
10	0xbc0b2d1f	-0.008494644
11	0xb992ddce	-0.00028012547
12	0xbc7110ee	-0.014713509
13	0xbc237e01	-0.009978772
14	0x3bdad615	0.0066783526
15	0x3bf82b04	0.0075734872
16	0xbc0495bb	-0.008092339
17	0xbbf0aaa8	-0.0073445626
18	0x3d075551	0.03304035
19	0x3b2f2353	0.0026723936
20	0xbc51457c	-0.012772914
21	0xbc7f635a	-0.015587652
22	0x3cb73308	0.0223632
23	0x3c482ce8	0.012217738
24	0x3b796401	0.0038053992
25	0x3d22e7dc	0.0397719
26	0xbc440458	-0.011963926
27	0xbca9ec8d	-0.020742679
28	0xbcd2d78c	-0.025737546
29	0x3d040912	0.032235213
30	0xbc78f5e5	-0.015195345
31	0x3aba488c	0.0014212294
