Notebooks_Development/mlartifacts/400716610318719328/b82175e0e93f4c9896edd58b19156386/artifacts/model/data/model.pth (torch, 369731 bytes, 383 tensors)

weight f4 [8, 1]
00000000: 965c b93e a615 e83e f2aa f73e 13a4 1abf
00000010: b26f 043f 8cee 473f fa32 3cbf e27c cabe
0.3620345 0.45329016 0.48372608 -0.6040661 0.51732934 0.7809837 -0.73515284 -0.39548403

bias f4 [8]
00000000: 3a05 b6be 99b0 813f 6acf 3bbf 4162 1bbf
00000010: eaa9 74bf 14b9 053c dc6f 57bf ed8f 72bf
-0.35550863 1.0132018 -0.73363364 -0.606968 -0.9557177 0.008161802 -0.8415506 -0.94750863

weight f4 [8, 1]
00000000: 60eb abbe 9fe9 e73e 12e8 17bf e599 c3be
00000010: a305 163f 17fe 523e 414b 253f a894 42bf
-0.33578014 0.45295426 -0.59338486 -0.3820335 0.5860235 0.2060474 0.64567953 -0.7600808

bias f4 [8]
00000000: f97f 853e eecd 6d3f 8fe4 7f3e 8a0e 303f
00000010: b176 9bbe f0c5 223f f24b 1cbf b641 fb3e
0.26074198 0.9289235 0.24989532 0.68772185 -0.30363992 0.6358328 -0.61053383 0.4907357

weight f4 [8, 1]
00000000: 1499 f4be 59dc 7bbe cb98 7f3b 439f 683f
00000010: e94d 6fbe f37b 0cbe 307b 0cbf 7bb7 1a3e
-0.4777304 -0.24595775 0.0039000984 0.90868014 -0.23369564 -0.13719158 -0.5487547 0.15109055

bias f4 [8]
00000000: 4bcd 303f fd37 553f 5fd4 c6bc d728 32bf
00000010: c3c0 253f 3065 423f 3943 1e3e 4d65 3dbc
0.6906325 0.83288556 -0.024271188 -0.69593567 0.64747256 0.7593565 0.15455331 -0.0115597965

weight f4 [8, 1]
00000000: 8d9d 833f 3ddb 3e3f 3fc4 fdbe 8a1f 063f
00000010: da6f 363f 759b d93e 95ff b53d 81c4 223f
1.0282456 0.7455328 -0.49563786 0.52391875 0.7126442 0.42501417 0.08886639 0.6358109

bias f4 [8]
00000000: 0c43 213f 9f93 483f ae14 4c3f 943e 7bbf
00000010: f1bb 713f 441a e0be c402 48bf b32c cd3e
0.6299293 0.7835025 0.79719055 -0.9814236 0.944274 -0.4377004 -0.7812922 0.40073165

weight f4 [8, 1]
00000000: 5a9a 453e 277f 973e ed25 4ebf 5569 533d
00000010: ee34 9fbe 541a 9bbe d37c 893e a158 b4be
0.19297162 0.29589197 -0.8052662 0.051614124 -0.3109507 -0.30293524 0.26853046 -0.35223868

bias f4 [8]
00000000: 63ad b03e a564 d13e a1b0 6dbf f9a1 5cbf
00000010: cae7 29bd addf 4fbf daa1 87be 4621 62bf
0.34507284 0.40897098 -0.9284764 -0.8618465 -0.041480817 -0.8120068 -0.2649067 -0.8833202

weight f4 [8, 1]
00000000: 5566 4ebe 4c0d 73bf 3fa8 e0be 6d98 d1bd
00000010: b574 213f 331c cbbe bf8c ebbe 3cef 62bf
-0.20156224 -0.94942164 -0.43878362 -0.10234151 0.63068706 -0.39669952 -0.46005818 -0.8864629

bias f4 [8]
00000000: 5d00 fdbe 5b2f c9be 5e93 ed3e 7b4f 903d
00000010: f245 f6be 346a 21bf a6da 9f3d 4e82 493f
-0.4941434 -0.39293942 0.46401495 0.0704641 -0.4810024 -0.6305268 0.07805376 0.78714454

weight f4 [8, 1]
00000000: 5c8e 3d3f b921 12bf 53e6 373f 7236 b9be
00000010: 9460 54bf 6cf9 2bbf 891c 85bf 5ec0 cf3e
0.7404535 -0.57082707 0.7183582 -0.3617435 -0.82959867 -0.6717746 -1.0399333 0.40576452

bias f4 [8]
00000000: c53c 3cbc ea18 803f 970c ae3e 8ed9 563f
00000010: c724 863f 3354 183f ca7e 733f e0ea f03e
-0.011489098 1.0007603 0.3399398 0.8392571 1.0479974 0.5950348 0.9511534 0.47054195

weight f4 [8, 1]
00000000: 7bbb 13bf c178 be3e eed3 4ebf 1b7b 723e
00000010: 26eb 2fbf 4b7c debe 25fd 9a3e 6b89 e03d
-0.5770795 0.37201503 -0.8079213 0.23679774 -0.68718183 -0.43454203 0.3027126 0.109637104

bias f4 [8]
00000000: 2de2 133f 93a1 033d 94f0 183f b0a9 0d3f
00000010: 7f4c 16bf fdb2 043f c254 993e 0271 a8bd
0.5776699 0.03213651 0.59742093 0.5533705 -0.58710474 0.51835614 0.29947478 -0.082246795

weight f4 [8, 1]
00000000: d9f4 033f 8fde 523f 318b 54bf d9a2 483e
00000010: a914 2dbf 7176 23be d7fd 5f3e 2355 7e3f
0.5154548 0.8237085 -0.8302489 0.19593371 -0.6760965 -0.1596315 0.21874176 0.9934866

bias f4 [8]
00000000: 1a1e 5ebe 473c 3ebe 6f28 3fbf 9604 113e
00000010: 4445 76bf f27a 483f 06ec 1f3f 9138 f23e
-0.2169117 -0.18577681 -0.7467107 0.14161906 -0.9619944 0.783126 0.6246952 0.47308782

weight f4 [8, 1]
00000000: e7fe 27bf 8875 5c3f a2f7 413f c723 163f
00000010: 2241 af3e a5f6 133f cf65 053f c3f1 7dbf
-0.65623325 0.8611684 0.7576848 0.5864834 0.3422938 0.57798225 0.5210847 -0.99197024

bias f4 [8]
00000000: 2bf7 f13e 299a 383f 881a 3fbf b86e a23d
00000010: 7cfa 78bf 2cc1 0dbf 5146 2c3f fe47 22bf
0.47258887 0.7211023 -0.7464986 0.07931274 -0.9725721 -0.5537288 0.67294794 -0.633911

weight f4 [8, 1]
00000000: e768 143f 1a39 e9be 285d 20bf 07e1 29bf
00000010: 75e3 25bf dbc7 e63e 43d1 10bf 6207 67bf
0.5797257 -0.45551378 -0.62642145 -0.6635899 -0.64800197 0.45074353 -0.5656931 -0.9024564

bias f4 [8]
00000000: 4cd2 303f 80b5 ed3e 058e 7cbf eb7a cd3e
00000010: a35b 32bf e5fc f9be bd5d 083e 270f ab3d
0.6907089 0.46427536 -0.98654205 0.4013284 -0.69671077 -0.48825756 0.13317008 0.083524995

weight f4 [8, 1]
00000000: 2d2c 0e3f 14cb 94bf 974b 983f 95fa c5bc
00000010: 6cdf f43d 6e0f 16bf baff d53e 4285 36bf
0.55536157 -1.1624475 1.1898068 -0.024167338 0.11956677 -0.58617294 0.41796666 -0.71297085

bias f4 [8]
00000000: 0d25 b0be 563e e43e 7953 403d 1cba c13d
00000010: 17a1 04bf 2978 a0be cd82 603f e9c3 813e
-0.34403268 0.4457881 0.046954606 0.09459326 -0.51808304 -0.31341675 0.87699586 0.2534478

weight f4 [8, 1]
00000000: ea2f ecbd a08e 27bf 112e 0c3f d8f8 a73c
00000010: 532b 7c3e a7b3 47be 4fdd 3e3c 03b5 bd3e
-0.115325764 -0.65452003 0.5475779 0.0205044 0.24625902 -0.19502126 0.011649444 0.37052163

bias f4 [8]
00000000: bd4b a6be cfdc c5be 40e3 a03e 34c2 c63e
00000010: 4d5c 38be 316a d4be 4306 22bf c8d2 413f
-0.3247966 -0.38645026 0.31423378 0.3882004 -0.1800396 -0.41487268 -0.63290805 0.7571225

weight f4 [8, 1]
00000000: f47b 823f 0a7b c53e ba8e 5dbf 33b8 673f
00000010: fac1 90bd 3c6a 3f3f eca5 31bf 88f5 0cbf
1.0194077 0.38570434 -0.8654591 0.9051544 -0.07068248 0.74771476 -0.693938 -0.5506215

bias f4 [8]
00000000: 69d2 a8be 455a 673f bd86 d23e 7651 e8be
00000010: 4ee2 223f cc14 2cbe 550c a33e 034d 7bbf
-0.3297303 0.90372115 0.41118422 -0.4537465 0.63626564 -0.16804808 0.31845346 -0.98164386

mask f4 [3]
00000000: e988 a9bd 64ca 173d e4c8 eabc
-0.08278067 0.03705825 -0.028660245

weight f4 [3]
00000000: 8670 833f c9ac 673f 4a67 853f
1.0268714 0.90498024 1.0422146

bias f4 [3]
00000000: b5f3 e93d 6a14 d6bc fd26 babd
0.114234366 -0.026132781 -0.09089468

weight f4 [3, 24]
00000000: d8de edbb 54a9 d43d a0c4 08be 665d 63bd
00000010: db97 1a3f ab41 8fbe b0cf 13be e442 c93e
00000020: e6e4 f2bd 30d3 f43d 6646 0c3f 65a7 e43d
00000030: 9315 3abe 3aec c33e 412b 2bbd 6458 f23e
00000040: 47a8 803e 07f1 263e d55c c13e 67ca 973e
00000050: 1cbf 99be 6047 a9bd da40 47bf ce04 883c
00000060: 30a0 84bd 8181 2dbf b053 9c3e 1a4a 1a3f
00000070: 93be 04be 7437 82be 55bb d6bd 24af 0c3e
00000080: 89df a4be e194 8bbe 6400 4a3e 1133 c5bd
00000090: dd12 89be b1a4 8ebe a171 9bbe b067 8b3e
000000a0: a3d7 e4be a74b df3d fc3e 3b3e aac8 8abe
000000b0: 7ba1 ae3e 749e b53e d356 133e b9db c73e
000000c0: f6df 14be ca04 2dbf ceb6 0dbf da1f e9be
000000d0: e8e7 2a3f abd1 933e 24f0 c1be fd74 76be
000000e0: 8298 cbbe ad00 c83e 7e9c cfbd 452e f5be
000000f0: f324 ecbc 782c 85be 0098 533d 9ce9 8bbc
00000100: 53da 1d3f 37d0 19be 0928 023f 5dc9 6a3e
00000110: c020 56bd d07a 44be bb83 723e fe0c 75be
-0.007259231 0.10383859 -0.13356256 -0.055508994 0.60387963 -0.27979788 -0.14434695 0.39308846
-0.11860065 0.11954343 0.5479492 0.111647405 -0.18172292 0.38266164 -0.041789297 0.47333062
0.25128385 0.16302882 0.37766138 0.29646608 -0.30028617 -0.08265567 -0.7783333 0.016603854
-0.06475866 -0.6777573 0.30532598 0.6026932 -0.12963323 -0.25432932 -0.104849495 0.13738686
-0.32201794 -0.27262023 0.19726712 -0.09628881 -0.26772204 -0.27860025 -0.3036013 0.27227545
-0.44695768 0.109031014 0.18285745 -0.2710622 0.34107575 0.35472453 0.1438859 0.39034823
-0.1453856 -0.6758543 -0.5535706 -0.45532113 0.6676011 0.288709 -0.37878525 -0.24068065
-0.39764792 0.39063016 -0.101372704 -0.47886863 -0.028826213 -0.2601049 0.05165863 -0.017079167
0.6166126 -0.15020834 0.5084234 0.22928376 -0.052277327 -0.19187474 0.23683064 -0.23930737

bias f4 [3]
00000000: 56df 25bd 4a63 723d 2fc3 a8bd
-0.040496193 0.05917672 -0.08240353

weight f4 [3, 3]
00000000: ce61 113f eb5e c5bf cd9c 05be 32ac bebf
00000010: a7be f7be a9cd 7ebf f2be 313e 67f0 1a3f
00000020: 1239 6fbf
0.56789863 -1.5419592 -0.13048096 -1.48963 -0.48387644 -0.9953256 0.17357996 0.60523075
-0.9344646

bias f4 [3]
00000000: 2993 e5bc 6340 d83d ecd0 053d
-0.028024273 0.10559156 0.032669947

weight f4 [6, 3]
00000000: bf6c 9bbe d240 c73e 64ee 35bf d6cb c2bd
00000010: 6f0a 98be d639 063d 4f37 3bbf fe43 da3c
00000020: 57b6 c73e 447e 113f 3e11 1abf 433d 2fbd
00000030: 68d2 913e 2d03 24be 24ae 303f 85b2 e9be
00000040: 802e 87be 0637 21be
-0.30356404 0.3891664 -0.7106688 -0.09511535 -0.2969546 0.03277 -0.7313127 0.02664375
0.39006302 0.5683329 -0.6018256 -0.042783033 0.2848084 -0.16016836 0.6901572 -0.45644012
-0.26402664 -0.15743646

bias f4 [6]
00000000: f189 bf3d 7d56 f33c 5f83 93bd cbe8 6b3d
00000010: 2727 93bc 9cb7 0fbd
0.09352482 0.029704327 -0.072027914 0.057595056 -0.017963005 -0.035087213

weight f4 [3]
00000000: cefb 973f bab7 703f 7660 433f
1.187372 0.94030344 0.7631906

bias f4 [3]
00000000: e10d 0b3e 2b16 7abd 633c 47bd
0.13579513 -0.061056297 -0.048641574

mask f4 [16]
00000000: 4a01 9a3c 9bd0 bb3d 3d46 e3bc 119a 06be
00000010: 3752 1bbd a2b3 313d e07b 8abb e807 ffbc
00000020: ea46 293d ec8a 49bd 4f5b 643d e817 81bc
00000030: c665 e0bb a124 f8bc fd14 f6bd 0b6c b13d
0.018799443 0.09170648 -0.027743453 -0.13144709 -0.037920203 0.0433842 -0.004226193 -0.0311317
0.041327395 -0.04920475 0.05575114 -0.01575847 -0.00684807 -0.030290904 -0.12015722 0.08663186

weight f4 [16]
00000000: b460 793f 9a13 8b3f 8366 793f 7e4f 613f
00000010: 9b7e 853f a41b 853f b933 7c3f ea6b 763f
00000020: eff1 853f 5bc9 7b3f a62e 853f 2f9b 7a3f
00000030: 5ae1 7d3f f89b 763f e557 633f dfd5 893f
0.9741318 1.0865357 0.97422045 0.8801192 1.0429262 1.039906 0.9851642 0.96258414
1.0464457 0.9835412 1.0404861 0.9789304 0.99171984 0.9633174 0.8880599 1.0768393

bias f4 [16]
00000000: 2219 cabc 12b4 ac3d 50d7 c9bc 054a f1bd
00000010: 3a8e 303d a340 27bd dd79 6f3c 6c47 183d
00000020: 4c9a 12bd e3cf 47bc 31a1 2d3d 1d65 b4bc
00000030: d7c5 053c 8cf7 163d 344a e73d 46c2 9abd
-0.024670187 0.08432783 -0.024638802 -0.11781696 0.043104388 -0.040833127 0.014616457 0.03717749
-0.03579168 -0.01219556 0.042390052 -0.02202087 0.0081648445 0.036857173 0.1129345 -0.07556586

weight f4 [8, 8]
00000000: 341f c9bd 98ba b63d 26e5 17bf 4257 17be
00000010: b4bf f7bc 2fea 60bf 53d7 75be 791e a73e
00000020: 250b c23d 6fd4 95be 3c2e 313f f776 e7bd
00000030: c1fc 92be f74d 68be dbd6 8a3e 64a0 15be
00000040: 1f15 12bf 5812 773e fdad e5be 7acc 963e
00000050: 3cc3 90be cba1 6c3e c9eb a73f e85d 153e
00000060: 217d 1ebc 6a4f 393f 6f2b d13e b122 f53e
00000070: 21c7 203c 6fad 8fbc c917 8c3f af34 a83e
00000080: 9291 d7bc 2b40 a9be ebe5 b13e cb2f 5a3e
00000090: 829e 7cbd 5ef3 29bf 931a 82bd f432 333f
000000a0: e4e9 083f 9e26 dfbd bdb8 5c3e e9ec 713f
000000b0: ee77 fb3e 8286 b33e 0849 b23e 8cfd 81bf
000000c0: b5fc 413f f536 ab3e 27ee 043f 5687 dd3d
000000d0: 4512 b23e ac86 493e cfa1 f6be a53a 4d3f
000000e0: d950 ec3e 3406 d5be f9a8 0a3e 72e3 61bf
000000f0: af0f 65bc 8b15 b1be f9fb b3bf 294d 59bf
-0.09820405 0.08922309 -0.5933403 -0.1477938 -0.030242778 -0.87857336 -0.24007921 0.32640436
0.09474782 -0.29263636 0.69211173 -0.113019876 -0.2870846 -0.22685991 0.27117047 -0.14611965
-0.5706348 0.24128091 -0.44859305 0.29452878 -0.28273952 0.23108594 1.3118831 0.14586604
-0.009673388 0.723868 0.4085345 0.4787803 0.009813101 -0.017538754 1.0944759 0.32852694
-0.02631453 -0.3305677 0.34745726 0.21307294 -0.061674602 -0.66386974 -0.06352725 0.69999623
0.5348189 -0.108960375 0.21554847 0.9450212 0.49114937 0.3506356 0.34821343 -1.0155501
0.75776225 0.33440366 0.5192589 0.10816829 0.34779564 0.1968028 -0.48170325 0.8016761
0.46155432 -0.41606295 0.1354102 -0.8823768 -0.01398079 -0.34586748 -1.4061271 -0.8488336

bias f4 [8]
00000000: 46a1 053e 5e44 11bb 125c acbb da19 82bd
00000010: a47c aebd 3f71 553d d4be debc 41d7 ea3c
0.13049802 -0.0022165994 -0.005259999 -0.06352587 -0.08519867 0.052109953 -0.027190603 0.028667094

weight f4 [8, 8]
00000000: 80ed 6abe 7201 073f 6278 1d3e 2383 853e
00000010: 29c2 a63c 7985 ae3e 97ab 35bf 8f32 0bbe
00000020: 3e51 75be 6713 d13e 9aec 4ebf 2a71 19bf
00000030: 57ce a03e 2ae1 e3bd 1446 a2be e59c 8f3e
00000040: 4773 5a3d f6f8 59be b737 4bbd 8e1c 5cbf
00000050: 52a4 8ebf 6e79 e7bd 0b3c 9d3e 6bee c83e
00000060: 326d 6cbf 1415 073f e26a 32be 20b8 343f
00000070: 39db 453f 5824 d7be 9710 22bd 80e0 bdbb
00000080: 28ac 64bf dea3 5a3e 54fa be3d 0e4c 69be
00000090: 0a2b b83e bd47 9b3e f4f9 2cbe 1e67 4e3f
000000a0: a554 08be fbc9 48bd 96e0 eebe 0993 3b3f
000000b0: 1147 ac3d f4f7 173e 5762 1f3f 2933 1c3f
000000c0: 28af 1a3e 48f2 913d d4ed 33bd 7379 8abe
000000d0: 3424 82bf 084b 5fbe ec90 45be 0b4b fe3e
000000e0: e4b0 733e e7ba 983f c207 c3bf 9c0c 50bf
000000f0: 2d63 803e 3d9f 393e 32cc 13bd 9642 023f
-0.22942162 0.5273658 0.15377954 0.26076612 0.020356255 0.34086207 -0.7096495 -0.13593505
-0.23956773 0.40835115 -0.80829775 -0.599383 0.31407425 -0.11126931 -0.3169409 0.2804939
0.053332593 -0.21286377 -0.04961368 -0.8598107 -1.1143897 -0.11302458 0.30709872 0.39244398
-0.9235412 0.5276654 -0.17423585 0.7059345 0.7728763 -0.42019916 -0.039566603 -0.0057945848
-0.8932519 0.21351573 0.0932509 -0.22782919 0.35970336 0.3032817 -0.16892225 0.80626094
-0.1331354 -0.04902075 -0.4665572 0.7327123 0.08411992 0.1484068 0.6225943 0.61015564
0.1510588 0.071262896 -0.043927982 -0.27045783 -1.0167298 -0.21805966 -0.19293565 0.49666628
0.23797947 1.1932038 -1.5236742 -0.8126924 0.25075665 0.18127151 -0.036083408 0.5088285

bias f4 [8]
00000000: ecfb 923c 9193 993b cca3 2e3d 1906 ebbd
00000010: 8e92 b1bb bf36 c7bb 563c 923d 2393 9a3c
0.017942391 0.0046867807 0.042636678 -0.114757724 -0.005419082 -0.0060795243 0.071404144 0.018868988

weight f4 [32, 8]
00000000: 25ee 9bbc 75a9 ac3d 672d 4cbd 7456 983e
00000010: 77fc 8c3e 30bc 89bd 5983 a5be 15d9 88be
00000020: 2a67 423e 0a94 893d ff1a dc3e 8f50 02be
00000030: df48 09bd 0373 db3e 95b6 613e 56b4 983e
00000040: 486f 7ebe cb48 153e c90c 9c3e 46ec adbd
00000050: 6d62 96be f8e8 bb3e a0ef 6a3e e695 83be
00000060: d9fd e43d 5c3e bd3d 0171 47be 54d7 e53e
00000070: 3cf5 46be 8b6b 6b3e 9657 acbe 6740 c8bd
00000080: b0b3 21be ae42 adbe d2f9 ccbd b3a4 b03e
00000090: a830 623d 8658 a0be cb70 ba3c fa3e b83e
000000a0: 4ce0 0fbd 97f3 bcbe 3e7b b73d e79f 21be
000000b0: d7bf a43e 0e47 2bbd 48b1 c53a ae6e 6cbe
000000c0: b047 253e a172 40bd 75d2 8ebe e90c 23be
000000d0: 5fd0 31be 42bb 7cbe dc1d 86be 2b12 94be
000000e0: 2983 6d3e 2d57 c13e 3890 c33c c854 43be
000000f0: f853 0f3e 36eb 8f3d 1d30 4cbd 6641 43bd
00000100: 0796 a03e e763 f23d 6e75 9cbe c16a 273e
00000110: 2089 bfbd f0a7 50be 00f7 623d cceb 6d3e
00000120: c755 d83d 5216 cf3d 0fce 8c3c ecad d33b
00000130: 8020 6f3c fb80 85be 7781 813e f59d 5e3e
00000140: bafd 33bd d5a8 08be db86 2bbe 026e 58be
00000150: 3ab7 24be 385a f8bd 9274 e6bd cc5c 65be
00000160: 0533 883e ebe9 a2be ab23 2a3e 3a5d 16bd
00000170: 256e ac3d 06f5 033d 0938 db3d 9c6b a33c
00000180: 61f3 88be b719 e63b 6825 1dbe 19bd 69be
00000190: dedb 43be e6dc 96bc b70f 3e3e 4659 babe
000001a0: b354 50bd 5754 aa3e d8c5 283d 073c 9bbe
000001b0: 0c80 f3bd 188c d4bd 62f1 163e f7ee cabc
000001c0: 409b 53be b713 59be 526b 193d 1da3 58be
000001d0: 96d5 933e 1d23 8cbd ea4f da3e affe a33e
000001e0: a389 733e f007 04be 65d1 ff3d 8ab7 15be
000001f0: f4ca a6bc 5019 a23d 669c 943e fcf3 0f3e
00000200: 8bbb a53e dee8 19bd adfa c3be 0288 eabd
00000210: 598f a43e 55f2 64be ee78 87be 3dbd 39be
00000220: 3ace b0be b735 ea3e a67d 06be 20ab e3be
00000230: 5cf8 d3bd 3806 be3e cdb7 a03e 433c 9d3d
00000240: fd5d 233d 1649 243c 2161 f5bd df85 8c3e
00000250: 4b4f 5ebe c4c0 d03d ec90 ac3e 46e4 b93c
00000260: 1308 e8be 5735 1fbc f99a 003e 9892 fd3d
00000270: a599 d03e 90d2 7b3e 647a c63d d434 df3d
00000280: 6b8d b7bd 9636 76be f88f cebe a0a9 8a3e
00000290: 7916 a2b9 c744 59be 94bf aabe df07 843d
000002a0: 4d67 1b3d 4958 b9be e32a 86be 1a87 543e
000002b0: 758a d5be c456 7ebe 1b80 483b 11d3 0f3b
000002c0: 72e1 a7be ca20 c4be 36f6 ab3e f576 b0be
000002d0: 9b1a 3f3e e40d b3bd 40a3 b23e 3df2 8d39
000002e0: a5f1 aebe d94d 3d3d 9ef3 ba3d 3e32 acbe
000002f0: b135 45be 1bf9 66be 4db3 f53b 356c 803e
00000300: de47 0a3e 4a4e 63bd cb86 5239 ca6c 533e
00000310: 0032 8dbe 8f91 013e 7433 07be f508 83be
00000320: 88ad 5fbd dfe0 a4bd 97e6 c63d 8970 8fbe
00000330: 4245 aabd ad83 d3be de4d c5be fb58 1b3b
00000340: 724a 76bd 515d d8be f6f1 2ebd 5a94 c1bd
00000350: efe4 743e 13d5 5c3e 22df 9bbe 952a 7abe
00000360: bf9d 663e 48b4 483d 1297 8a3e 9697 dbbc
00000370: 97c8 93bd 3ea2 a2bd a29d 5b3e ff43 68bd
00000380: 12e4 053e aa9a 19be 195a b23d 1aef c83d
00000390: 1398 aa3e 7685 233d 48c1 883e 64a7 f3bd
000003a0: da30 21be d47f 723e fdfc 61be f73c acbe
000003b0: 6a7f 6f3e 15cd 00bd e2c7 55be 3de8 0dbe
000003c0: a228 613d cf3e 833d cc8a 9f3c e6c6 0fbd
000003d0: 4ad6 a63e e7a1 83be 76f2 d53e 603b 1f3a
000003e0: e1e3 6d3e 8aab 98be 0bac 96be aac7 b63e
000003f0: f65c a6be 8d91 b4be 9c07 02be 60b7 883e
-0.019034455 0.08430759 -0.049847987 0.29753458 0.27536365 -0.06725347 -0.32326773 -0.2672812
0.18984666 0.06717689 0.42989346 -0.12726043 -0.03351676 0.42861184 0.22042306 0.29825085
-0.24847138 0.1457855 0.30478504 -0.08492331 -0.29371968 0.3670118 0.22942972 -0.257003
0.1118123 0.0924041 -0.19476701 0.44890845 -0.19429487 0.22990243 -0.33660573 -0.09777909
-0.15791202 -0.33839935 -0.10008587 0.34500656 0.055222183 -0.31317538 0.022758862 0.35985547
-0.035126016 -0.36904594 0.089590535 -0.15783654 0.32177612 -0.04181581 0.0015082741 -0.23089096
0.16140628 -0.04698432 -0.2789494 -0.15922894 -0.17364644 -0.24680808 -0.26194656 -0.2892011
0.23194565 0.37761822 0.02387248 -0.1907531 0.13996875 0.07027285 -0.049850572 -0.04766979
0.31364462 0.11835461 -0.30558342 0.16349317 -0.093523264 -0.20376563 0.05541134 0.2323448
0.10563236 0.10111679 0.0171881 0.006459942 0.014595151 -0.26074967 0.25294086 0.21739943
-0.043943144 -0.13345654 -0.16750662 -0.21135715 -0.1608552 -0.12126583 -0.11252703 -0.2239868
0.26601425 -0.3181909 0.16615169 -0.03671 0.08419446 0.032216094 0.10704047 0.019948773
-0.26748183 0.0070221084 -0.153463 -0.22826041 -0.19126841 -0.01841588 0.18560682 -0.36396235
-0.050862025 0.3326747 0.041204304 -0.30319235 -0.118896574 -0.10378283 0.14740518 -0.02477215
-0.20664692 -0.21198927 0.037455864 -0.21155973 0.2887389 -0.06842635 0.42639095 0.32030246
0.23782973 -0.12893653 0.12491111 -0.14620796 -0.020360447 0.07914984 0.29025573 0.14057916
0.32369646 -0.037575595 -0.38277188 -0.11451723 0.32140616 -0.22358067 -0.2645945 -0.18138595
-0.34532338 0.45744106 -0.13133869 -0.44466496 -0.10350105 0.3711412 0.3139023 0.0767751
0.039884556 0.010027191 -0.119814165 0.27445886 -0.21709935 0.10193017 0.33704317 0.022691857
-0.4531866 -0.009717307 0.12559117 0.12381476 0.4074222 0.24592042 0.09691313 0.10898748
-0.0896252 -0.2404426 -0.40344214 0.2708254 -0.0003091579 -0.21217643 -0.33349288 0.06446814
0.037940312 -0.3620017 -0.26204595 0.20754662 -0.41707197 -0.24837786 0.0030593935 0.0021945874
-0.3278919 -0.38306266 0.33586282 -0.34465757 0.18662493 -0.08742884 0.34890175 0.00027074097
-0.34168735 0.04621682 0.091284975 -0.33632082 -0.19258763 -0.22555964 0.007498181 0.25082555
0.13503978 -0.055494584 0.00020077375 0.20646968 -0.2757721 0.12653182 -0.13203222 -0.2559277
-0.05460885 -0.08050703 0.0971195 -0.28015545 -0.08313991 -0.41311398 -0.3853597 0.002370416
-0.06012959 -0.42258695 -0.04271122 -0.09452124 0.23915456 0.21565656 -0.30443674 -0.24430306
0.22521113 0.049000055 0.27068383 -0.02680568 -0.07215994 -0.079411015 0.21446851 -0.05670547
0.13075283 -0.15000406 0.08708591 0.0981123 0.33319148 0.0399222 0.26709962 -0.118971616
-0.15741292 0.23681575 -0.22069164 -0.33640262 0.23388448 -0.03144558 -0.2087703 -0.13858123
0.05497039 0.06408464 0.019475363 -0.035101794 0.32585365 -0.2570946 0.41786546 0.0006074216
0.2323146 -0.29818374 -0.29428133 0.35699207 -0.324928 -0.35267296 -0.12698215 0.26702404

bias f4 [32]
00000000: 6baa 94bc 5f85 b03d 4169 edbc cc15 efbd
00000010: cf16 c63c 6b6f 49bd 72e5 823c 0acb 1d3d
00000020: 9930 5abd eb7e de3b 9a9d 403d 972b b8bc
00000030: 01c9 0b3c 56ae 0d3d 230d dc3d a770 bbbd
00000040: 1292 cebc 8b91 823d 64a0 07bd cea5 b03d
00000050: ae7c b4bc ad62 4abd 4ff6 babc b1bd 793c
00000060: d9df 793c ab5a 85bd 5ea1 2cbd f983 06bd
00000070: 892b e8bc bd44 0abd 7c46 c83d c25c 8ebd
-0.018147668 0.086191885 -0.028980853 -0.11674079 0.024180798 -0.049178522 0.015978549 0.03852371
-0.053269003 0.006790032 0.0470253 -0.022481723 0.00853181 0.034590088 0.10744693 -0.09152346
-0.025216136 0.06375416 -0.033111945 0.08625375 -0.022032108 -0.04941051 -0.022822527 0.01524298
0.015251123 -0.06511434 -0.04214608 -0.032840703 -0.028341072 -0.03375696 0.09779069 -0.06951286

weight f4 [16]
00000000: ec14 773f c74e 8d3f cc1a 813f 9443 743f
00000010: e099 823f d91a 853f f975 863f 58a2 673f
00000020: 1536 863f 451a 793f 7f34 823f 976a 7e3f
00000030: 998b 833f ddd4 7d3f 5788 713f 71c2 8a3f
0.965163 1.1039666 1.0086303 0.95415616 1.0203209 1.0398818 1.0504752 0.9048209
1.0485255 0.9730571 1.017227 0.99381393 1.0276977 0.9915293 0.94348663 1.0840589

bias f4 [16]
00000000: 4a01 c3bc 75d2 c63d a99f 903c ace6 03be
00000010: 47cd 243d 09bf 37bd 63ba 75bd 623c 063d
00000020: 1ffa 10bd c76d 3cbc 3f74 3f3d 87c3 ec3b
00000030: ce4a cfbc 0566 2e3b 0e2d b03d a5d3 a1bd
-0.023804326 0.0970811 0.017654257 -0.12880963 0.04023483 -0.04485992 -0.059992205 0.03277243
-0.035394784 -0.011500782 0.04674172 0.007225457 -0.025304224 0.0026611101 0.086023435 -0.07901696

mask f4 [16]
00000000: 3dec 8e3c afd5 9cbc b01f 113d 75e0 d5bc
00000010: 8d45 b5bc 5b5e ccbc fbed 53ba 2ec5 903c
00000020: 2dbb 2abb 79f3 b13c 8e85 1dbd 2121 993d
00000030: 0329 40bd dcff 0dbd 09e3 ecbb 2c5a c7bc
0.017446632 -0.019144861 0.03543061 -0.026108006 -0.022127891 -0.024947336 -0.0008084473 0.017672148
-0.0026051507 0.021722542 -0.038457446 0.07477022 -0.04691411 -0.034667835 -0.007229213 -0.02433499

weight f4 [16]
00000000: ee46 833f c4c2 7b3f ceab 883f e274 7b3f
00000010: 0aa4 7d3f 7284 813f 2a0a 833f 1fd6 813f
00000020: f642 7b3f 827a 853f ce0e 773f 3fa0 8a3f
00000030: f31c 723f 67ce 733f 16b0 813f 807a 7d3f
1.0256021 0.98344064 1.0677431 0.98225224 0.9907843 1.0118544 1.0237477 1.014347
0.9814905 1.0428011 0.96506965 1.0830153 0.94575423 0.9523682 1.0131862 0.99015045

bias f4 [16]
00000000: b353 1ebc 960d 11bd a4a2 893b 3c13 cf3b
00000010: 4b17 453c ce56 3fbd 086e babc c097 873c
00000020: 6695 793d 38dd e9bb 86c1 1dbc 719f 1e3d
00000030: 0a9c 483d fd55 363d ce2f 38bd 5b94 18bc
-0.00966351 -0.035413347 0.0042002965 0.0063194316 0.012029479 -0.046713643 -0.022757545 0.016551852
0.060933493 -0.007136967 -0.009628659 0.038726274 0.048976935 0.0445156 -0.044967465 -0.009312714

weight f4 [8, 8]
00000000: 696e 26be 8724 0a3f ae44 36be 842d ef3d
00000010: 235b ebbe adac d6be 477d 313e 223a f13e
00000020: 1b4d f2be 3001 dcbe 5852 d9be 3187 21bf
00000030: 7c8f 0f3f f975 313f 4e07 d3be 1617 853e
00000040: 6b26 37bf ce9c 733e 9c92 2f3f d02f fbbd
00000050: 23c5 24bd 9c13 19be 4628 083e 5161 953f
00000060: 1de5 b13e f417 a23e 5007 023f 609f e5be
00000070: 54de 6b3e 0ac0 80be 9646 e13c 1c1f 973e
00000080: 8fd7 f7be b88e 04bf b35f 053f 5317 89bf
00000090: 601e 89be b253 183f 303c 833e c2c0 843d
000000a0: 8df7 9cbd 09bd 9a3e 1d21 57bf 1b5a 71be
000000b0: 50a4 d33d 1f3d 4b3e a5db b63e 62ba 683f
000000c0: 0db5 12bf 823b 8e3f b9c1 3b3f 7b4f 2abf
000000d0: 7534 733e 557c 2fbf 3760 153f 9f2c 46be
000000e0: 9204 05bf 6519 8dbe 11e8 2f3e c33c 183f
000000f0: 2a9b 243e 967c 763e cf70 713e 4b6a 923d
-0.16253056 0.53961986 -0.17799637 0.11678603 -0.4596797 -0.41928616 0.17332946 0.47114664
-0.47324452 -0.42969656 -0.42445636 -0.6309691 0.56078315 0.69320637 -0.4121651 0.25994176
-0.71542996 0.23790285 0.68583083 -0.12264979 -0.040227067 -0.14948887 0.13296613 1.1670324
0.34745112 0.316589 0.5079241 -0.44848156 0.2303403 -0.25146514 0.027499478 0.29515922
-0.48406646 -0.5178027 0.5209915 -1.0710243 -0.26780987 0.5950271 0.25631857 0.06482078
-0.07664404 0.30222347 -0.840349 -0.23569529 0.103340745 0.19847535 0.3571445 0.909094
-0.5730751 1.111191 0.7334247 -0.6652753 0.2375048 -0.6854909 0.5834994 -0.19352959
-0.519601 -0.27558437 0.1717837 0.59467715 0.16074815 0.24070963 0.2357819 0.0714918

bias f4 [8]
00000000: bc73 f23c 7f51 ecbc f907 d2bc 47cb a73d
00000010: 44c4 c83c b1fa 1ebd e8cf 96bd 661e 39bc
0.029596202 -0.028847454 -0.025638567 0.08193069 0.02450765 -0.038813297 -0.07363874 -0.011298751

weight f4 [8, 8]
00000000: 4b83 b3bd 0f72 d73d 9b91 07bf 8942 2dbd
00000010: 7eb6 803e 3d19 07bf 6b5b f8be e9ea c8be
00000020: b3c8 7bbe 9305 f3bc 9d62 ab3e b0aa a9be
00000030: bb45 9b3d 318d 2dbe 08d9 e23e 28bc 93be
00000040: 10ef f83e e454 993d 9be9 e5be f464 013f
00000050: 3aa1 fd3e 2ae1 adbd 67c3 a3bf dbf6 30bd
00000060: 2c12 5cbd 6a89 06bf 1153 ba3f 1c37 793d
00000070: c733 243f 80bf 67bf 6ce7 8c3f 5330 1c3e
00000080: 636f 333f 0719 bebe e10f 27bf 84d4 06bf
00000090: 0fca 823e 832a 683d fc99 febe bac1 3bbd
000000a0: 00c0 8c3d 123d 5e3f 0df3 fb3d f301 84bf
000000b0: 2d7b 1d3e 1211 c33e be21 31be 248f e43e
000000c0: f538 1c3e f0ed bf3e a7ec 833d 9c89 0ebf
000000d0: a1b0 39bd 8c00 8a3f e052 febd f7b5 97bd
000000e0: 353e 4d3f b96c ce3e f2df 383e aa1d 743f
000000f0: 5dc9 66bf 13c8 41bf 85fc 0ebd 5383 a2be
-0.087652765 0.10519802 -0.5295655 -0.04229978 0.2513923 -0.52772886 -0.48507246 -0.39241722
-0.2458828 -0.029665744 0.33473673 -0.33138037 0.075816594 -0.16948391 0.44306207 -0.2885449
0.4861989 0.07486895 -0.4490479 0.5054467 0.4953707 -0.08490212 -1.2794007 -0.04320417
-0.053728268 -0.5255343 1.45566 0.060843572 0.64141506 -0.9052658 1.1008124 0.15252809
0.7009184 -0.3712847 -0.65258604 -0.52668023 0.25544783 0.056681167 -0.49726856 -0.04583905
0.068725586 0.86811936 0.12302218 -1.0313095 0.15379019 0.3809896 -0.17298028 0.44640458
0.15256102 0.3748622 0.06441622 -0.55678725 -0.045334462 1.0781417 -0.12418151 -0.07407754
0.80173045 0.40317324 0.18054178 0.95357764 -0.90151006 -0.75695914 -0.03490879 -0.31740817

bias f4 [8]
00000000: 05f1 91bc fcf6 87bd 7bd1 9d3d 279f 72bb
00000010: 383d 693c e488 63bd 47c4 86bd 6a3c d3ba
-0.017815122 -0.066389054 0.07705971 -0.0037021132 0.014235787 -0.05555047 -0.06580406 -0.0016116027

weight f4 [32, 8]
00000000: d87e c7bd e85b 163e bf43 aabb e86c 94be
00000010: 40f6 b5bd 030d aa3e 0dcb a6be 9650 36be
00000020: 3ea8 743e ddd2 e03d f997 b4be 5459 383c
00000030: 9609 6d3e 84ef 48bd c832 e63d 9eeb 7bbe
00000040: 2a4a 19bd 8e5e a6be 9cff 13be ddcb dfbd
00000050: 91ba 15be 0ff5 463e 4401 af3e 2890 263e
00000060: 4fef ac3e f625 513e 07f3 393d b516 8cbd
00000070: 1d9e 5c3e 497c 953d d879 fcbd f5d0 523d
00000080: 5eb4 8abe da57 34bd b63a b2be 35f9 083d
00000090: 31e0 6dbe 95bf 4abe 3206 f03c 02f7 9ebe
000000a0: ae19 f5bd eeb5 833e b1d9 13be 415f bcbe
000000b0: 5975 a13e e6f8 d83e d7f7 613d f837 003d
000000c0: d224 853e 588e 01be f850 1c3c 84ef 743e
000000d0: f92a c63e 382a 19be bc36 503e 215e 6c3e
000000e0: f00c 423e ce7c 473e b4b6 f3bd a7d2 c23d
000000f0: 1121 a6bd bf53 82be 673e ba3d cad8 953e
00000100: 6b0a 81be 33f3 83be d9be 9a3e a187 803e
00000110: 769e 023e d4fc a0be e6f1 bcbd ca66 6abc
00000120: aeec b33e f1fc 2abe b539 403e 4cd8 18be
00000130: c7d3 9fbe 1d80 893d 08b0 73bd d90b 28be
00000140: 6813 9cbe 1c5b 593e d7de c13e 91c9 43be
00000150: 8e33 0cbe df3e b83e 7fe9 b1be f90e 243c
00000160: be40 903e de22 42be 44b6 9dbe 9fb3 363d
00000170: 5f3e a7bd 2cf6 6bbe bd88 8cbe ddc3 8b3e
00000180: 43bc 3cbe fba6 78be ddcf 933e d983 b3be
00000190: 1c2a c93d 2b9a 733e 8ca5 c0be 593a 253d
000001a0: d443 b2be 3cd1 c03e 0671 8dbe 9ec3 f33b
000001b0: 7ac0 a93e 9b65 b7be 944c 26be 6fa7 57be
000001c0: 0f09 3b3e ca73 06bd 2f2f 863c 6128 ea3d
000001d0: 4725 8a3e 326a 8fbe 3661 bf3c 07c9 f63d
000001e0: 5738 edbd 5a76 113e ce01 753d 9075 7bbe
000001f0: 0156 a0bd 6142 76bd 728d aa3d a441 c13e
00000200: 8dd5 51be 584d 6a3d efaf 2abd d023 57be
00000210: 5039 7a3d 7217 90be 715b dbbd c30d 92bd
00000220: 8656 7abe 7111 5c3e ade2 86be 6112 5e3e
00000230: c092 0d3e 3342 f63d 991c e9be e437 8d3e
00000240: ada3 8fbe 1ff6 233c 8c9d 873e f5cc 3e3e
00000250: 185f 5a3e 3f5d a83e d869 af3e ff5e 95be
00000260: be46 1c3e bf00 69be 6cc7 e43c 41de 9c3e
00000270: d907 c8be dcfa 6f3e 11f5 48be cf0f 52be
00000280: 0fd3 243d 5b89 4dbe 2834 043d d1cd 8dbe
00000290: 2840 62be ece1 413e 938a a53c 5247 8c3e
000002a0: fb1b 6e3e 24f9 cabe 47a1 bd3e cf0f cfbe
000002b0: afd3 d43e 1639 c3be a8a5 fdbd de12 ae3e
000002c0: 8a59 ca3c 1b80 a4bd 340c dbbd edb0 2a3e
000002d0: 4dfb 92be 1cb6 04be 3b0a a93e 1f14 44be
000002e0: e239 e3bd ed55 823e 02c7 21bd 1735 843c
000002f0: cb64 5e3e 2ce2 9dbe ad2b 903e 6498 88be
00000300: 383b bf3e 5575 853e f7b1 18bb 94fe 063e
00000310: ff7b 9a3e 5342 97be 4365 6bbe 681b 33bd
00000320: f1b2 803e 56f9 853e 0586 e5bd 31db 063e
00000330: 41f9 873e 0e09 7c3e 7c40 c2bc e610 1dbc
00000340: 03af 5f3e 1e48 3a3e a019 fdbc 577d 04be
00000350: 949e a3be d371 3e3e 64e2 27be 8b8f 513e
00000360: 110c ae3e 447e a6be 487c 2bbe 956a f23c
00000370: 9055 b2be 5f64 58be 42dc b63e 89c6 0fbe
00000380: 9f6d 003e fda2 773e 72d5 aabe 2516 35be
00000390: df3e 0e3e c5bd 083e a0ae 82be 158a d83d
000003a0: 4a69 8bbe 15e7 9b3e 7cc3 99be fe4c 663d
000003b0: 6e95 85be 6d7b 4cbe 33fd a33e 795a c9bc
000003c0: 35e7 913e 152d 04be cecd 853e 1c95 cabe
000003d0: 32d6 b9bd c4f1 5c3e 6739 973e d871 6b3b
000003e0: 8460 a13e 54fe 39be 6eeb 88be 8e04 eabd
000003f0: d011 d2be c111 cc3e 99cd 89be b2eb 4c3d
-0.097409904 0.14683497 -0.0051960642 -0.2898934 -0.08884859 0.33213052 -0.3257679 -0.17804179
0.23892304 0.10977719 -0.35272196 0.011251766 0.23148188 -0.049056545 0.112401545 -0.246016
-0.037424244 -0.32494015 -0.14452976 -0.10927556 -0.1462195 0.1942942 0.34180653 0.16265929
0.33776328 0.20424637 0.045397785 -0.068402685 0.2154469 0.07299096 -0.12327927 0.05146881
-0.27090734 -0.044029094 -0.34810418 0.033440787 -0.23230053 -0.19799645 0.02929983 -0.31047827
-0.11967789 0.2572474 -0.14438511 -0.36791423 0.31534842 0.42377394 0.055168 0.031303376
0.26004654 -0.12651956 0.009540789 0.23919493 0.3870466 -0.14957511 0.2033338 0.23082782
0.18950248 0.19481203 -0.11900082 0.09512835 -0.08111776 -0.25454518 0.090939336 0.2926696
-0.2520326 -0.25771484 0.3022373 0.25103477 0.1275576 -0.31442893 -0.09225826 -0.014306733
0.3514151 -0.16698052 0.18772013 -0.1492626 -0.3121626 0.06713889 -0.05949405 -0.1641077
-0.30483556 0.21226162 0.37865326 -0.1911986 -0.13691542 0.35985467 -0.34748456 0.010013335
0.28174394 -0.18958613 -0.3080312 0.044604894 -0.08166193 -0.23043126 -0.27448073 0.2729787
-0.18431191 -0.24282448 0.28869525 -0.3506153 0.09822485 0.23789279 -0.37626302 0.040338848
-0.34817374 0.37659633 -0.27625293 0.007439091 0.3315466 -0.35819706 -0.1624015 -0.21059965
0.18265174 -0.03282527 0.01637992 0.11433483 0.26981565 -0.28010708 0.023361783 0.12050062
-0.115830116 0.14205304 0.059816174 -0.24556565 -0.07828904 -0.060121898 0.0832776 0.37745392
-0.2049162 0.057202667 -0.04167169 -0.21009755 0.061089814 -0.28142887 -0.107108004 -0.07131531
-0.24447069 0.21491028 -0.26344815 0.21686698 0.13825512 0.12024345 -0.4552963 0.27581704
-0.28054562 0.01000741 0.26487386 0.18632872 0.21325338 0.3288364 0.3426044 -0.2917404
0.15261361 -0.22754191 0.027927123 0.30638316 -0.39068487 0.23435539 -0.19624735 -0.20513843
0.040240344 -0.20071928 0.032276303 -0.27696088 -0.22094786 0.18933839 0.020207679 0.27398163
0.23252861 -0.39643204 0.37037107 -0.40441748 0.41567752 -0.3812949 -0.12385112 0.3399877
0.024700899 -0.08032247 -0.10695687 0.16669054 -0.28707352 -0.12960094 0.33015618 -0.191483
-0.11095025 0.2545618 -0.03949643 0.016138596 0.21718137 -0.30836618 0.28158322 -0.26678765
0.37349868 0.2606608 -0.0023299435 0.13183051 0.30172727 -0.2954279 -0.22987847 -0.04372731
0.2513652 0.2616679 -0.11207203 0.13169552 0.26557353 0.24612829 -0.02371239 -0.009586548
0.21844105 0.18191573 -0.030896008 -0.12938438 -0.31956923 0.18598108 -0.16394955 0.20464914
0.3399358 -0.32518208 -0.16746628 0.029591838 -0.34830904 -0.21132039 0.35714918 -0.14040579
0.12541817 0.24183269 -0.3336597 -0.17684229 0.13891171 0.13353641 -0.25523853 0.10573212
-0.27228767 0.3044974 -0.30031955 0.05622577 -0.26090568 -0.19968958 0.32029113 -0.024579274
0.2849671 -0.12907822 0.2613358 -0.39566886 -0.09074058 0.21576601 0.29535982 0.003592601
0.31518948 -0.18163425 -0.2674212 -0.1142665 -0.41029215 0.39857295 -0.2691467 0.050029464

bias f4 [32]
00000000: bec8 06bc 0364 2cbd e156 2b3c f5e0 133c
00000010: 691a 3d3c 6f0a 10bd 3893 dfbc 3344 183c
00000020: 42d1 753d cfd0 e43b f387 4fbb 2fb0 2c3d
00000030: 8d73 0f3d 6120 213d d51f f8bc ea7c 13bc
00000040: fa7c 23bd d5ae c3bd a2fc d73c 8479 9d3a
00000050: 4566 073c 3c69 133d 83d8 3a3d 1df6 7f3c
00000060: 89d1 cdbc 943b 0abd 641e 26bc f133 e3bc
00000070: 55c1 c13c 2a7c 943c 0e14 01bc 2c41 3cbd
-0.008226572 -0.042087566 0.010457725 0.009025802 0.011541941 -0.0351662 -0.027291879 0.009293604
0.060014017 0.0069828997 -0.0031666725 0.04216021 0.035022307 0.03933752 -0.030288616 -0.00900195
-0.03991411 -0.09554831 0.026365582 0.0012014364 0.008264129 0.03598903 0.045616638 0.015622643
-0.025124328 -0.033748224 -0.010139082 -0.027734729 0.023651758 0.018125612 -0.007878317 -0.04596059

weight f4 [16]
00000000: 15e5 7f3f 2f1e 743f 8035 833f 4a68 733f
00000010: 9390 7b3f 5343 823f 251e 823f a146 7d3f
00000020: 366c 7c3f fcb4 7d3f cd7c 6e3f 434e 863f
00000030: 2e50 7f3f cf1f 7a3f 598f 803f 3069 7d3f
0.99958926 0.95358557 1.0250702 0.9508101 0.9826748 1.0176796 1.0165449 0.98935896
0.98602617 0.99104285 0.9315918 1.0492634 0.9973172 0.97704786 1.0043746 0.9898863

bias f4 [16]
00000000: b7bb eabc 8952 efbc e4cc 57bc 3e57 c9bc
00000010: bca8 40bb 4f05 2dbd 989d c6bc 31b3 2a3c
00000020: 44f4 703d 3400 febb 9409 d9bc f5b7 f33c
00000030: 889e a03c 3cc9 b13c 9a50 05bd cce8 92bc
-0.028653963 -0.02921416 -0.013171408 -0.024577733 -0.0029397449 -0.04224139 -0.024245068 0.010418699
0.0588267 -0.007751489 -0.026493825 0.029750803 0.019606844 0.021702401 -0.03254757 -0.017933272

mask f4 [16]
00000000: 8562 783d 69fe 56bc a560 0ebe e1cc 883d
00000010: 497c 303d 06ee fa3c e611 b9bb 8c29 8bbc
00000020: 4758 e03d 6451 10be 6ba6 d8bc cd94 ac3c
00000030: 295f 7dba b55d 983d b6ea 473d 8a03 cf3d
0.06064083 -0.01312218 -0.13904054 0.066797026 0.043087278 0.030631077 -0.0056478856 -0.016987585
0.109543376 -0.14093548 -0.026446542 0.021067047 -0.0009665364 0.07439748 0.048807822 0.10108097

weight f4 [16]
00000000: 7355 843f af5d 833f c713 573f 1eed 853f
00000010: 3065 7a3f 48ce 873f 3fd3 6b3f d6a7 733f
00000020: 2ec1 863f 6e27 563f 17ad 7c3f bfb6 803f
00000030: ba03 743f 7ef2 883f 7152 873f 1472 813f
1.0338577 1.0262965 0.8401455 1.0462987 0.9781065 1.0609827 0.9211921 0.9517797
1.0527704 0.83653915 0.98701614 1.005577 0.95318186 1.0699003 1.0572034 1.0112939

bias f4 [16]
00000000: 8a15 1abd 284e 55bd e318 9cbc b694 7e3c
00000010: b289 b53c ba73 9dbc 9d41 913c a8b2 d13c
00000020: c7f0 d23c 27e2 debc 75c7 98bd df8f 383d
00000030: 75fc 603d 47c5 4bbd 5690 983c 2ecc a23d
-0.037618198 -0.05207649 -0.019054836 0.015538385 0.022160385 -0.019220222 0.017731482 0.025597885
0.025749577 -0.027207447 -0.074599184 0.04505908 0.05492826 -0.049748685 0.018623512 0.079491004

weight f4 [8, 8]
00000000: 0a2d a3bd 8b9e 1c3f 0111 a9be 586d 8ebf
00000010: 16fe a6be 68af 9bbf 29ca e3be 65b8 3abd
00000020: e266 3a3e 75a0 93be 14bd 27bf 0be9 603f
00000030: 4b9c 833e 23fa 14be b5c3 b6bc 39b1 663e
00000040: 2d1c 023f 57a9 2dbf d29f cdbe 9541 cbbe
00000050: 1f46 533f c8b9 8fbe f209 93be 8d79 8c3e
00000060: c7e6 393f ca44 c5be 8b2d 003f 274f c6be
00000070: 7c47 153f 7d5b a9bd 03f2 a73e d47c 3cbf
00000080: ddcc 833e c648 803f ca69 b83f fd7c 23bf
00000090: 8def 813e d5b7 b3be 5a94 103e c25e 1dbe
000000a0: cb2d dc3e 0c2b a2be c2d3 5dbf e47c 13bf
000000b0: a5ee 6b3d e787 023f d46c 04bf 26af a13e
000000c0: 609b 69be 0d31 5f3f b7b6 0bbf f1af da3e
000000d0: 9186 773d 2a3c 06bf 1cb5 8a3e f44d a9be
000000e0: b85c 5bbf 65be 763f 8b2b 643d f30a be3b
000000f0: 9a67 813e 23cc 123e 080c 9bbe dcb9 c43e
-0.07967575 0.6117942 -0.33020785 -1.1127119 -0.32615727 -1.2162905 -0.44490173 -0.04558601
0.18203309 -0.28833356 -0.65522885 0.87855595 0.2570518 -0.14548545 -0.022310117 0.22528543
0.5082424 -0.6783652 -0.40160996 -0.39698473 0.8252887 -0.28071427 -0.28718525 0.27436486
0.72617763 -0.38529044 0.50069493 -0.38732263 0.583122 -0.08269403 0.32801828 -0.7362797
0.25742236 1.0022209 1.4407284 -0.6386259 0.25378075 -0.3510119 0.14119092 -0.15368178
0.43003687 -0.31673467 -0.8665124 -0.5761244 0.057600636 0.5098862 -0.5172856 0.3157894
-0.22813177 0.8718422 -0.54575676 0.42712358 0.060431067 -0.52435553 0.270913 -0.33067286
-0.8568835 0.9638427 0.05570559 0.005799645 0.25274354 0.14335684 -0.30282617 0.3842305

bias f4 [8]
00000000: 7803 b13b eb38 e9bc 3b9f 74bd 71b3 b13d
00000010: 6e19 153c 9d5a 293d 4813 6b3d 8d32 253d
0.005402025 -0.028469523 -0.059722167 0.08676804 0.009100301 0.04134618 0.057391435 0.040331412

weight f4 [8, 8]
00000000: d729 bdbd 861b 83bf 92ec b7be 1cb8 403e
00000010: e0a0 c03d 4ff8 863f 0ab7 45bd fb1e b8be
00000020: e912 d53c a6f8 843e 5428 0abe 97c6 c2be
00000030: b3e2 d83d fc11 babe 655d 2abf 0146 183e
00000040: 29a0 893e 006f ec3e 1f5b f13e 1002 de3e
00000050: 3b3c 7d3e 967a 273f c694 1d3f 4e4f 813e
00000060: 317c cabe ac55 cbbe 04d6 93bf d5b5 dabe
00000070: 32b8 65be 90fe 04bf 9a04 15bd 4066 f63d
00000080: 9e2c 983d 32e9 b8be def4 e43e 6ab2 e33d
00000090: a064 dfbc 01b6 f83d 3b58 cd3e b5d1 7dbe
000000a0: 3c26 293f f718 233f 6589 7b3f 0264 afbe
000000b0: f90c ea3c f1a6 f43e 9eae ecbe cc65 e5bd
000000c0: 0e16 883e a09f d7be ff0a f73e 786f 68bf
000000d0: ec08 403f c0aa b23e 2d05 53bf ac50 37bf
000000e0: 996b cabc 19b5 1c3f c757 433f 5a27 a53b
000000f0: 32ca 81be 13eb d5be ea5f 833e 8fc4 69be
-0.09236496 -1.0242774 -0.35922676 0.18820232 0.094056845 1.0544528 -0.048270263 -0.35961136
0.026009994 0.25970954 -0.13491946 -0.38042137 0.105901144 -0.36341846 -0.6654876 0.14870454
0.26880005 0.46178436 0.47139832 0.4336095 0.24730007 0.65421426 0.61555135 0.25255817
-0.39547876 -0.397138 -1.1549687 -0.42716852 -0.22433546 -0.5195093 -0.03638134 0.120312214
0.07430385 -0.36115414 0.4471807 0.11118014 -0.027269661 0.121440895 0.40106377 -0.24787028
0.66073966 0.6370997 0.9825652 -0.34255987 0.028570639 0.47783616 -0.46226972 -0.11201057
0.26579326 -0.42113972 0.48250577 -0.9079509 0.75013614 0.34895897 -0.8242977 -0.7160747
-0.02470951 0.61213833 0.7630581 0.0050400915 -0.25349575 -0.4178091 0.25659114 -0.22828887

bias f4 [8]
00000000: c198 2bbc 001b 68bd b1f4 0e3b ba07 873b
00000010: 00a6 003d c9ad 05bd 81ea 4cbd 3464 29bd
-0.010473431 -0.056666374 0.0021813328 0.004120794 0.03140831 -0.032636438 -0.050028328 -0.041355327

weight f4 [32, 8]
00000000: 426a 363e d8e7 89bd 9713 f63d 960d 85be
00000010: 12ce 523e d465 1a3e 24f2 b63d 9aff 8abe
00000020: 50e2 4abe 7fc1 f6bd b9a9 a13e 7a85 f8be
00000030: c1f1 ee3e b25a 1f3e 3937 5e3e b348 33be
00000040: 2c29 88be 1a40 b73e f870 203e ffe6 203e
00000050: 1e9b 443e f472 6f3d ce90 c7be ede4 dc3e
00000060: 837e bebb 3653 463e dd69 8d3d 2437 0bbe
00000070: 3171 aa3e f7fa 18bd 429e 6f3e 8b0b b03e
00000080: 3f8c b23d 026c 94be 9364 b53e a587 f4bd
00000090: 0a73 97bc bebd 223e 39c7 0abe 6c8b 56be
000000a0: 5d0d 893e e069 a33e a352 813d e0af a7be
000000b0: 4cae a33e dee3 80be 3949 1abe 6901 74be
000000c0: 8e24 cabd f0bf 5dbe 7831 2dbe c822 e03c
000000d0: 4a4c 493d c3dd a83e 1974 adbd 12e7 a4be
000000e0: 81ca 4dbc 3dce 9d3e 5c7d dbbc fb02 dabe
000000f0: e72b a43e ff55 e4bd 2acc 56be d24d b1be
00000100: 3e1e 613b 410c 99be 9425 183e 4d90 973e
00000110: 7e63 9fbe 89ac bbbd 0b9e 473e 973c 93bd
00000120: 9310 5cbe 6df9 12bb a8ef 3ebc 0860 cb3e
00000130: b7af 9abe f15c b43e b01d 833e d761 783e
00000140: 9f79 ac3e bc39 7fbe 6ad3 5c3e acc5 38be
00000150: e734 d6bd 1d39 cc3e 0fb9 973e 73a2 dbbe
00000160: 79e3 2d3d b75d 86be 4b7d 02bc 001d d63c
00000170: 2d13 883e 2c99 d83d 460d 44bd 5365 f23d
00000180: 46c7 ecbd ae9f a63c 6a66 073e 06f0 78be
00000190: bde4 a6bd 8e1f f7bd e448 86be 638f 86be
000001a0: e6ca 113d 2a1b 4e3c e365 093d 91b6 21be
000001b0: 7b03 cdbd d0c6 50be 38ab 973e ec12 123c
000001c0: be2e 59bc 9de6 323e f1e4 ee3d afba 123d
000001d0: 3142 a13e c8de bd3e 7c1b 82be 798e b63d
000001e0: 17a8 5cbe 22cf cfbd 764f 883e 00b8 883e
000001f0: fc19 8b3d 850d 27be 93bb b4be e46b 92be
00000200: f3a9 853e 7c28 b7bd 1d99 b73d b133 02be
00000210: f6f9 14be 8cf0 cebe 65d1 9f3d 8382 a53e
00000220: 1412 973e b942 e4be 391d 52be 1455 a3bd
00000230: 379a b63e 99b0 5c3e 8893 3f3e 9347 06bd
00000240: c152 b5be 39eb 683e ea9e 88be b7ad 2cbd
00000250: b1e7 81be acf5 043e 8506 74be 720c febd
00000260: 7be7 9d3e 88dd 883e 5d1c 30be 08f2 b23e
00000270: e86a abbc 9d3e aa3e 1c40 a33e 0c67 7b3e
00000280: ceae 5f3e 9922 933e e8af 8c3d 4e0f 5cbe
00000290: aa0c 8d3e 84f1 9c3e 1a57 c83e e277 73be
000002a0: 79cf a13d adfb 9e3d bb37 393e 18fb 9dbd
000002b0: 5c43 53be 59b1 3e3e 28a3 b63b 831e 0c3e
000002c0: 403e b4bd 92dd c8be 4c6c 87bc 2100 4cbe
000002d0: c19d a4be 9dea 773e 4d7f be3e 46ca 9cbd
000002e0: a15f b5be f9b9 8ebe e8f2 1c3e 8941 453d
000002f0: 9cbd 78be cb46 f73d e0e9 a63e b072 80be
00000300: 1667 f53d 47d3 40be 31ac 9e3d 2a41 10be
00000310: 60fb cb3e 6c96 dbbd f73c 903d 35e1 41be
00000320: 7851 b4bc 2eb7 bf3e b4db 80be 57c9 dfbd
00000330: 1c88 053e 0f76 9b3d 7474 bebe d2ca 72be
00000340: dc76 253e 5f96 80bd 402b 82be 60c0 9d3e
00000350: be61 4dbe 6d81 9bbe ce07 69be ec40 27be
00000360: 16a3 95bd 0a60 7abe e3d7 a8be f8c3 4e3d
00000370: 6063 373e 6654 6bbb 8a6c 8fbd 0f13 21be
00000380: 9879 ccbe 03de 923d b908 82be f170 a6bc
00000390: 25a1 2e3e 6f11 b13e 99d9 20be eb11 9ebd
000003a0: 0b2a 0fbe 9166 e0be e0fc 923e e9db 6f3e
000003b0: e95f 9dbe 1d9d c03e 2dbe 35be fc23 c2be
000003c0: 04ec 05be 0a91 19be d7bf 01be 3ab6 993e
000003d0: a2cc 283e c522 3dbe 12ee 33bd 6472 d93d
000003e0: e93c 8e3d 9fde fa3c f28d 53bd 99fd a2be
000003f0: 0e33 3dbe c572 fd3d c950 96be 9b80 99be
0.17813972 -0.06733674 0.12015455 -0.25986928 0.20586422 0.15077907 0.089329034 -0.27148134
-0.19812894 -0.12048625 0.315748 -0.48539335 0.4666882 0.15561941 0.21700753 -0.17508201
-0.26593912 0.35791093 0.15668094 0.15713118 0.19199798 0.058459237 -0.38977665 0.43143407
-0.005813421 0.1936768 0.069049574 -0.13595253 0.33289483 -0.037348714 0.23400214 0.34383807
0.08718156 -0.28988653 0.35428295 -0.11939935 -0.018487472 0.15892693 -0.1355256 -0.20951623
0.26768008 0.31916714 0.0631459 -0.3275137 0.31968915 -0.2517385 -0.15066995 -0.23828663
-0.098702535 -0.2165525 -0.16913402 0.027360335 0.04914502 0.3298169 -0.084694095 -0.32207543
-0.012560488 0.3082141 -0.026793174 -0.425804 0.32064745 -0.11149215 -0.2097632 -0.34629685
0.00343503 -0.2989216 0.14858085 0.2960228 -0.31130594 -0.09163768 0.19493882 -0.07189291
-0.21490698 -0.0022426501 -0.011653818 0.39721704 -0.30212185 0.3522716 0.25608587 0.24256073
0.3368654 -0.24924368 0.21565023 -0.18044156 -0.10459309 0.39887324 0.29633376 -0.42897376
0.042453263 -0.26243374 -0.0079644425 0.026136875 0.2657713 0.1057609 -0.04786422 0.11835732
-0.11561446 0.020339813 0.13222662 -0.24310312 -0.08149097 -0.120665655 -0.26227486 -0.2628127
0.03559389 0.012579719 0.033544432 -0.157923 -0.100104295 -0.20388341 0.29622817 0.008915644
-0.013255773 0.17470784 0.11664761 0.035822567 0.31495813 0.3708403 -0.25411594 0.08913893
-0.21548496 -0.10146929 0.26623124 0.2670288 0.067920655 -0.16313751 -0.35299358 -0.2859794
0.26106223 -0.08943269 0.08964751 -0.12715031 -0.14548478 -0.40417898 0.07803611 0.32326135
0.2950598 -0.44582155 -0.2051896 -0.07975212 0.35664532 0.21551742 0.18708622 -0.032783102
-0.354147 0.2274598 -0.26683742 -0.042157855 -0.2537208 0.12984341 -0.23830612 -0.124047175
0.30840668 0.26731515 -0.1719832 0.3495028 -0.020925 0.33250895 0.3188485 0.24551028
0.21844026 0.28737333 0.06869489 -0.21490213 0.27548724 0.30653012 0.39128953 -0.237762
0.079009004 0.07762847 0.18087666 -0.07713908 -0.20631164 0.1862234 0.005573649 0.13683514
-0.08800936 -0.39231545 -0.016531132 -0.19921924 -0.32151607 0.24210592 0.37206498 -0.07655768
-0.35424522 -0.2787626 0.15327036 0.048158202 -0.2429108 0.120740496 0.32600307 -0.250875
0.11982553 -0.18830596 0.07747687 -0.14087358 0.3984022 -0.1072205 0.07042878 -0.18933566
-0.022011504 0.37444443 -0.2516762 -0.109270744 0.13040203 0.07590877 -0.37198222 -0.23710182
0.16158623 -0.06278681 -0.25423622 0.30810833 -0.20056817 -0.30372182 -0.22756884 -0.1633336
-0.07306497 -0.24450698 -0.32977208 0.05047986 0.17909002 -0.003590846 -0.07003124 -0.15729927
-0.3993652 0.071712516 -0.2539728 -0.020317527 0.1705366 0.34583613 -0.15708007 -0.07718261
-0.13980882 -0.43828252 0.28708553 0.23423733 -0.30737236 0.37619868 -0.17748328 -0.3791808
-0.13078314 -0.14996734 -0.12670837 0.3002184 0.16484311 -0.18470295 -0.043928213 0.106175214
0.069452114 0.030623732 -0.05164904 -0.31834105 -0.18476507 0.12375406 -0.2935851 -0.2998093

bias f4 [32]
00000000: 47d4 b3bc 16ee a4bc cf15 6b3a c32e 333c
00000010: 1d0e 3e3d d0e0 96bc 927c f83c 0ea8 903c
00000020: ab3a 133d aa9e cbbc 5e4b b2bd 2340 543d
00000030: b9f9 7a3d 4c1c 31bd 87d9 1ebc 2487 993d
00000040: 8f97 3b3d 8b50 bb3d c616 b53c d695 bfbd
00000050: 8774 233d 4275 94bc b72c 61bd aa55 493d
00000060: 8203 f0bc 241d 103d 4363 933d dec9 92bd
00000070: b6c7 103d 609e a6bb 5baf 9fbc d1fb 853d
-0.021951808 -0.02013306 0.00089677883 0.010936442 0.04640018 -0.018417746 0.030332837 0.01765826
0.035944622 -0.02485593 -0.087057814 0.051818978 0.06127331 -0.043239877 -0.009695417 0.07496479
0.045798834 0.09146222 0.022105586 -0.09354751 0.03990605 -0.01812232 -0.054974284 0.04915396
-0.029298548 0.03518404 0.07196667 -0.07167409 0.03534671 -0.0050847977 -0.019492796 0.06542171

weight f4 [16]
00000000: 0763 813f 73f1 893f 63f8 773f 9741 813f
00000010: 1433 813f 4d3b 873f 96dc 6e3f 78fd 703f
00000020: b517 863f b892 5e3f beb2 873f 2d78 7a3f
00000030: 17c7 703f 1d55 823f 0afb 853f abfb 853f
1.0108346 1.077681 0.96863383 1.0098141 1.0093713 1.0564972 0.9330534 0.9413676
1.0475985 0.86942625 1.0601423 0.97839624 0.94053787 1.0182225 1.0467236 1.0467428

bias f4 [16]
00000000: 991b b63a f3fb a1bc 7d4c c3bc 929c f73b
00000010: 735c 813c c475 d9bc 0425 67bd 6e85 e6bb
00000020: 18a9 b2b8 bf89 94bc 70f9 7abd 94bd 4d3d
00000030: b918 703d bcc4 60bb 6af6 093d 9090 163d
0.0013893723 -0.019773459 -0.023840183 0.0075565064 0.015791154 -0.026545413 -0.056431785 -0.007034949
-8.5191976e-05 -0.018132089 -0.06127304 0.050229624 0.058617327 -0.003429695 0.033682264 0.03675896

mask f4 [11]
00000000: 92ed f7ba b5b7 d0bc abed 443d 28f8 863d
00000010: 1745 d3bc b84d ebbc 25dd 99bd 6b47 52bd
00000020: ffd7 903d 402d af3d eb39 853c
-0.0018915406 -0.025478223 0.04807822 0.06590301 -0.02578978 -0.028723583 -0.07512883 -0.05133764
0.07072448 0.08553553 0.016262969

weight f4 [11]
00000000: 14e0 7b3f 67f1 733f efc4 803f f7da 863f
00000010: 3882 793f 7c4b 813f eecf 633f a06d 683f
00000020: 9281 8b3f 6cc4 8a3f 4f2f 7f3f
0.9838879 0.95290226 1.0060099 1.0535573 0.97464323 1.0101161 0.8898915 0.90792274
1.0898917 1.0841193 0.9968156

bias f4 [11]
00000000: bfca f7bc 3872 53bd e9f0 fdbb e7f0 b33c
00000010: 95ea cbbc 47bb 383c 8e61 e63d b865 a63c
00000020: 58c2 a13d e2c8 2f3d 0a7d a33c
-0.030248044 -0.0516226 -0.007749666 0.021965457 -0.02489213 0.011275119 0.11249076 0.020312175
0.07898396 0.042916186 0.019957084
