Notebooks_Development/mlartifacts/400716610318719328/3b4db3fbba444280a30038457360c513/artifacts/checkpoints/epoch=49-step=2450.ckpt (torch, 850369 bytes, 1197 tensors)

prescalers.encoder_length.weight f4 [8, 1]
00000000: 00b9 fabe 444f 163e 2cf3 97be 96dc 533f
00000010: d095 febe f5a4 52bf 5498 183f 9b7f d5be
-0.4896927 0.14678675 -0.29677713 0.8275846 -0.49723673 -0.82282954 0.59607434 -0.41698918

prescalers.encoder_length.bias f4 [8]
00000000: f462 5a3f b17c 2bbf 140b 73bd 3208 733f
00000010: e424 14be 2789 653f 2892 033f 2f94 a7be
0.8530724 -0.6698714 -0.059336737 0.9493438 -0.14467198 0.896624 0.5139489 -0.32730243

prescalers.cantidad_center.weight f4 [8, 1]
00000000: a0dd 5dbf 5bce b7be 0a53 b3bd f5d2 72be
00000010: 5a3e 81bf 047e 02bf 0100 863f 0091 66be
-0.866663 -0.35899624 -0.08756073 -0.23713286 -1.0097153 -0.50973535 1.0468751 -0.2251625

prescalers.cantidad_center.bias f4 [8]
00000000: 24f1 4abf 4841 d7be e555 53bf 0a1f a5be
00000010: 0b48 823e 8fe7 87be 71d6 b83d 9f87 18bf
-0.792742 -0.42041993 -0.8255294 -0.32250243 0.2544559 -0.26543853 0.090252765 -0.5958194

prescalers.cantidad_scale.weight f4 [8, 1]
00000000: a827 3b3f 5a12 fabe f2ab 343d 7127 08bf
00000010: 3ed1 4c3f 7a0c 703f 0081 56bf 0f51 28bf
0.73107386 -0.48842126 0.044109292 -0.5318518 0.8000678 0.9376904 -0.8379059 -0.65748686

prescalers.cantidad_scale.bias f4 [8]
00000000: 23b8 563f 9bba 2b3f 519f 693f bf3e 473e
00000010: c4f7 6dbf 321b 653f dc33 65bf 0436 743e
0.8387472 0.6708161 0.9125872 0.1945753 -0.92956185 0.8949462 -0.89532256 0.2384873

prescalers.time_idx.weight f4 [8, 1]
00000000: eaa9 56bf 470f 893f e043 78bf d083 643e
00000010: c4b6 36bf 4a6c 37be 7c28 33bf 4433 19bf
-0.8385302 1.0707787 -0.9697857 0.22315907 -0.7137263 -0.17912403 -0.6998365 -0.5984385

prescalers.time_idx.bias f4 [8]
00000000: 37de 25bf 1d5e 893c 26c9 41bf 10f1 a4be
00000010: 04d9 2ebf f97b d03e 0f9b d83e 8ce7 e7be
-0.647922 0.01676851 -0.75697553 -0.32215166 -0.6829989 0.40719584 0.423058 -0.45293844

prescalers.mes.weight f4 [8, 1]
00000000: 442b 82bf 49ec 64bf 0886 1cbf 4a37 7d3f
00000010: 9844 5c3f d1a0 753e 630a 3abf ed08 443f
-1.0169454 -0.8942304 -0.61142015 0.9891249 0.86042166 0.23987128 -0.726721 0.7657612

prescalers.mes.bias f4 [8]
00000000: 6ee1 943e cd54 3e3f 9d29 84bf 511c bfbe
00000010: fa3d cabe 68bf 10be 84f2 c53e 9aa6 94be
0.2907824 0.74348146 -1.0325199 -0.3732629 -0.3950041 -0.14135516 0.38661587 -0.29033357

prescalers.semana_ano.weight f4 [8, 1]
00000000: 3990 5abd 47df 4ebf 3f88 34bf 5a29 2c3f
00000010: 3b72 593f 5fee 4d3e 2b45 103f a760 01bf
-0.053360198 -0.80809444 -0.70520395 0.672506 0.84939927 0.20110463 0.5635554 -0.50538105

prescalers.semana_ano.bias f4 [8]
00000000: 8755 2dbf 5406 2dbf bea7 9dbd 3b4f 29bf
00000010: 88d8 edbe 395d 083e 1241 ddbe ebc4 42bd
-0.6770863 -0.6758778 -0.0769801 -0.6613652 -0.46454263 0.13316812 -0.43213707 -0.047551077

prescalers.trimestre.weight f4 [8, 1]
00000000: e2d0 65bf c27b 143f c299 18bf bf2f 7c3f
00000010: e173 1bbf 0c84 b1be c33b 6abd ee4f 82be
-0.89771855 0.5800134 -0.59609616 0.98510355 -0.6072369 -0.34671056 -0.0571859 -0.25451607

prescalers.trimestre.bias f4 [8]
00000000: 90a6 033e 40c9 b0be 2b02 b3be a5f9 2ebf
00000010: d9a4 6e3f 3d51 10bf 83d4 783f 36e4 193f
0.12856507 -0.34528542 -0.34962592 -0.6834968 0.9322029 -0.5637396 0.9719927 0.6011385

prescalers.ano.weight f4 [8, 1]
00000000: ac51 56bf 1361 01bf 9af4 99be 03ad 9c3e
00000010: 626d 0c3f 96d0 36be 9a66 afbb 62ec 45bf
-0.8371837 -0.5053875 -0.3006943 0.30600747 0.54854405 -0.17853007 -0.005352807 -0.77313817

prescalers.ano.bias f4 [8]
00000000: 5191 a33d 8233 c83d a470 4b3f 976c 3d3f
00000010: 17a9 503e 9145 eabe a1b8 df3d d6bf 23bf
0.07986701 0.09775449 0.7946875 0.7399382 0.20377003 -0.457562 0.10923887 -0.63964593

prescalers.dia_festivo.weight f4 [8, 1]
00000000: c34e 80be 0a68 593c 0cad 10bf d2b6 893c
00000010: b89d 113f 4010 b6be a5da 723f bee2 6ebf
-0.2506009 0.013269434 -0.5651405 0.016810808 0.56881285 -0.35559273 0.94864875 -0.9331473

prescalers.dia_festivo.bias f4 [8]
00000000: 4e68 d63e 703a 0f3f 46b4 09bf 62cb a23d
00000010: c124 a13e 6fe3 14bf 0828 053f 2c8b 243f
0.41876453 0.55948544 -0.537907 0.079489484 0.31473354 -0.58159536 0.5201421 0.6427486

prescalers.ocupacion.weight f4 [8, 1]
00000000: 4b1e 833e 498d cebd d946 10bf 7e3b 643f
00000010: 9acd 853e 9b03 a3bb 7dcf 603f 93fb 3dbe
0.2560905 -0.10085542 -0.56358105 0.8915328 0.26133424 -0.004974795 0.878166 -0.18552999

prescalers.ocupacion.bias f4 [8]
00000000: 1b04 23be 8fb7 363e 75b0 cabe 960c 4b3f
00000010: d410 9b3e a168 513f 98c9 03bf 2617 40bf
-0.15919535 0.1784346 -0.3958775 0.7931608 0.30286276 0.81800276 -0.5147948 -0.7503532

prescalers.relative_time_idx.weight f4 [8, 1]
00000000: 5a1e 063f 387c 6dbf 2da7 62be 1ce0 403f
00000010: 42a8 29be 4e28 603f 81fe 4dbf 3b75 223e
0.5239006 -0.9276767 -0.22134085 0.75341964 -0.16568092 0.875615 -0.8046647 0.15865032

prescalers.relative_time_idx.bias f4 [8]
00000000: 6b33 883e e388 78bf 05e4 0ebe 9250 b1be
00000010: eb8e 84be ee7a 45bf 9785 f2bd 6b28 5e3f
0.2660173 -0.9708387 -0.1395417 -0.34631783 -0.25890288 -0.771407 -0.118418865 0.8678042

prescalers.cantidad.weight f4 [8, 1]
00000000: a8c5 3abf 65b2 57bd b584 a73d 6cd7 b7bd
00000010: c597 643d 216c 5a3f bf10 7f3f 6607 31bf
-0.7295785 -0.052660365 0.08179609 -0.08976635 0.0558088 0.8532124 0.9963493 -0.69151914

prescalers.cantidad.bias f4 [8]
00000000: f508 d93d e87b 6abf 68d1 d7be 90cf 743f
00000010: 7667 103f 195b 58bf 434e 623e 8af4 32bf
0.105974115 -0.91595316 -0.42151952 0.95629215 0.5640787 -0.84514004 0.22100167 -0.69904387

prescalers.lag_1.weight f4 [8, 1]
00000000: 79c8 6e3f 6449 6c3a 3324 74bf 0634 d8be
00000010: 56a1 47bf 0376 1b3f cf5d 283f 901c e53e
0.93274647 0.00090136216 -0.95367736 -0.4222719 -0.77980554 0.60726947 0.6576814 0.44748354

prescalers.lag_1.bias f4 [8]
00000000: 6058 4fbf 8d74 52bf 3868 22bf bdcd 3e3f
00000010: 8e51 28bf 0b95 0cbc 6292 02be 393f 77bf
-0.80994225 -0.8220909 -0.63440275 0.7453268 -0.6574944 -0.0085804565 -0.12751153 -0.96580845

prescalers.lag_2.weight f4 [8, 1]
00000000: af4a 463f 4519 183f 19e6 123f 080a b1bb
00000010: 550f 43bf a81d 2cbf c5f7 24bf 2341 0dbe
0.7745771 0.5941356 0.5738235 -0.005402807 -0.7619527 -0.6723275 -0.64440566 -0.13794379

prescalers.lag_2.bias f4 [8]
00000000: 43e8 1f3f d2a5 1a3f 9a9e 293f c10a 423f
00000010: 3d3e 0a3f 7ca8 0d3f 1be7 723e 6db5 e73e
0.6246378 0.6040927 0.6625763 0.7579766 0.5400122 0.5533521 0.23720972 0.45255604

static_variable_selection.flattened_grn.resample_norm.mask f4 [3]
00000000: 3876 93bc a781 a53d bd37 d2bc
-0.018000707 0.0808137 -0.025661344

static_variable_selection.flattened_grn.resample_norm.norm.weight f4 [3]
00000000: 44a6 783f bbab 993f 7abb 8a3f
0.971287 1.2005533 1.0838463

static_variable_selection.flattened_grn.resample_norm.norm.bias f4 [3]
00000000: 60ee 90bc b71d fbbc 44ff 463d
-0.017691791 -0.030653818 0.048583284

static_variable_selection.flattened_grn.fc1.weight f4 [3, 24]
00000000: 9feb 9abe 5e0e 9d3e 044b 173d 0d57 e23e
00000010: 4292 253e d2dc 233e 177f 013f af8e 24be
00000020: e756 8abe 0cfb 0dbf a9c2 64be c886 c0bd
00000030: bffe 35bd b2d7 efbd 304d ec3c aa6b 8ebe
00000040: 956f 37be 55c8 febd 71d8 1fbf 3719 243e
00000050: 0022 a63e 1c14 9fbe a4b7 9ebd 03d4 04bf
00000060: 66c1 cdbd 5575 693e 0df5 b4be 75ed 7fbe
00000070: 1c96 a2bc f8af 2abc d905 9d3e b9bf d0bd
00000080: 46ce 5b3e ed01 0dbd f0be 36be bd0a 503e
00000090: 25db ae3e 6589 4e3f cc07 123e 5ebc 003d
000000a0: 2368 dc3e 02ba a73d bf71 fc3e 8bca 193f
000000b0: 6f25 233e 77d6 7e3e 5ef5 9dbd 0594 12be
000000c0: 77c6 90be ecb3 e9bd ca6b 8d3e dcb0 13bf
000000d0: e0c3 f43c e537 acbd 4f27 e3bd 7e64 ba3c
000000e0: 4841 22be b963 c63e 59a0 b2be 492c d6be
000000f0: a2d6 8b3d 206d c43e 9599 0ebe 1a52 3a3e
00000100: 4414 84be f0d2 b63d fff1 983e ccc7 8b3e
00000110: bcd1 123e 45b5 083d 632a f03d e65a 82be
-0.3025789 0.30675024 0.036936775 0.4420704 0.16169074 0.16002205 0.5058455 -0.16070054
-0.27019426 -0.5546119 -0.22339882 -0.094007075 -0.044432398 -0.117110625 0.0288454 -0.27816516
-0.17913659 -0.12440554 -0.6243964 0.16025244 0.32447815 -0.3107003 -0.077498704 -0.51886004
-0.100466534 0.22798665 -0.3534321 -0.24992926 -0.019846968 -0.010417931 0.30668524 -0.10192818
0.21465406 -0.034425665 -0.17846274 0.20316596 0.3415157 0.806784 0.14260787 0.03142964
0.430482 0.08189775 0.4930553 0.6007468 0.15932249 0.248865 -0.07712816 -0.14314277
-0.28276417 -0.114112705 0.276213 -0.5769174 0.029878557 -0.084090985 -0.11091482 0.022752997
-0.15845215 0.38747957 -0.3488796 -0.41830662 0.06828047 0.38364506 -0.13925774 0.18195382
-0.2579671 0.08926952 0.29872128 0.2730087 0.1433782 0.033375997 0.117268346 -0.25459975

static_variable_selection.flattened_grn.fc1.bias f4 [3]
00000000: c490 04be 02c7 25bd cd83 ac3c
-0.12945849 -0.04047299 0.021058941

static_variable_selection.flattened_grn.fc2.weight f4 [3, 3]
00000000: 1be3 1d3d 44c4 0fbf 9be1 0dbf 2ece 55bf
00000010: e1bc 2cbe d4ae 14be 7c84 a93f 3d04 eb3d
00000020: 233c abbe
0.038546663 -0.5615885 -0.5542237 -0.8351773 -0.16868927 -0.14519817 1.3243556 0.11475418
-0.33444318

static_variable_selection.flattened_grn.fc2.bias f4 [3]
00000000: a960 b53c 1d40 013e 516c 03be
0.022140818 0.12622114 -0.12834288

static_variable_selection.flattened_grn.gate_norm.glu.fc.weight f4 [6, 3]
00000000: 57fa 32bf c82a 00bf 7505 f23d 1534 723e
00000010: 3c73 08bf 886d 11bf 0763 6b3f 437b 24bf
00000020: ef23 2d3f 9627 0e3f cb2d 37be aa90 fb3e
00000030: 8b35 81be 7999 1abf ab98 e8be f72d 92bd
00000040: d7bf 99be bbd7 cdbb
-0.6991324 -0.5006528 0.11817447 0.2365268 -0.53300834 -0.56807756 0.9194798 -0.6425058
0.67632955 0.55529153 -0.17888562 0.49133807 -0.25236163 -0.6039043 -0.45428976 -0.07137673
-0.30029175 -0.0062818206

static_variable_selection.flattened_grn.gate_norm.glu.fc.bias f4 [6]
00000000: 6697 36bb 9406 67bd bdee 323d e335 8abc
00000010: 5f33 33be 13ab 81bc
-0.0027861237 -0.056402758 0.04368471 -0.016871398 -0.17500065 -0.015828645

static_variable_selection.flattened_grn.gate_norm.add_norm.norm.weight f4 [3]
00000000: 3134 7c3f 7052 6b3f 867b 793f
0.9851714 0.91922665 0.97454107

static_variable_selection.flattened_grn.gate_norm.add_norm.norm.bias f4 [3]
00000000: 5e96 aa3a 881e e33c e8b7 08bc
0.0013014784 0.02772452 -0.008344628

static_variable_selection.single_variable_grns.encoder_length.resample_norm.mask f4 [16]
00000000: aae5 733d c1b2 c8bc cff6 6bbd 48ec 563c
00000010: 2689 f1bb c3d1 753d 9de1 b73c c4ae 92bc
00000020: 49d9 afbc 84a8 523d bd40 ab3c 6666 183b
00000030: 0253 69bd e7d2 36bd 08d1 cc3b f05f fb3c
0.059545197 -0.024499299 -0.057608422 0.013117857 -0.0073710857 0.060014497 0.022446448 -0.0179056
-0.021465914 0.05143024 0.020904893 0.0023254394 -0.056963928 -0.044634726 0.0062505044 0.030685395

static_variable_selection.single_variable_grns.encoder_length.resample_norm.norm.weight f4 [16]
00000000: c8df 873f 6117 793f c23c 723f 0ed7 813f
00000010: b698 7e3f dee8 873f 641d 833f b61b 7c3f
00000020: 74d2 823f b5aa 863f 5d43 833f 5e66 803f
00000030: c1d7 713f f42b 753f 4aea 773f a17a 843f
1.0615168 0.973013 0.9462396 1.0143754 0.9945177 1.061794 1.0243344 0.98479784
1.0220475 1.0520846 1.0254933 1.003124 0.9446984 0.9577019 0.9684187 1.0349923

static_variable_selection.single_variable_grns.encoder_length.resample_norm.norm.bias f4 [16]
00000000: 7a06 783d 10bb e63c 1d4a 5c3d 2e80 76bc
00000010: f80c ab3b 59dc 793d 62f7 c73c f70a 73bc
00000020: 7a7f c2bc 73af 55bd 53cf debc d398 443b
00000030: ae86 64bd 4a03 2dbd a3fd f83b 561e 11bd
0.06055305 0.02816537 0.053781617 -0.015045209 0.005220052 0.061001156 0.024409954 -0.014834157
-0.023742426 -0.052169275 -0.02719847 0.0029998317 -0.055792503 -0.042239465 0.007598595 -0.03542932

static_variable_selection.single_variable_grns.encoder_length.fc1.weight f4 [8, 8]
00000000: 3cc4 29bf 7796 e43d 5161 cbbe b7b9 04bf
00000010: 3eec 29be de67 363e 0b18 5a3e 232e c63e
00000020: 4ca4 503e 8ddc b93e e17a 3c3e 67a3 423e
00000030: f9d7 14bf ced8 22be 2bce 1bbf 28bb 703f
00000040: 72b3 8a3f 8a04 403f 1b69 5a3e 64d9 19bf
00000050: ec6a 0c3d 6074 b8be 2819 7c3f 0357 a1be
00000060: 9ee6 50bd d1fe e4be 861c 123f ba02 873e
00000070: c805 fdbe 3a96 8d3f 732d 6e3f 6785 173f
00000080: 8576 a8be fb28 11be 89a8 acbb 45fc d5be
00000090: 3945 23bf 0e89 29be 7e07 2f3f d621 f0be
000000a0: 4d65 e7be 14a3 603f 8b7c 543e 0e79 54be
000000b0: d524 a4be 4fa0 67be d65d be3c f1f5 583e
000000c0: 4222 943e c277 d0bd b33b ba3e 16ac 763d
000000d0: 0659 933e ec8d 03bf 5841 4a3f f873 cc3e
000000e0: d87d 01be 666c d8be a8e2 2e3e ea69 c23e
000000f0: f657 1f3f 158b 9ebf d7e9 f1be 0a65 0e3f
-0.66315055 0.111615114 -0.39722684 -0.5184588 -0.16594025 0.1781306 0.21298234 0.38707075
0.20375174 0.3630108 0.1840625 0.19007646 -0.5814205 -0.15903017 -0.6086146 0.9403558
1.0836012 0.75006926 0.21329157 -0.60097337 0.034281656 -0.36026287 0.98475885 -0.31511697
-0.051001184 -0.4472566 0.57074773 0.26369268 -0.49418473 1.106147 0.930381 0.5918793
-0.32902923 -0.14175789 -0.0052691144 -0.4179403 -0.637775 -0.16556188 0.6837081 -0.46900815
-0.45194474 0.8774884 0.20750634 -0.20749304 -0.3205935 -0.22619747 0.023238104 0.21187569
0.28932387 -0.10179092 0.36373672 0.060222708 0.28778857 -0.5138843 0.79005957 0.39932227
-0.12645662 -0.422702 0.1707865 0.3797143 0.6224359 -1.2386194 -0.47248718 0.55622923

static_variable_selection.single_variable_grns.encoder_length.fc1.bias f4 [8]
00000000: e408 4bb8 c599 bb3c ace1 b13c 273c b03b
00000010: 0029 3dbc 1a85 b73c acbb 39bc ca8f 00bd
-4.840725e-05 0.022900471 0.021714054 0.0053782645 -0.01154542 0.022402335 -0.011336248 -0.031387128

static_variable_selection.single_variable_grns.encoder_length.fc2.weight f4 [8, 8]
00000000: d46a afbd 80b5 adbd 4bd1 613e 6471 343e
00000010: 650e 17bf f55e efbe 3a40 52bf fdbf 94be
00000020: d50a fc3e 4ef1 28bf 9ed1 183d 8fa9 cd3e
00000030: c864 f53e 6a7e 60bd fea6 053e 9514 92be
00000040: d632 19bf 5402 80bf 5609 01be 02ac 42be
00000050: ea39 933f 364e a33e c2ba 98be 1326 f03e
00000060: f5c5 c8be 708a 2e3e 36ce bc3e 3ac2 953e
00000070: 6e57 bfbd 1f9c e9bc cc99 8bbe 9929 60bf
00000080: 2698 4f3e 31ff 913f 931c 453e 57fc 12be
00000090: 26ab bebc cfb5 223f ee66 da3e 105a 4d3e
000000a0: bc93 1cbe 6ae0 7e3e 687f 02be 23e0 283e
000000b0: 4316 34bf 7064 533f 61ec cabe 5c3c 133f
000000c0: a316 01be 10fd aabe 55b7 8cbe 37c3 973d
000000d0: df59 103e d9f8 84be a4cf 933e 8841 f73d
000000e0: 5519 36be c64d 32be d844 28bf c236 1bbe
000000f0: 998f 843e 5432 273f 0f0f 873e b36b 4bbe
-0.08565298 -0.08481884 0.22052495 0.1762138 -0.5900634 -0.46752134 -0.8212925 -0.29052725
0.49227014 -0.659932 0.03730928 0.40168425 0.47928452 -0.054808058 0.13051984 -0.28531328
-0.59843194 -1.000071 -0.12601218 -0.19010928 1.1502049 0.31895608 -0.29829985 0.46904048
-0.3921353 0.17044997 0.36876076 0.29249746 -0.09342848 -0.028516827 -0.27265775 -0.87563473
0.20272884 1.1406003 0.19249181 -0.14354073 -0.02327497 0.6355867 0.42656654 0.20053887
-0.15290731 0.24890295 -0.12743914 0.16491751 -0.7034647 0.8257513 -0.39633468 0.57513976
-0.12606291 -0.33396196 -0.2748362 0.07410281 0.14096783 -0.25971106 0.28869355 0.12073046
-0.17783101 -0.1741248 -0.6573005 -0.15157607 0.25890806 0.6531117 0.26378676 -0.19865303

static_variable_selection.single_variable_grns.encoder_length.fc2.bias f4 [8]
00000000: 79a5 63bc c584 123c cd81 d1bb 3269 263d
00000010: 61ce 273b 8644 083c c1cd 1cbd a327 f23c
-0.013894432 0.008942788 -0.0063936473 0.040627666 0.002560519 0.0083171185 -0.03828216 0.029559916

static_variable_selection.single_variable_grns.encoder_length.gate_norm.glu.fc.weight f4 [32, 8]
00000000: 5dac 60be 9a02 dcbc 8be7 463c 2115 b53e
00000010: 2298 38be 2bd9 ddbe 5bf0 a3be 4bbf 7d3d
00000020: eb7d aebe c2bc c83e 68b8 47be c29a b73e
00000030: 66e2 d0be 8147 a0bd f700 2a3e ad8c 3dbe
00000040: 6ee6 f4bc d05f aa3e c6d7 943e 4f77 4ebc
00000050: cd6a 1b3d eead 42be 4a84 d4bd 6fe4 573e
00000060: 4df9 34be 514a 793d 0dcd e53d e278 203e
00000070: 1737 e13d c906 693e f50b 8bbe 0036 94be
00000080: c288 9abe 93fd 46bd 6ed4 8cbe 5942 4d3d
00000090: 4661 29be 1a20 b83e bd43 c43d 4750 1b3e
000000a0: d8f4 c73e 0953 2c3e 63fc 19be c43d 113e
000000b0: fff7 69be 8fde 8c3e e92c 083e f2e5 58bd
000000c0: 4500 fdbd 4647 433e 8dba 4fbc 5835 6d3d
000000d0: e8d7 b23c 8147 6d3e b74d bf3e 2a31 763e
000000e0: d8b9 8c3d 2eb8 c03e 86ff 4a3e 163f 8e3e
000000f0: a9b3 e5bd b2a3 9c3d f13b a6be ad00 44be
00000100: ed24 cebe 5225 b7be 85c2 b9bd e3d2 86be
00000110: 64b1 61be 78b5 b23e 69f6 ca3d 74d4 0bbe
00000120: 04e6 48be 489e 4b3e 5a76 a0be ef7b ac3d
00000130: 77cb 5fbe 2a29 5a3e 59c0 483e dc9a b13e
00000140: fd24 9cbe 1b0c 423d d069 25be 7239 80be
00000150: ed95 4fbe 905f 9b3d 22fc 7c3e ab83 163e
00000160: daba 96be e2a6 80be 8737 11be d7e0 95be
00000170: 3b59 433e 7c03 de3b 8f2e aebc 20b1 063e
00000180: cba3 0a3e 4c91 0c3d 9a0e 58bd cb70 ffbd
00000190: 0b74 773e 321c 393d afb2 863e 13ac 2f3e
000001a0: fb79 703e 1649 a03e 124f 91be aaba 0d3e
000001b0: e88c 2ebe 61eb 91bd 4f9b 6dbd c7a7 c63d
000001c0: 738c f5bd 3748 3a3e 8169 aabc dbb6 943e
000001d0: c1e4 003d ee7e 06be 55a6 8ebe 1223 433e
000001e0: 7eb9 c6bd 04e6 5fba e161 4a3e 809b 5fbe
000001f0: 0464 b23e aa2e 7abe 8cc1 a0be a145 813e
00000200: a401 3cbd 5b39 943e 88f5 133e 877f 9ebd
00000210: c5f5 11be 28e8 adbe 1b15 21be ae87 843e
00000220: 497f 2bbe f06d 19be f374 6cbe 027b 8bbd
00000230: 3183 c8be 8a2e bd3d b3b4 983e b35a ddbd
00000240: 0716 a2be 4026 c23e 7742 a43e 037e 343e
00000250: 44a9 d43d a865 1ebe ccef 48bd af43 953e
00000260: 8e16 9c3e 0cb2 3dbd 3142 8dbe ee3e 87be
00000270: c405 7bbe 37d2 04bc ed53 023e debd 923e
00000280: a502 4abd 05de 69be b84c 6dbe 0bae b1bd
00000290: dc48 ab3d dab8 143e 1539 34bb 558c bb3e
000002a0: 8a67 83be 296c b43e eebe 36bd dacb a63e
000002b0: 29b5 813e dbe8 2b3e 3eb8 2d3e c517 ad3e
000002c0: cd72 103d c6da a53e 85ff ac3e 4522 f33d
000002d0: ee48 a2be d2d5 19be 41dc 053d a8d6 533e
000002e0: d785 9f3e a5db a4be 0265 3cbe bf4b b83e
000002f0: 1704 94bd 8702 4a3e e012 543e c7cd ff3d
00000300: 4b7b 963d 72ec b03e 90ee 4fbe 4f7b 67be
00000310: 53cd 9e3d face b8be 946c 85be aeed 713d
00000320: 0edb abbe 6639 8dbe 9676 25be 8913 25be
00000330: b9ac 853e bd80 f33a bc77 3fbd 9388 0f3d
00000340: 5c2f 223e e167 1bbe b217 d6be 9a58 90be
00000350: da0b 43bd bbe9 513e f793 9dbb ce87 bb3d
00000360: acaa 703e 7742 73bd 8931 9f3e c40a 83be
00000370: e843 98bd 8e51 45bd 8f61 ecbc bcfa 693e
00000380: 73f2 a03d 47c2 a6be 56b0 183d c829 8abe
00000390: caf3 553e 0a43 413e 50e6 623e 29a9 a53e
000003a0: 995a 8bbe 089e 603e fadb 2fbe 70a4 e8bb
000003b0: b327 643d eea0 8d3d 7afa a3be 4cfb a83e
000003c0: 15a1 b1be 40a9 ab3d 2abd 6e3e 8a74 d53d
000003d0: 9940 b6be 59a5 273e f1a0 c7be 28a6 a53e
000003e0: b3e2 993e 9024 bebe 6786 bbbd 58d9 aa3e
000003f0: 7cc0 903e 84b1 03be e2f2 813e 21a7 913d
-0.21940751 -0.02685671 0.012140165 0.35367683 -0.18026784 -0.4332975 -0.32019314 0.06195001
-0.34080443 0.3920651 -0.19503939 0.35860258 -0.40797728 -0.07826138 0.1660193 -0.18510695
-0.029895034 0.33276224 0.29070872 -0.012601688 0.03794365 -0.19011661 -0.10376795 0.21083234
-0.17673226 0.06086189 0.11220751 0.15671113 0.10996836 0.22756495 -0.2715756 -0.2894745
-0.30182463 -0.04858167 -0.2750582 0.050112102 -0.16541013 0.35961992 0.095832326 0.15167342
0.39053988 0.1682855 -0.15037684 0.14183718 -0.22848509 0.2751355 0.13298382 -0.052953668
-0.12353567 0.19070157 -0.0126787545 0.0579122 0.021831468 0.23171808 0.3736398 0.24042192
0.068713844 0.37640518 0.19824037 0.27782506 -0.11215908 0.0764841 -0.32467607 -0.19140883
-0.40262547 -0.3577066 -0.09070305 -0.2633277 -0.22040325 0.34904075 0.0991028 -0.13655263
-0.19618994 0.19884598 -0.31340295 0.08422076 -0.2185496 0.21304765 0.19604625 0.3468846
-0.3049697 0.047374826 -0.16153646 -0.25043827 -0.20272036 0.075865865 0.24705556 0.14698665
-0.2943943 -0.2512732 -0.14181338 -0.29273102 0.19077007 0.0067753177 -0.021262435 0.13153505
0.13539045 0.034318253 -0.0527483 -0.124726854 0.2416536 0.045192905 0.263082 0.17155485
0.23484032 0.3130576 -0.28380638 0.13840738 -0.17045939 -0.07124973 -0.058009442 0.0969997
-0.11989679 0.1819161 -0.020802261 0.29045758 0.031468157 -0.13134357 -0.27861276 0.19056347
-0.097033486 -0.000854105 0.197639 -0.21836662 0.3484193 -0.24431863 -0.31397665 0.25248435
-0.045900002 0.2895001 0.14449131 -0.07739168 -0.1425391 -0.33966184 -0.15730707 0.25884765
-0.16747774 -0.14983344 -0.23091488 -0.06810571 -0.3916259 0.09237392 0.29825363 -0.10808315
-0.3165743 0.37919807 0.3208196 0.17626195 0.10383847 -0.15468466 -0.049056813 0.291532
0.30485958 -0.046312377 -0.27589563 -0.264152 -0.24513918 -0.00810676 0.12727328 0.28660482
-0.04931893 -0.228386 -0.23173797 -0.08675774 0.08363506 0.1452364 -0.0027499844 0.36630502
-0.25664932 0.3523877 -0.04461568 0.325774 0.25333527 0.16788046 0.16964814 0.33807197
0.035265733 0.32393473 0.33788696 0.11871771 -0.31696266 -0.15022972 0.032680754 0.20687354
0.311568 -0.32198825 -0.18397906 0.3599529 -0.072273426 0.19727527 0.20710325 0.12490421
0.07347735 0.34555393 -0.20305848 -0.22605632 0.07754006 -0.3609541 -0.260594 0.05906456
-0.33565563 -0.27582854 -0.16158518 -0.16120733 0.2610834 0.0018577796 -0.046745047 0.035042357
0.15838379 -0.15176345 -0.41814953 -0.28192598 -0.047618724 0.20499317 -0.0048088985 0.09156762
0.23502606 -0.059389558 0.3109248 -0.2559415 -0.07434827 -0.04817348 -0.028855113 0.22849554
0.078587435 -0.32570097 0.037277542 -0.26985002 0.2089378 0.1887323 0.2215817 0.3235562
-0.27217558 0.21935284 -0.17173758 -0.0070996806 0.055701923 0.069154605 -0.32027036 0.33004224
-0.34693208 0.08381891 0.23314348 0.10422619 -0.3559616 0.16371669 -0.38989976 0.3235333
0.3005577 -0.3713727 -0.091564946 0.33368945 0.28271854 -0.12860686 0.25380617 0.071119554

static_variable_selection.single_variable_grns.encoder_length.gate_norm.glu.fc.bias f4 [32]
00000000: bd80 6c3d 449f e13c 7d9f 543d bcc4 e0bb
00000010: 5a3f 523c a179 5a3d e45a c53c 8ab9 7bbc
00000020: 4104 a0bc 6052 53bd 5e78 0cbd 54f7 d53b
00000030: 3178 7bbd b735 30bd c5df 2d3c 557d 1abd
00000040: e220 423d b0d0 cf3c 8b7d 3b3d 386d 45bc
00000050: 5693 62bc 3f7a 13bc bc88 56bd 46c3 95bb
00000060: c9e2 d03b cbf3 86bd a35f aabd 0232 75bc
00000070: 73e5 ea3c 509c 31bd 2576 8fbc 2583 c1bc
0.057739962 0.027541764 0.051909912 -0.00685939 0.012832487 0.05333865 0.024091192 -0.01536406
-0.019533278 -0.05159223 -0.03429448 0.006529728 -0.06139392 -0.043019976 0.010612433 -0.037717182
0.04739464 0.025368065 0.045774024 -0.012049966 -0.013829073 -0.009001314 -0.052376494 -0.0045703975
0.006374691 -0.065894686 -0.083190225 -0.014965536 0.028673863 -0.04336196 -0.01751239 -0.023622105

static_variable_selection.single_variable_grns.encoder_length.gate_norm.add_norm.norm.weight f4 [16]
00000000: b4e2 853f 5117 833f 5ea2 6f3f 3f47 813f
00000010: 460d 7d3f 7709 863f ee36 833f dc21 7d3f
00000020: e84e 803f 02f3 843f 2f44 813f a545 7a3f
00000030: 50dc 713f c85e 763f 0031 763f 8c53 833f
1.0459809 1.0241491 0.9360713 1.0099868 0.9884838 1.0471638 1.0251138 0.9887979
1.002408 1.038666 1.0098933 0.9776252 0.94476795 0.96238375 0.9616852 1.0259871

static_variable_selection.single_variable_grns.encoder_length.gate_norm.add_norm.norm.bias f4 [16]
00000000: 432f 603d 37a0 153d 0b83 623d e61f 81bc
00000010: 8a10 173c fd12 673d 56df f03c a847 14bc
00000020: 95c7 9bbc 17b1 2bbd 2bb3 bbbc 1298 113c
00000030: 2e0e 5ebd cc09 14bd 9077 9e3c 2fd7 febc
0.054732572 0.036529746 0.055300754 -0.01576228 0.009220252 0.056414593 0.02940337 -0.009050287
-0.019016067 -0.041916933 -0.022912582 0.008886354 -0.05421274 -0.036142156 0.019344121 -0.031108467

static_variable_selection.single_variable_grns.cantidad_center.resample_norm.mask f4 [16]
00000000: a952 bfbd 61a0 5b3c 5580 4cbd 27fd 0c3d
00000010: 612e c33c 620e a4bd 5726 9ebd f4d9 ab3d
00000020: ce2c 963c c565 6fbe fedf 7c3e f002 72bd
00000030: b3b8 fd3c 0a30 193e 6a39 083d bc7a ba3c
-0.09341938 0.0134049365 -0.049927074 0.034421112 0.023825826 -0.08010556 -0.077221565 0.08391181
0.018331911 -0.23378666 0.24694821 -0.059084833 0.03097186 0.14959732 0.03325788 0.022763602

static_variable_selection.single_variable_grns.cantidad_center.resample_norm.norm.weight f4 [16]
00000000: f4ed 5f3f a1f5 803f 9e28 733f 07a3 883f
00000010: b6f0 7e3f 838d 6b3f d002 723f 71f6 883f
00000020: 855a 773f b5f7 363f f661 a13f 691c 863f
00000030: 2234 733f 9de8 853f ba9b 833f c497 7b3f
0.8747246 1.007496 0.9498385 1.0674752 0.99586046 0.92012805 0.9453554 1.0700208
0.96622497 0.7147172 1.260802 1.047742 0.95001423 1.0461613 1.0281899 0.9827845

static_variable_selection.single_variable_grns.cantidad_center.resample_norm.norm.bias f4 [16]
00000000: eb96 c2bc 35dd 0d3d 38a9 8e3d 8351 2bbd
00000010: 650b 94bb 5813 9d3d fb35 7a3d 6357 343c
00000020: e02d 27bd 3960 3fbe 2878 713d e2cc 353d
00000030: a7e6 41bd b0cc 5abd 40c5 54bb 8e9d e1bb
-0.023753604 0.034634788 0.0696587 -0.041825783 -0.00451796 0.07669705 0.061086636 0.011007163
-0.040815234 -0.1868905 0.05895248 0.044384845 -0.047339108 -0.05341786 -0.0032466203 -0.006885237

static_variable_selection.single_variable_grns.cantidad_center.fc1.weight f4 [8, 8]
00000000: bd94 78bf ab0c 003e 55a0 d83c 4097 c7be
00000010: b91a 78be d849 1a3e 4425 00bf eadd d1be
00000020: 074c 523f d6c0 b53c a3a1 18be 9afb c73d
00000030: e3b2 943e faf1 823f afea 213e 7be6 243f
00000040: 03c0 33bf 36c2 2fbf 0c51 023e 700a 3a3f
00000050: a366 ebbe b7a3 b23e a046 043f 8c54 533f
00000060: 2bea 80bd 1d32 07be fde0 4e3b d604 713f
00000070: c43a 59be 690c 78be 0a44 273f 00c3 7c3e
00000080: 3ab6 203d e3bc 0fbc d398 74be 42f5 9abd
00000090: 37b4 57be 824f e9be 4eb4 64be 8a33 88be
000000a0: 0c3e d5bd b605 ff3e 9ed3 e33e 3b08 3f3f
000000b0: 0837 d53d 8c1d 983e 8584 a43f 40c9 803d
000000c0: 36de 843e c672 10bf de37 c4be c1ed d43e
000000d0: 1c63 d8be 918d a4be 0168 f83d be61 d63d
000000e0: 2c34 da3d 6efc b3bd 186a 09be 7ced db3e
000000f0: ff04 76bf 9769 53bf ee56 8abf 3d86 543e
-0.97101957 0.12504832 0.02644364 -0.38982582 -0.24228944 0.15067232 -0.5005686 -0.4098962
0.8214726 0.022186678 -0.1490541 0.09764786 0.2904273 1.0230095 0.15812181 0.64414185
-0.7021486 -0.6865572 0.1272623 0.72672176 -0.45976743 0.3489053 0.51670265 0.82550883
-0.06294664 -0.1320271 0.003156721 0.94148004 -0.21213824 -0.24223484 0.65338194 0.24683762
0.039236285 -0.008773061 -0.23886423 -0.075663105 -0.2106484 -0.45568472 -0.22334406 -0.2660182
-0.10412225 0.49809045 0.4449739 0.74621934 0.10410887 0.29710042 1.2852942 0.062883854
0.25950783 -0.5642513 -0.38323873 0.41587642 -0.42263114 -0.32139257 0.12129212 0.104678616
0.10654482 -0.087883815 -0.13419378 0.42954624 -0.96101373 -0.8258299 -1.0807779 0.20754333

static_variable_selection.single_variable_grns.cantidad_center.fc1.bias f4 [8]
00000000: 8cc7 42bd c6db bc3d 9737 e43c 550b e23b
00000010: 4720 abbb a2a5 dbbc 0fe2 d63c 2054 d43c
-0.047553584 0.09221606 0.027858539 0.0068983235 -0.0052223536 -0.026812378 0.02623084 0.02591902

static_variable_selection.single_variable_grns.cantidad_center.fc2.weight f4 [8, 8]
00000000: 2caf b63d 4f08 763f 86ba 7c3e 31d3 30bf
00000010: 7f54 87be 195d 183f cd9c c9be f759 03be
00000020: f90e dd3e 20d7 b9bd 34ee 4a3e b5d3 273e
00000030: 1da5 07bf 2085 f43e b726 36bf 15ae 17bf
00000040: a527 b03d 603c 81bd 700f 4bbf be77 f33d
00000050: a0ae 47be 14fb c93d fddd d6bd d89b b83e
00000060: 7f2b 2e3e 5e3f 033e 177c 70be a728 973e
00000070: 556d 00bf b347 aabd 56e4 f93e 96d6 b9be
00000080: 0e15 6cbf 25e2 5abe a3bd 1e3f 1739 35be
00000090: 092f 3c3f beb4 7bbe 974d 2f3f 04f7 40be
000000a0: 50c9 8a3f ae48 813d 2ef1 bd3e e418 0b3f
000000b0: fb30 0abf 17a6 a83e d48c 093f 0788 a63d
000000c0: fb3c 24be 0f2f 313f 7853 783f 0bc0 563f
000000d0: 91e6 963e 662c 31bf 3894 923e a92a 5cbf
000000e0: 2eae 7d3e c320 76be 5757 00be e936 1a3c
000000f0: e5ed 3c3f 739b 5b3e d27d 8bbe 6802 85bd
0.0892013 0.9610643 0.24680528 -0.6907225 -0.26431653 0.59517056 -0.39377442 -0.12827288
0.43175486 -0.09074235 0.1981743 0.16389354 -0.5298632 0.47757816 -0.71152824 -0.59250003
0.086013116 -0.06310344 -0.7932043 0.118880734 -0.19500208 0.098623425 -0.1049156 0.360564
0.1700878 0.12817141 -0.23484837 0.29523203 -0.5016683 -0.08314457 0.4880702 -0.3629653
-0.92219627 -0.2137533 0.6200811 -0.1769756 0.7350927 -0.24580666 0.6847777 -0.18844229
1.0842686 0.06312691 0.37098068 0.54334855 -0.5398099 0.32939216 0.5373051 0.08131414
-0.16038887 0.6921243 0.97002363 0.83886784 0.29472783 -0.6920837 0.28628707 -0.86002594
0.24773476 -0.24035935 -0.12533318 0.009412506 0.738005 0.21446018 -0.2724443 -0.064945996

static_variable_selection.single_variable_grns.cantidad_center.fc2.bias f4 [8]
00000000: 6e2e 043d 6646 c8bd da3f 91ba 8136 b33d
00000010: 2fd9 62bd 8e22 9ebd 812b 27bc 6fc6 043c
0.03227084 -0.097790524 -0.0011081651 0.0875063 -0.055382904 -0.077214345 -0.010203243 0.008103951

static_variable_selection.single_variable_grns.cantidad_center.gate_norm.glu.fc.weight f4 [32, 8]
00000000: 32a6 a43d 1628 9d3e bf10 a8bc 16b6 50be
00000010: fa18 a8bc a433 413e 43ee c83e 3b4f cd3e
00000020: 2236 b6bd e577 08be c1de 93bd 2766 cf3e
00000030: 2b38 bebe a68b 243e 563c 2cbe b336 463e
00000040: 719e 0fbe b245 7fbe b3be 663e 9716 8f3e
00000050: 3fce 66be 3245 083e af53 9b3d 451b 053d
00000060: 04b4 33be e4bb 9b3e 0e95 ee3d 72dc 75be
00000070: 3bd2 6dbd 82ce 4a3e cf55 21be 7488 00be
00000080: 693e e9bd 7e8e cf3d 5721 cd3e f475 58be
00000090: 0f94 643e c22f b6be 437e 89bd 503b adbe
000000a0: 4799 a4be 7a3e 96be eb6f d3be 2737 b83e
000000b0: d76f cfba 4c5c e33c cde9 8fbe fdee c03e
000000c0: 988c 8abe 8aee d0be 2682 17be 207d a73e
000000d0: ff30 3a3d eb89 a03d 0b3b 9e3d 9428 91be
000000e0: ef10 3c3e 5b3f 0f3e adc8 b83e 3252 ae3d
000000f0: 467e b2be 65a7 40be dbaa 973e aa50 80be
00000100: df95 7abd ba12 21be f314 263d e75d 6f3e
00000110: 040d 503e b610 be3e 1c93 7bbe d96b 60be
00000120: 9b12 adbe 1758 7c3e c276 4e3c 93b3 0cbe
00000130: 8d71 763e 516d bb3e ddd2 803e 01f1 a7bd
00000140: 7503 a13d 401f e9be 6e98 f93e d566 1c3d
00000150: 4c0f e6be b968 8dbe 99f8 d6bb eee1 213e
00000160: 0ca4 55be 2f70 9d3d 3b59 623e d1fe b13e
00000170: c306 2b3e a4e8 91be b670 8d3e aee1 9b3d
00000180: e039 36be 3e19 f73d 42e2 543e a177 4ebe
00000190: fff6 8fbe 8f6e 9cbc 81c9 a2bd ccf0 6f3e
000001a0: 5aa0 b03e eecf 96be d961 9ebe 9470 be3e
000001b0: 379e 20be 4e12 8b3c f33c 89be a7f3 80be
000001c0: 2937 b5be d369 a4bc 7071 81be 6bff 9e3e
000001d0: 2a2f 823e 0f1f 76be a787 c23e 6029 513d
000001e0: 9c98 9a3d bd33 0abc ec9a 813e 6d08 40be
000001f0: 65b0 ba3d 880c 98be 09df dabd b6b6 ee3d
00000200: 0de9 afbe 68e2 563e 5870 b73c 3be1 2c3d
00000210: 81c9 bebd b5f3 083e 78ff 81be d94c 6dbc
00000220: 2dda aa3e 419b 5b3e eecd 99be 82c9 243e
00000230: 2c83 3e3e e750 063e c266 80be 7d43 59bd
00000240: ccb3 9abe 2362 523e a42c a2be 8e59 c93e
00000250: 6ee1 b53e 7bc9 883e 4490 1ebd 6e85 92bc
00000260: e8a9 30be c974 833e ee15 b9be 071a a03e
00000270: 356e 333e c6a0 923e 8a4e e7bd 0383 53bd
00000280: d61a 5fbd dc3c febd f44c 76be 214e eabd
00000290: 83d1 0b3e 130a 80be c479 8fbe 3662 e0bd
000002a0: 4821 753e 8228 cf3d 5d33 8e3e 4255 10be
000002b0: 81a3 5a3e 711c 60be fc65 79be 97e9 95be
000002c0: 74fc a4be 5aa4 593e e378 9b3e 7e76 2ebd
000002d0: e57f ad3e f7ff c63d 849d 95be 8d37 403e
000002e0: 33b2 9f3d 27ec dbbc 4f3a 14be 05fc 943e
000002f0: f21d a93d c736 9dbe 9880 1e3e 5c12 11bd
00000300: d57f 90be 9fd4 923e b0b7 903e 9dc7 213e
00000310: b4c6 94bd b85e 95bd 624e 8abe 3c02 873e
00000320: 4856 01be 9250 823e fa52 253e 777f bcbd
00000330: e348 86be 8409 b33e 7b0f af3e 49f8 c53e
00000340: 0305 80be b244 e63c 5e54 0dbe f27d 30be
00000350: 2947 17be a6db adbe 9787 8d3c 753d d9bd
00000360: 0b15 923e 8e07 89be cebe 81be 5e58 973d
00000370: 25e6 643d 7ca0 a8be 1ec2 c4be 8aea 09be
00000380: b049 003c 734e 6a3e a56c b13e 767d 20be
00000390: abe3 e5bc 4af2 86be 690c a73d e73a 633e
000003a0: e730 9e3d 04cd 853d 5ed9 91be 3a5a 123d
000003b0: 379c 24bc 6073 3d3e 44c3 f8bd 0db7 8b3e
000003c0: 391e 34be 5b08 823e b542 263e 2dfd 443c
000003d0: 2e24 4cbd f4af e7bd bd4f b0be 2fcd 84be
000003e0: d340 69be 0d37 22be 5faf 893c d972 1c3e
000003f0: a7c2 9ebc cdff 903e 2d46 b1be 3751 16be
0.08039512 0.30694646 -0.020515798 -0.2038196 -0.020519722 0.18867356 0.3924428 0.4009951
-0.08897044 -0.13326986 -0.07220221 0.40507624 -0.37152228 0.16068897 -0.16819891 0.19356804
-0.14025284 -0.2492893 0.22533683 0.27946922 -0.22539614 0.13307646 0.07584321 0.03249671
-0.1754914 0.30416787 0.11649524 -0.24009874 -0.05806182 0.19805339 -0.1575539 -0.12552053
-0.11388857 0.101346 0.400645 -0.21138746 0.22322105 -0.3558331 -0.06713536 -0.33834314
-0.3214819 -0.2934454 -0.41296324 0.35979578 -0.0015826178 0.027753972 -0.28108063 0.37682334
-0.2706039 -0.4080699 -0.14795741 0.3271265 0.045456883 0.07838806 0.07726105 -0.2835127
0.18365835 0.13989012 0.36090603 0.08511771 -0.34861964 -0.18813856 0.2962254 -0.25061542
-0.061178084 -0.157298 0.040547322 0.23375665 0.20317465 0.37122124 -0.24567837 -0.2191614
-0.33803257 0.24642979 0.012601556 -0.13740377 0.24066754 0.3660684 0.25160876 -0.08200265
0.078619875 -0.45531654 0.48749107 0.038184006 -0.44933546 -0.2761896 -0.006560397 0.15808842
-0.2086336 0.07687413 0.22104351 0.34764722 0.16701798 -0.28497803 0.27625054 0.07611404
-0.17795515 0.120653614 0.20789436 -0.20162822 -0.2811813 -0.019095687 -0.0794859 0.234317
0.3449734 -0.29455513 -0.30934027 0.37195265 -0.15685354 0.016976502 -0.26804313 -0.25185892
-0.35393646 -0.020069992 -0.25281858 0.31054243 0.25426608 -0.24035285 0.3799412 0.05106485
0.07548639 -0.008435187 0.2531351 -0.18753214 0.09115676 -0.2969706 -0.10687072 0.11655943
-0.3435749 0.20984805 0.022392437 0.042206984 -0.093157776 0.13374217 -0.2539022 -0.014483654
0.3336958 0.21445943 -0.30039924 0.16092494 0.18604726 0.131168 -0.25078398 -0.053042877
-0.302153 0.20545249 -0.31674683 0.39326137 0.35523552 0.26716217 -0.0387118 -0.01788589
-0.17252314 0.25675038 -0.36149544 0.31269857 0.1752251 0.28638285 -0.11294277 -0.051638614
-0.054468952 -0.12413952 -0.24052793 -0.11440683 0.13654141 -0.25007686 -0.28022587 -0.10956232
0.23938477 0.10115148 0.27773562 -0.14095023 0.21351434 -0.2188585 -0.2435531 -0.29279777
-0.32223856 0.21254101 0.30365667 -0.04259347 0.33886638 0.0971679 -0.29221737 0.18771191
0.07797661 -0.026846005 -0.14475368 0.29098526 0.08257665 -0.30705854 0.15478742 -0.0354179
-0.28222528 0.28677842 0.28265142 0.15798803 -0.07264462 -0.07293457 -0.27012926 0.26368892
-0.1263057 0.25452095 0.16144934 -0.092039995 -0.26227483 0.34968197 0.34191498 0.3866599
-0.25003824 0.028108928 -0.13801715 -0.17235544 -0.14773239 -0.3395664 0.017276568 -0.10607425
0.2853168 -0.26763576 -0.25340885 0.073899016 0.055883545 -0.3293494 -0.3842935 -0.13468376
0.0078300685 0.22881489 0.34653202 -0.1567286 -0.028062662 -0.26356727 0.08156664 0.22190438
0.07724171 0.06533244 -0.2848615 0.035730578 -0.01004701 0.18501043 -0.12146619 0.27288094
-0.17589654 0.25397 0.16236384 0.012023252 -0.04983919 -0.11312857 -0.34435835 -0.25937793
-0.22778635 -0.15841313 0.016807256 0.15278186 -0.019379927 0.2832016 -0.34623852 -0.14679419

static_variable_selection.single_variable_grns.cantidad_center.gate_norm.glu.fc.bias f4 [32]
00000000: b7d6 32bc 790b 0b3d 8043 843d 92eb 91bc
00000010: 49e5 9e3b 1c78 9f3d 7f94 653d 7ce8 9b3c
00000020: 2522 6abd 331f 00be 5905 953d 33b3 2d3d
00000030: 5aba 59bd f89d d7bc 7326 07bb 07da e2bb
00000040: b333 d53c cf9b 043d d987 3d3d 4344 aa3c
00000050: edfb 413d ae00 c33d 4c2c 2bbc 8a1c 173c
00000060: fc20 703b aef9 433d caab 163e 47d1 f6ba
00000070: f3df aebd c216 3fbc 61a4 f43c e13a 5c3d
-0.01091545 0.033946488 0.06458187 -0.017812524 0.0048491103 0.07786581 0.05604982 0.019031756
-0.05716147 -0.12511902 0.072764106 0.042407226 -0.053156234 -0.026320443 -0.0020622283 -0.0069229635
0.026025629 0.032375153 0.046272133 0.020784503 0.047359396 0.09521614 -0.010447573 0.009223113
0.0036640754 0.047845535 0.1471397 -0.001883068 -0.08538809 -0.011663141 0.029863538 0.05376709

static_variable_selection.single_variable_grns.cantidad_center.gate_norm.add_norm.norm.weight f4 [16]
00000000: 08c4 603f 5996 803f ed2a 6f3f 988f 863f
00000010: 4554 803f 8a60 703f 7c77 7f3f 814b 893f
00000020: 94c2 743f 537c 673f a580 a13f 24d6 833f
00000030: c686 753f f943 873f 8c5d 883f b93a 853f
0.8779912 1.0045882 0.93424875 1.0512571 1.0025717 0.93897307 0.99791694 1.0726167
0.956094 0.9042408 1.2617384 1.0299726 0.9590877 1.0567619 1.0653548 1.0408546

static_variable_selection.single_variable_grns.cantidad_center.gate_norm.add_norm.norm.bias f4 [16]
00000000: 51aa 94bb f1a3 3c3d 3756 783d 2b87 38bd
00000010: e715 093c 70b2 7a3d e92d 713d 5430 d23b
00000020: b425 26bd 520c febd 36c6 8a3d f7d0 c53c
00000030: b8d3 26bd 5c4f 93bd 50af 0bbc efd3 a2bc
-0.004536905 0.046054784 0.060629096 -0.04505078 0.008367038 0.061205328 0.058881674 0.0064144526
-0.0405633 -0.12404694 0.06776087 0.024147494 -0.040729254 -0.07192871 -0.0085256845 -0.019876448

static_variable_selection.single_variable_grns.cantidad_scale.resample_norm.mask f4 [16]
00000000: 49f7 933d fba4 a3bc 3723 8bba 9672 7fbc
00000010: c959 28bd b784 8e3d 460c de3c d6c9 663a
00000020: 4e37 673d 47d9 57bd 2bf7 9cbd 6420 84bb
00000030: 15d3 fe3c 8d63 6b3b d037 50bc 4630 033d
0.072249 -0.01997613 -0.0010615353 -0.015591284 -0.04110125 0.06958907 0.027105462 0.00088038796
0.056449227 -0.052697446 -0.07664331 -0.0040321816 0.031106511 0.0035917491 -0.012708619 0.03202846

static_variable_selection.single_variable_grns.cantidad_scale.resample_norm.norm.weight f4 [16]
00000000: da8a 8a3f 5ac8 7a3f d7ae 7c3f 33c6 7b3f
00000010: 2231 763f c35c 893f 04d5 823f f82a 823f
00000020: 815e 873f 6661 6f3f e6bf 6e3f 7584 7e3f
00000030: 3a72 873f 3744 843f 8c5f 803f 7826 873f
1.0823624 0.9796196 0.98704284 0.98349303 0.9616872 1.0731434 1.0221257 1.0169363
1.0575715 0.93507993 0.93261564 0.99420863 1.0581734 1.0333318 1.0029159 1.0558615

static_variable_selection.single_variable_grns.cantidad_scale.resample_norm.norm.bias f4 [16]
00000000: 008b 7e3d b20c afbc 5374 2a3d cf49 88bc
00000010: ebd8 dfbc d8ff 253d 80a0 943c b964 99bc
00000020: b3d2 ffbc 5547 a03d 390e 41bd b11a cc3c
00000030: 6e9c 80bd 89f2 0fbd 7420 2b3c 1a09 70bc
0.06214428 -0.021368358 0.04161484 -0.016636757 -0.027325114 0.040527195 0.018142939 -0.018724786
-0.031228399 0.078261055 -0.047132704 0.024915071 -0.062798366 -0.03514341 0.010444749 -0.0146506075

static_variable_selection.single_variable_grns.cantidad_scale.fc1.weight f4 [8, 8]
00000000: 299b 4abe a420 603f 9571 d83e f891 343e
00000010: 4b3f 353e c8d3 8e3e dd1e 7d3e 27cf 7a3f
00000020: 1297 c73e 8742 8ebe 2dfc 83bd b1c3 a3be
00000030: 7faa 61be 98eb a23e 8195 18be 4dfc 3ebf
00000040: fd54 4b3f 808d 123d c774 1fbe cb09 8b3d
00000050: 254b ea3e 5fca 4c3f 9f73 8bbe ab43 18bf
00000060: f3b8 88bf 3760 913e 15e3 f9be f156 883c
00000070: 6e57 0fbf 98c0 5cbe 2839 123f 040c 4dbf
00000080: ee08 fdbe a47a 4bbf 6070 a03e a0b3 58bf
00000090: 726b e8be d4e9 dd3e e9d4 2cbe cd83 b13d
000000a0: 79a9 2ebd 39d2 213f ddaa b13e 942a 08be
000000b0: e676 903d b092 373e d414 16bf 3cb2 b53e
000000c0: ce1c 2cbf 8c0f a1be eebb c13d 8bde 71be
000000d0: 4fde 413f ac39 503f 3aac 7dbf 3505 403f
000000e0: c89c ba3e 6ae4 d4be 9576 1cbe d8ad c4be
000000f0: 32c9 a9be 94b0 423e 570a 00be f7bb f3be
-0.19785751 0.87549806 0.42274156 0.17633808 0.17699926 0.2789595 0.24718805 0.9797234
0.38982445 -0.2778513 -0.06444583 -0.31985238 -0.22037695 0.3182037 -0.14900781 -0.7460373
0.79426557 0.035779476 -0.15571891 0.06788977 0.45760456 0.79996294 -0.2723665 -0.59478253
-1.0681442 0.2839372 -0.48806062 0.01664302 -0.5599278 -0.21557844 0.57118464 -0.8009646
-0.49420875 -0.7948401 0.31335735 -0.84649086 -0.45394474 0.4334246 -0.16878094 0.08667717
-0.04264209 0.632114 0.3470067 -0.13297492 0.07053928 0.1792705 -0.5862553 0.35487545
-0.6723145 -0.31457174 0.09459673 -0.2362005 0.7572984 0.81338 -0.9909092 0.75007945
0.3644774 -0.41580516 -0.1527961 -0.38413882 -0.33161312 0.19012672 -0.12503944 -0.47604343

static_variable_selection.single_variable_grns.cantidad_scale.fc1.bias f4 [8]
00000000: 8c63 2bbd 2072 0abc 571d 3bbb 1936 ddbb
00000010: b1eb 243a 25f5 2cbc 0751 e43c 9ae5 5bbd
-0.041842982 -0.008450061 -0.0028551423 -0.0067508337 0.0006291224 -0.010556494 0.027870668 -0.053685762

static_variable_selection.single_variable_grns.cantidad_scale.fc2.weight f4 [8, 8]
00000000: 31d1 0a3f 86d5 f9be 1db3 413e e369 13bf
00000010: 3529 753e 402b 25be bdae d3be 0e76 a43f
00000020: 172f 31bd b475 65be d8e8 d4bd d87a c5be
00000030: 1027 3abf f1bd 9cbe 744c 83be a19f 89bd
00000040: 4c1b babe a97c bdbe a423 12bf 2c97 463f
00000050: 1465 5c3e b63d e9be a061 973e 2213 093e
00000060: e069 a33b 7442 8cbe 5cf4 9b3d 3b66 af3e
00000070: ecc6 3a3f c60f 96be 2640 4b3d c5f5 b3be
00000080: 010a d33e 8321 953f ae7f 4b3e 9029 7abe
00000090: a0d7 83bf 8237 d83b 90b9 91be 908c 823e
000000a0: acea 6e3f f667 1bbf cd69 fb3e 22e8 703e
000000b0: 08c5 41be 7fc0 413c 5a30 1cbe 9b4c e63e
000000c0: 5d65 053f 6421 65bf 8428 663e cfd8 2ebf
000000d0: 15e2 b93e 300a b7be 3deb f23e a2cd a43d
000000e0: d2c6 16be d537 91be 3da1 fabe 3419 c33d
000000f0: 228b 01bd 6ad7 40bf 3713 15bf ec64 6c3f
0.5422545 -0.48795718 0.18915983 -0.57583445 0.239415 -0.1612978 -0.41344252 1.2848527
-0.0432578 -0.22408181 -0.10395974 -0.38570285 -0.72715855 -0.30613664 -0.25644267 -0.067199
-0.3634895 -0.3700917 -0.57085633 0.7757442 0.21522933 -0.45554894 0.2956667 0.13386205
0.0049869865 -0.2739445 0.07614967 0.34257683 0.7295978 -0.2930891 0.049621724 -0.35148445
0.4121857 1.1650852 0.19872925 -0.24429917 -1.0300179 0.006598414 -0.28461885 0.25497866
0.9332683 -0.60705507 0.49104157 0.23526052 -0.18922818 0.01182568 -0.1525282 0.4498032
0.52107793 -0.89504075 0.22476393 -0.68299574 0.363053 -0.3574996 0.47445098 0.08047034
-0.14724281 -0.2836291 -0.4895114 0.095262915 -0.031626828 -0.75328696 -0.58232445 0.92341495

static_variable_selection.single_variable_grns.cantidad_scale.fc2.bias f4 [8]
00000000: a1d8 7bbd 44c8 1f3d 56f7 37bc 48c9 bc3b
00000010: 6824 94bc 32d3 01bd 98f8 8f3c 926b af3c
-0.06148589 0.039009348 -0.011228403 0.0057612993 -0.018083766 -0.031695552 0.017574593 0.021413598

static_variable_selection.single_variable_grns.cantidad_scale.gate_norm.glu.fc.weight f4 [32, 8]
00000000: 5e05 cb3e be2f c4be 8b4d a6be c234 a83d
00000010: d1df d2bd 5995 43be 9719 b73e 5c18 803e
00000020: f2bb a43e d94f c33d 0eed 87be a0b8 1f3d
00000030: 4dd3 aa3d fb99 b73d c80b d9bd 90c1 2cbe
00000040: bf89 443e a203 84bc 6f64 1cbe 7944 c1bd
00000050: a17b a6be 1fd3 acbe 2f45 9e3d 88c2 d93d
00000060: 3941 b13e 75ab 9a3d dbfa ebbd c01a 89be
00000070: 1d00 19bc 2c91 7dbe af55 a03d 4d37 8c3e
00000080: a79c 453e fa0e 643d ff02 c73e a4e2 4c3e
00000090: 47ad 533c 275a 15be 3c48 95be 2c8e f93d
000000a0: 5486 cfbd 496e a03e fbd2 48be caff 7bbd
000000b0: e61e 553e 1bf0 b2bd 8377 b93b 7c11 2b3e
000000c0: c5c7 63be 0aed b53e b515 0c3e e749 653e
000000d0: 80d8 433e 8cfe a9be 976d 60be 9225 08be
000000e0: acc8 ac3e a1f0 b5be fa48 773d fae2 2dbe
000000f0: 9928 b6b9 f8f3 913d 63ea 67bd 41b9 9c3d
00000100: a58c 453e f648 603e a112 b3be 7ece 34be
00000110: 608b 21be 365e 5cbe 551f babd f981 7a3e
00000120: 720d 0b3d 1572 0dbe 3d1a a2be 068d 42be
00000130: 8bc1 a23e 751d d93e 4ffe 49be bae8 acbc
00000140: ddce abbe 99d4 a13e 4893 3ebc d082 243e
00000150: 7744 dd3d db94 87be d5bf 493d 64bd de3e
00000160: 6e53 273e a505 4b3e f403 703e 505c 3b3e
00000170: 168d a43e 9e8b 33be 751a 533e 41db c9bd
00000180: 51a4 6a3e a6d1 673d 3117 523e 16c3 783e
00000190: 0867 80be ae58 0e3c 0ff1 80bd 84ad 333e
000001a0: e81a 1bbe 5f76 70be 919a 823e c35a cf3d
000001b0: 42ef a33e 028b 9fbe 4211 33bd 6b74 cd3e
000001c0: 16cb 9b3d 488c 823e aa54 32be 5297 423b
000001d0: 2031 23be 983c 943e 11d4 143b ff81 283e
000001e0: a090 853e 1346 013e a2a0 dc3c f27e 2cbe
000001f0: c8a6 923e 1ba8 4fbe 0146 d6bd 46dc bb3e
00000200: e234 9bbe 43a1 0bbd 2c9e ccbc 43e3 6dbe
00000210: ef87 063e 6ee6 9e3e b2e2 7dbe dac7 4cbe
00000220: 48ae 413e f339 b8bc 3820 96be 60cb 353e
00000230: c27e d03d cfe5 a1be d603 8f3e 2c0b 3e3d
00000240: 44c0 abbd 5484 32be cc93 c83e 6482 a0bd
00000250: 1c17 3dbe 7aaa b6bd ec08 d13d 913c b43d
00000260: 0ba7 46be f48e a53e 1938 3a3e dec7 5abd
00000270: e028 b23e 2557 6a3d e6fd d6bd 7199 8ebe
00000280: 91b5 83be 6f0b 8d3d fddf ae3d 41c2 08be
00000290: 31b4 b23d c71f 483d f29c 9c3e 47ec 3cbe
000002a0: 6ba3 a33e b619 d3bd fa43 35bd 32e1 1e3c
000002b0: 17a1 a63e 17e2 88bd 0537 ad39 7648 c63e
000002c0: bb49 8e3e f317 5cbe 7550 073e 8c7d 3cbe
000002d0: f8ff c63e 656e 27be e8ee 8c3e d340 b63e
000002e0: ed4d a1bd 7d29 96bd 9380 37bd 5e39 d4bd
000002f0: fe98 d0be d496 b1be ce83 99be b48e 67bd
00000300: eb2b 8dbe faf2 43be 6f1c 3c3d 681d a83e
00000310: a2f5 38be c99f 623e f2b2 b93d 4d07 96bc
00000320: 7c95 2b3e 0fbf a6be 98e6 633e d691 123e
00000330: 3814 c7bd b18c 9cbe a75a 8f3e b54d b3be
00000340: 473b babe 1b32 173e da1f b7bd 4ce5 42be
00000350: 03a7 9ebd 3226 afbe a992 8b3d 9e82 fb3d
00000360: 630d e4bd 59a9 98be bbc6 d63d cf9e 603e
00000370: e5b5 883e 6293 c03d aa73 6abe 9dce d03e
00000380: 661f 8ebe 12e2 bb3e 727f 35be 1162 73be
00000390: 7e81 d0be fd2b 1f3e 0573 103e a59c 13bc
000003a0: a775 803d 8df4 dfbd 9b63 933e 2186 0d3d
000003b0: ede2 7bbe 70e1 5e3e a286 6b3e 8e74 c23d
000003c0: c101 d5bd 3e89 a83e b9ea 883b 11a6 1f3d
000003d0: aea2 97be cb5d 0c3c 2333 10be e566 c03e
000003e0: 0da1 6e3d aba2 7bbc 638a 98be a6f9 83be
000003f0: e629 683d 8ba2 543e 11e1 773e 0b9e 94be
0.39652532 -0.38317674 -0.32481036 0.08213188 -0.10296596 -0.1909994 0.3576171 0.25018585
0.3217464 0.09536714 -0.26548046 0.03899443 0.08341084 0.08964916 -0.1059795 -0.16870713
0.19193171 -0.016115014 -0.15272687 -0.09436888 -0.32516196 -0.33754823 0.077280395 0.10632807
0.34620073 0.07552234 -0.11522456 -0.2677822 -0.009338406 -0.2476241 0.07828843 0.2738594
0.1929804 0.055678345 0.38869473 0.20008332 0.0129197305 -0.14585172 -0.29156673 0.1218532
-0.10133043 0.3133414 -0.19611733 -0.061523236 0.20812568 -0.08737203 0.005659999 0.16705889
-0.22244175 0.3553241 0.13680156 0.22391473 0.19125557 -0.33202016 -0.21916805 -0.13295582
0.3374685 -0.35535148 0.06037233 -0.16981116 -0.00034743993 0.071266115 -0.056620013 0.07652522
0.19291933 0.21902832 -0.3497515 -0.17656896 -0.15775824 -0.21520314 -0.09088007 0.24463643
0.03394837 -0.1381305 -0.31660643 -0.18999109 0.31788287 0.42405286 -0.19725917 -0.021107066
-0.33556262 0.31607512 -0.011631794 0.16065526 0.10804074 -0.26480755 0.04925521 0.4350387
0.1634042 0.19826372 0.23439008 0.18296933 0.3213889 -0.17533728 0.20615561 -0.098562725
0.22914244 0.05659642 0.2051666 0.2429317 -0.25078607 0.008688135 -0.06295978 0.1754666
-0.15146983 -0.23482655 0.2550855 0.10124733 0.32018477 -0.31160742 -0.04371763 0.40127882
0.07607095 0.2549765 -0.1741511 0.0029692245 -0.15936708 0.2895248 0.002270941 0.1645584
0.26086903 0.12624387 0.026932064 -0.16845301 0.2864287 -0.20278971 -0.10462571 0.36691493
-0.30313784 -0.034089338 -0.024977766 -0.23231225 0.13137792 0.3103518 -0.24793509 -0.19998112
0.1891414 -0.02248857 -0.29321456 0.17753363 0.10180427 -0.31620643 0.27932614 0.046397373
-0.08386281 -0.17433292 0.3917526 -0.0783737 -0.18465847 -0.089192346 0.1020678 0.088006146
-0.1939966 0.32335627 0.18185462 -0.053413264 0.3479681 0.057212014 -0.10497646 -0.27851442
-0.25724462 0.068869464 0.08538816 -0.13355352 0.08725775 0.04885843 0.3058849 -0.18449508
0.31960616 -0.10307638 -0.04425428 0.009697245 0.32544777 -0.06683748 0.00033038124 0.38727158
0.27790627 -0.21493511 0.13214286 -0.18407267 0.38867164 -0.16350706 0.2752602 0.35596332
-0.07876191 -0.07332132 -0.044800352 -0.103625044 -0.40741724 -0.34685385 -0.29983371 -0.056532577
-0.2757257 -0.19135657 0.045925554 0.32834935 -0.18062451 0.22131266 0.09067334 -0.018314028
0.16756243 -0.3256764 0.22255933 0.14313444 -0.09720653 -0.3057609 0.2799885 -0.35020223
-0.3637335 0.14765207 -0.08941622 -0.19032782 -0.07746699 -0.34208828 0.068150826 0.122807726
-0.11135366 -0.29816702 0.104871236 0.2193558 0.26701275 0.09403111 -0.22895685 0.40782633
-0.2775833 0.36695915 -0.17724398 -0.23767878 -0.40723795 0.15544124 0.14106376 -0.009009515
0.062724404 -0.10935316 0.2878693 0.034551743 -0.24598284 0.21765685 0.23000577 0.09494887
-0.10400725 0.32917207 0.0041783717 0.038976733 -0.29616302 0.008567284 -0.14082007 0.37578502
0.05825906 -0.015358607 -0.2979308 -0.25776404 0.056680582 0.2076513 0.2420695 -0.29026827

static_variable_selection.single_variable_grns.cantidad_scale.gate_norm.glu.fc.bias f4 [32]
00000000: a074 7e3d 2bd3 bdbc cae6 883c 3497 f7bb
00000010: 84fc 8cbc 6282 2d3d 4a42 e23c 9a19 84bc
00000020: c6ef a1bc e7f0 883d 2582 38bd beac fe3c
00000030: 9f92 96bd dfe5 48bd ec39 af3c f9f4 81bc
00000040: 5c13 1bbd 7385 b7bc 458a 11bd 95ce 1e3c
00000050: cade dd3c 04f1 69bd 3f1d 323c 92a4 afbc
00000060: a0d7 19bc ce0a 553d 9642 2c3d bddf 39bd
00000070: 4e32 823b 3aeb 493d 1c87 4f3c e659 29bd
0.06212294 -0.023171982 0.016711611 -0.0075558666 -0.017210253 0.04236067 0.0276195 -0.016125489
-0.019767653 0.066865735 -0.04504599 0.03108823 -0.073521845 -0.049047347 0.021389924 -0.015863882
-0.03786026 -0.0224025 -0.035532255 0.009692808 0.027083773 -0.057114616 0.010871231 -0.021440778
-0.009389788 0.052012257 0.04205569 -0.04537939 0.003973282 0.049296595 0.01266649 -0.0413455

static_variable_selection.single_variable_grns.cantidad_scale.gate_norm.add_norm.norm.weight f4 [16]
00000000: dc4f 823f 263a 783f 6183 7a3f 1be5 783f
00000010: b6f3 753f 6477 853f 9673 813f 3e15 7e3f
00000020: 8585 813f 47a5 833f 2097 6e3f 8bd7 7b3f
00000030: a8b2 823f abf0 823f 6e85 7b3f 04d8 813f
1.0180621 0.9696373 0.9785672 0.9722459 0.96075 1.042706 1.0113399 0.99251163
1.0118872 1.0284814 0.9319935 0.9837577 1.0210772 1.0229696 0.9825047 1.0144048

static_variable_selection.single_variable_grns.cantidad_scale.gate_norm.add_norm.norm.bias f4 [16]
00000000: 25d0 453d 7f71 adbc 840c 3d3d b691 12bd
00000010: 16d6 aebc 870a 893c 2a81 cc3b dda8 c1bb
00000020: df8e bf3b 4b3a b23d ccca 24bd 6893 02bc
00000030: 7685 f3bc 5e48 2dba 7861 83bb 9451 d9bc
0.048294205 -0.021172283 0.046154514 -0.035783492 -0.021342319 0.016728653 0.0062409835 -0.0059100226
0.005845889 0.08702525 -0.040232465 -0.007969715 -0.029726725 -0.000661021 -0.004009422 -0.026528157

static_variable_selection.prescalers.encoder_length.weight f4 [8, 1]
00000000: 00b9 fabe 444f 163e 2cf3 97be 96dc 533f
00000010: d095 febe f5a4 52bf 5498 183f 9b7f d5be
-0.4896927 0.14678675 -0.29677713 0.8275846 -0.49723673 -0.82282954 0.59607434 -0.41698918

static_variable_selection.prescalers.encoder_length.bias f4 [8]
00000000: f462 5a3f b17c 2bbf 140b 73bd 3208 733f
00000010: e424 14be 2789 653f 2892 033f 2f94 a7be
0.8530724 -0.6698714 -0.059336737 0.9493438 -0.14467198 0.896624 0.5139489 -0.32730243

static_variable_selection.prescalers.cantidad_center.weight f4 [8, 1]
00000000: a0dd 5dbf 5bce b7be 0a53 b3bd f5d2 72be
00000010: 5a3e 81bf 047e 02bf 0100 863f 0091 66be
-0.866663 -0.35899624 -0.08756073 -0.23713286 -1.0097153 -0.50973535 1.0468751 -0.2251625

static_variable_selection.prescalers.cantidad_center.bias f4 [8]
00000000: 24f1 4abf 4841 d7be e555 53bf 0a1f a5be
00000010: 0b48 823e 8fe7 87be 71d6 b83d 9f87 18bf
-0.792742 -0.42041993 -0.8255294 -0.32250243 0.2544559 -0.26543853 0.090252765 -0.5958194

static_variable_selection.prescalers.cantidad_scale.weight f4 [8, 1]
00000000: a827 3b3f 5a12 fabe f2ab 343d 7127 08bf
00000010: 3ed1 4c3f 7a0c 703f 0081 56bf 0f51 28bf
0.73107386 -0.48842126 0.044109292 -0.5318518 0.8000678 0.9376904 -0.8379059 -0.65748686

static_variable_selection.prescalers.cantidad_scale.bias f4 [8]
00000000: 23b8 563f 9bba 2b3f 519f 693f bf3e 473e
00000010: c4f7 6dbf 321b 653f dc33 65bf 0436 743e
0.8387472 0.6708161 0.9125872 0.1945753 -0.92956185 0.8949462 -0.89532256 0.2384873

encoder_variable_selection.flattened_grn.resample_norm.mask f4 [11]
00000000: 92ef 1fbd 7bcd 9c3d 8bc4 bdbc 9cd4 883c
00000010: 75e7 a5bc fbd7 b4bc 4b05 3b3c 87ed 1a3d
00000020: a2cd 753d 0a0e babd 30c7 a1bd
-0.03904683 0.0765638 -0.023165008 0.016702943 -0.020251969 -0.022075644 0.011414836 0.03782418
0.06001056 -0.09084709 -0.0789932

encoder_variable_selection.flattened_grn.resample_norm.norm.weight f4 [11]
00000000: 6de8 713f 4a1d 873f df72 7b3f e52d 843f
00000010: 1742 803f aa46 813f 153c 803f 6aeb 813f
00000020: 3f13 863f 0667 6e3f 9bbc 7b3f
0.9449528 1.0555813 0.98222154 1.0326506 1.0020169 1.009969 1.0018336 1.0149968
1.0474623 0.9312595 0.98334664

encoder_variable_selection.flattened_grn.resample_norm.norm.bias f4 [11]
00000000: 09d2 e03c dc88 873d e0fd 043d a6ce 6aba
00000010: 5dc7 afbc 5ec4 90bc c509 403c e889 e8ba
00000020: 8d9f 2d3c d26d 0ebd e04b 9ebd
0.027443903 0.06617901 0.032468677 -0.00089571846 -0.021457369 -0.01767176 0.011721079 -0.0017741295
0.010597122 -0.0347727 -0.07729316
