Notebooks_Development/mlartifacts/400716610318719328/3b4db3fbba444280a30038457360c513/artifacts/checkpoints/latest_checkpoint.pth (torch, 850369 bytes, 1197 tensors)

prescalers.encoder_length.weight f4 [8, 1]
00000000: a3a4 ecbe 3149 083e f8d8 aabe 0154 643f
00000010: 93d7 ecbe 8e8c 44bf a45d 323f f475 d7be
-0.46219358 0.1330917 -0.3336866 0.8919068 -0.4625822 -0.7677697 0.69674134 -0.4208218

prescalers.encoder_length.bias f4 [8]
00000000: 3a6d 613f 38fe 2ebf 0f1d c5bd d8bf 813f
00000010: b650 e1bd 8ea1 733f 7857 1d3f 888a a9be
0.8805729 -0.6835666 -0.09624683 1.0136671 -0.110017225 0.9516839 0.6146159 -0.33113503

prescalers.cantidad_center.weight f4 [8, 1]
00000000: c757 4abf 6340 90be 0656 3ebd aab9 eebd
00000010: b829 68bf dba9 d8be fbb6 6e3f 9e80 15be
-0.7904019 -0.28174123 -0.046468757 -0.11656506 -0.9068866 -0.4231709 0.93247956 -0.14599845

prescalers.cantidad_center.bias f4 [8]
00000000: 9f1a 5dbf 3116 09bf 0bde 73bf 7319 9dbe
00000010: 9956 9a3e 7b9a a0be c1b7 2d3e 1f72 27bf
-0.86368746 -0.53549486 -0.95260686 -0.3068348 0.30144194 -0.3136786 0.16964628 -0.6540851

prescalers.cantidad_scale.weight f4 [8, 1]
00000000: 1439 383f 2b50 fdbe 8784 253b 1b5e fabe
00000010: 5eb4 5c3f 6f04 713f bb13 6ebf c44e 3bbf
0.71962094 -0.49475226 0.0025255994 -0.48899922 0.8621272 0.9414739 -0.92998856 -0.7316706

prescalers.cantidad_scale.bias f4 [8]
00000000: d50f 573f 42d5 2d3f 2a51 583f 4c45 5f3e
00000010: ade0 61bf 3489 643f 8699 62bf cc6c 423e
0.8400853 0.6790353 0.84498847 0.21803778 -0.88233453 0.89271855 -0.8851551 0.18986815

prescalers.time_idx.weight f4 [8, 1]
00000000: 7740 55bf bcbf 833f 1fd6 6fbf 78f1 3c3e
00000010: 6571 38bf f0df dbbd 8d7d 28bf 39d3 0dbf
-0.8330149 1.0292888 -0.936861 0.18451488 -0.72048026 -0.10736072 -0.65816575 -0.55400425

prescalers.time_idx.bias f4 [8]
00000000: e853 32bf 4b16 4ebc 55cc 4abf 5fe2 8dbe
00000010: 293a 2cbf 06ef b73e 861a de3e 9407 dfbe
-0.6965928 -0.012578557 -0.79218036 -0.2771177 -0.67276245 0.35924548 0.4337961 -0.4356047

prescalers.mes.weight f4 [8, 1]
00000000: 68de 7ebf ffd4 52bf d5c2 16bf a7c2 6c3f
00000010: 2823 583f 7855 6d3e ca15 32bf b890 3c3f
-0.99558115 -0.82356256 -0.5889104 0.92484516 0.84428644 0.23177135 -0.695645 0.73658323

prescalers.mes.bias f4 [8]
00000000: 0313 ab3e 5bf5 433f b083 82bf 47d7 d6be
00000010: da49 c6be ac0c 1fbe 7b76 cd3e dd01 92be
0.33412942 0.7654626 -1.0196438 -0.4196112 -0.3872822 -0.15532178 0.40129456 -0.28517047

prescalers.semana_ano.weight f4 [8, 1]
00000000: c0b8 52bd e9ca 48bf 2166 2dbf 03f0 303f
00000010: 244d 4d3f 59d4 5c3e f5be 043f 6360 06bf
-0.051445723 -0.78434616 -0.6773396 0.6911623 0.8019583 0.21565379 0.5185388 -0.52490824

prescalers.semana_ano.bias f4 [8]
00000000: 837f 3abf b4be 3abf 1e2c 3bbd b882 20bf
00000010: 62e7 ebbe 8352 1d3e c196 e3be f06a 34bd
-0.7285082 -0.7294724 -0.04569637 -0.6269946 -0.4607497 0.15363507 -0.44450954 -0.044047296

prescalers.trimestre.weight f4 [8, 1]
00000000: 8ed8 5ebf 166c 243f 2b7c 17bf 480d 703f
00000010: 04ae 29bf b9b8 b8be 203d 90bd 809f 5abe
-0.87049186 0.64227426 -0.5917384 0.93770266 -0.6628115 -0.36078432 -0.07042909 -0.21349907

prescalers.trimestre.bias f4 [8]
00000000: ecda c83d 4c55 a7be 3f98 c5be f2b4 38bf
00000010: 9453 6c3f 5723 17bf 17f0 783f ba7f 223f
0.09807381 -0.32682264 -0.38592717 -0.721511 0.9231503 -0.590383 0.9724135 0.63476145

prescalers.ano.weight f4 [8, 1]
00000000: d089 5bbf ce26 f2be 86b0 89be 1d99 8d3e
00000010: 3c3f 093f d652 2cbe 89b2 7abc 4536 42bf
-0.8575716 -0.4729523 -0.2689249 0.2765588 0.53612113 -0.16828474 -0.015301355 -0.7586406

prescalers.ano.bias f4 [8]
00000000: 4d89 613d a89c 933d 81c5 4a3f 0d17 433f
00000010: 0184 803e f265 f5be a5d7 e83d 85a7 22bf
0.05506258 0.07207614 0.7920762 0.7620705 0.2510071 -0.4792934 0.11369256 -0.63536865

prescalers.dia_festivo.weight f4 [8, 1]
00000000: ebad 16be 3435 a23d 53a9 2abf d808 aebd
00000010: d117 ea3e 5e9d 8abe 97b6 653f 1723 6dbf
-0.14714782 0.07920304 -0.6666462 -0.084977806 0.45721295 -0.27073187 0.89731735 -0.9263167

prescalers.dia_festivo.bias f4 [8]
00000000: 6866 d63e ba09 0e3f 0c99 f8be 4a04 143e
00000010: 1a30 a83e b77a 15bf dafb 033f 1c7f 423f
0.41875005 0.5548359 -0.48554265 0.14454761 0.328492 -0.58390373 0.5155617 0.75975204

prescalers.ocupacion.weight f4 [8, 1]
00000000: 3382 183e d9ca c6bd eca2 f5be 9b21 4f3f
00000010: 0bad 893e c59b 1ebc 2455 523f 2b62 6dbe
0.14893417 -0.09706659 -0.47975862 0.8091065 0.26889834 -0.009680693 0.82161164 -0.2318198

prescalers.ocupacion.bias f4 [8]
00000000: bd71 1cbe b50d 333e 81f3 e3be d66e 553f
00000010: dace 8f3e ed9a 543f 9f24 07bf 637c 42bf
-0.15277763 0.17485698 -0.44521716 0.8337225 0.28087503 0.830489 -0.52790254 -0.7597105

prescalers.relative_time_idx.weight f4 [8, 1]
00000000: 6c9d f63e 406b 6ebf 8561 49be 98bb 383f
00000010: 9785 5cbe 135e 5c3f 54ed 47bf e6cd 1f3e
0.48166978 -0.931324 -0.19666107 0.72161245 -0.21535335 0.86081046 -0.7809651 0.15605888

prescalers.relative_time_idx.bias f4 [8]
00000000: c3af 913e a7b9 70bf b794 0dbe 65f1 c0be
00000010: b4b6 9bbe 758c 43bf 6ecb 0abe 3cf6 683f
0.28454408 -0.94033283 -0.13826261 -0.3768417 -0.3041283 -0.76386195 -0.13554165 0.91000724

prescalers.cantidad.weight f4 [8, 1]
00000000: 8df3 2dbf 7739 c4bd decd 093e 1d56 bcbd
00000010: 9fe5 983d ca67 483f 04f8 743f f78d 29bf
-0.67949754 -0.09581273 0.13457438 -0.09196112 0.07465672 0.7828337 0.9569094 -0.66232246

prescalers.cantidad.bias f4 [8]
00000000: 141e ed3d b3ac 6cbf 6535 debe 210d 7b3f
00000010: 76fe 0f3f 8829 54bf 9068 613e 11ad 38bf
0.115780026 -0.9245102 -0.43400112 0.9806691 0.5624765 -0.8287587 0.22012544 -0.7213908

prescalers.lag_1.weight f4 [8, 1]
00000000: b97c 703f 3f0c ad3c 876a 6abf 50e1 dabe
00000010: 536d 51bf a2df 0a3f 18bb 2f3f 766a f73e
0.9394031 0.021124003 -0.915688 -0.42750025 -0.8180744 0.54247487 0.6864486 0.4832341

prescalers.lag_1.bias f4 [8]
00000000: 35e0 54bf 0f2f 53bf 2f8a 1dbf 968a 363f
00000010: 6376 2fbf 8d49 613a ab88 b7bd 3fd6 7abf
-0.8315461 -0.8249368 -0.61538976 0.71305215 -0.6854002 0.0008594029 -0.08961614 -0.97983164

prescalers.lag_2.weight f4 [8, 1]
00000000: a432 403f f6e7 1c3f 5b5c ff3e 02ac 113d
00000010: 1228 33bf 9bc2 2ebf 7d56 1bbf 1f9b eabd
0.7507727 0.61291444 0.4987515 0.03556443 -0.6998302 -0.68265694 -0.60678846 -0.11455368

prescalers.lag_2.bias f4 [8]
00000000: 5879 253f f5dc 113f b483 403f 0d3e 463f
00000010: 29a3 0d3f 732e f93e f300 3b3e d026 f33e
0.6463828 0.5697778 0.75200963 0.7743843 0.5532709 0.4866825 0.18262081 0.4749055

static_variable_selection.flattened_grn.resample_norm.mask f4 [3]
00000000: 0c4f 9c3c 5487 c7bc 3f65 37bc
0.019080661 -0.024356522 -0.011193573

static_variable_selection.flattened_grn.resample_norm.norm.weight f4 [3]
00000000: 670c 813f d6f4 813f 4c98 7b3f
1.008191 1.0152843 0.9827926

static_variable_selection.flattened_grn.resample_norm.norm.bias f4 [3]
00000000: 9f74 983c 281a 2bbd 6d13 4f3c
0.018610297 -0.04177299 0.012638909

static_variable_selection.flattened_grn.fc1.weight f4 [3, 24]
00000000: 20d7 29be 1a62 2d3e 80b6 c8bd 2982 143f
00000010: 902b a73c 8723 903e 2845 243f e17f 99be
00000020: 3c4a 8ebe df62 1abf bc0f b3be f1ab 14be
00000030: 1d1a f43d e919 b3bd c3a6 a5bd 9968 bebe
00000040: 52e3 33bd c5ef a4bd caae f7be 257a c73d
00000050: 2753 9c3e 540f 37be 2ad6 56be d3cc 17bf
00000060: bb76 46bd 8b77 343e 16e5 cebe 7279 4bbe
00000070: d172 92bd 2eaf 283d aae3 b63e e1f8 1cbe
00000080: 9437 2d3e 4b2f acbd 0a5e 6bbe 9c8c 1d3e
00000090: 956b af3e 950b 443f ba26 2c3e de5b a7bc
000000a0: 9219 e93e 7daa 103e 7d79 0b3f 49cf 233f
000000b0: d385 d23d 5908 8a3e 403b c9bd 9fd8 e6bd
000000c0: 660b 9cbe fb97 bbbd 1eaf 983e 9999 19bf
000000d0: bc8f 5d3d f729 d0bd d0f6 08be cc49 3c3d
000000e0: debe 26be 2e7f cb3e 8910 a7be 915d cfbe
000000f0: 7fd5 f03c 71b5 ba3e 5cbf a9bd 4594 4d3e
00000100: 2b57 a5be 7a06 e33d b31d 8c3e 3460 b43e
00000110: 480c e73d 38b9 1cbd 0934 3f3e 9b47 2cbe
-0.1658597 0.16931954 -0.09800434 0.5801111 0.020406514 0.28152105 0.64168024 -0.29980376
-0.2779101 -0.60307115 -0.34972942 -0.14518715 0.11919043 -0.08745176 -0.08088448 -0.37189177
-0.04391796 -0.08053545 -0.4837554 0.09740094 0.3053219 -0.17876941 -0.20980135 -0.5929691
-0.048453074 0.17623727 -0.40409154 -0.19870546 -0.07150806 0.04118269 0.3572057 -0.15329315
0.16915733 -0.08407458 -0.22985092 0.1538567 0.34261766 0.7658017 0.16811648 -0.020429548
0.4552732 0.14127536 0.5448225 0.6398817 0.10279431 0.26959494 -0.09825754 -0.11271786
-0.30477446 -0.09159847 0.29821104 -0.59999996 0.054092154 -0.10164254 -0.13375401 0.045968816
-0.16283748 0.39745468 -0.32629803 -0.40501073 0.029398678 0.36466554 -0.08288452 0.20076092
-0.32293066 0.1108522 0.2736641 0.35229647 0.11281639 -0.038262576 0.18672194 -0.1682419

static_variable_selection.flattened_grn.fc1.bias f4 [3]
00000000: 2899 193c ac63 313c e37e 12bb
0.009374894 0.010826986 -0.0022353462

static_variable_selection.flattened_grn.fc2.weight f4 [3, 3]
00000000: 972b 48bc b4a4 f7be ea2f 06bf 9daa 65bf
00000010: 427b cabe 235c b5bc a7d0 b43f 5393 9e3e
00000020: ef7a f0be
-0.012217424 -0.48367846 -0.5241686 -0.8971346 -0.39547163 -0.02213866 1.4126176 0.30971774
-0.4696879

static_variable_selection.flattened_grn.fc2.bias f4 [3]
00000000: 0157 c0bb 01cf 34bb a446 2c3c
-0.0058697467 -0.0027589204 0.010514889

static_variable_selection.flattened_grn.gate_norm.glu.fc.weight f4 [6, 3]
00000000: f24b 1cbf c807 07bf f44b c73d 781e 8c3e
00000010: fecc 0bbf 17ea 3abf 1c57 4d3f 88c3 1abf
00000020: 8aa7 3e3f 455d 1e3f f975 58be 66a0 de3e
00000030: fc38 9fbe 2c0f 42bf 9758 aebe 51c7 3abe
00000040: 06ad 99be a22f 103d
-0.61053383 -0.5274625 0.09731284 0.27366996 -0.5460967 -0.7301344 0.80211043 -0.60454607
0.74474394 0.6186107 -0.21138753 0.4348175 -0.31098163 -0.758044 -0.34051964 -0.18240096
-0.3001482 0.035201676

static_variable_selection.flattened_grn.gate_norm.glu.fc.bias f4 [6]
00000000: 9cac 8c3c e5f2 25bd 77fe 3c3c 2e36 bb3c
00000010: 41df b73c 5147 013c
0.01717215 -0.040514845 0.0115352785 0.022852983 0.022445323 0.007890538

static_variable_selection.flattened_grn.gate_norm.add_norm.norm.weight f4 [3]
00000000: d17d 803f e966 7e3f ded7 793f
1.0038396 0.9937578 0.9759501

static_variable_selection.flattened_grn.gate_norm.add_norm.norm.bias f4 [3]
00000000: d0f3 c33c 9e27 abbc 60c9 79bc
0.02391997 -0.020892914 -0.015245765

static_variable_selection.single_variable_grns.encoder_length.resample_norm.mask f4 [16]
00000000: 8870 073d c129 9c37 ccb9 cdbc 23e7 e63c
00000010: ea69 863c c01c 0a3d 0e46 043c cf57 cbba
00000020: 82ac e33b 8c15 9b3c e55f b93c a225 a83b
00000030: 6b48 06bd 386e 0cbd 9167 f0ba 0696 e63a
0.033066303 1.8616092e-05 -0.025113009 0.028186386 0.016407926 0.033718824 0.008073343 -0.001551384
0.006948055 0.018931173 0.022628734 0.0051314393 -0.032783907 -0.0342848 -0.0018341412 0.0017592318

static_variable_selection.single_variable_grns.encoder_length.resample_norm.norm.weight f4 [16]
00000000: ec4e 843f a22a 7f3f 1a33 793f 1c74 833f
00000010: d1fe 813f d461 843f eee8 803f 7398 7f3f
00000020: e430 7e3f 7251 823f a9fc 823f 1bb0 803f
00000030: 688f 773f 7cd0 763f 7fa0 7c3f a344 803f
1.0336585 0.9967443 0.973436 1.0269809 1.0155889 1.0342355 1.0071084 0.99841994
0.9929335 1.0181105 1.0233356 1.0053743 0.96703196 0.9641187 0.986824 1.0020946

static_variable_selection.single_variable_grns.encoder_length.resample_norm.norm.bias f4 [16]
00000000: bab6 043d a2cb 7d3b 44eb d93c 738b dfbc
00000010: e49c 7fbc 1dc8 083d b9f1 e53b bc6d bcba
00000020: 5188 ea3b 2b04 95bc 1dea c1bc 876f a03b
00000030: c40f 08bd 62ce 13bd edcd bcba 7494 08bb
0.032400824 0.003872611 0.026601441 -0.027288174 -0.0156013705 0.033393968 0.007017341 -0.0014375965
0.0071573635 -0.018190464 -0.023671204 0.0048961076 -0.03321816 -0.036085494 -0.0014404632 -0.0020840438

static_variable_selection.single_variable_grns.encoder_length.fc1.weight f4 [8, 8]
00000000: 93b2 2dbf 45d2 013e bef8 c3be e17e 08bf
00000010: c4dc 1abe 0c0b 273e 3c6a 4b3e a7d6 cd3e
00000020: b5dc 353e 7074 c73e e3f5 563e c9ba 273e
00000030: c9fe 0dbf 9a98 3abe 6766 22bf f5a2 773f
00000040: 387c 893f f6b3 423f 1f93 643e 8370 1cbf
00000050: 98ac 353d 3607 bdbe 3aa6 793f d528 9cbe
00000060: 2ef8 5ebd 1ec8 e2be 6747 133f 8615 853e
00000070: e045 fbbe fb08 8d3f 863e 6d3f 1661 183f
00000080: ae98 a2be e933 1cbe 559b 82bc 1722 d0be
00000090: 745d 26bf 8dab 21be c4ec 313f d0fe f5be
000000a0: d12b f3be 34cd 663f dd9c 6c3e 236d 6cbe
000000b0: c400 98be bb72 7dbe 6b77 bc39 ee96 713e
000000c0: ff4a 943e ee50 d1bd 4923 ba3e 446e 793d
000000d0: aed0 923e 10d6 03bf 5864 4a3f 8f42 cc3e
000000e0: f885 f5bd f068 dcbe 5c2b 273e d3f7 c53e
000000f0: 78b1 1d3f a976 9dbf a194 eebe 10b0 0c3f
-0.6785061 0.12677868 -0.38275713 -0.533186 -0.15123278 0.16312808 0.19864744 0.4020283
0.17759974 0.38956022 0.20992236 0.16379847 -0.55466896 -0.18222275 -0.63437504 0.9673303
1.0741034 0.7605585 0.22321747 -0.6110918 0.04435405 -0.36919564 0.97519267 -0.30499902
-0.0544359 -0.44293302 0.57530826 0.25992984 -0.49076748 1.1018366 0.9267353 0.5952314
-0.3175711 -0.15254177 -0.015943209 -0.40651008 -0.6498635 -0.15788098 0.695019 -0.4804597
-0.47494367 0.90156865 0.23106714 -0.23088507 -0.29688084 -0.24750797 0.00035947128 0.23592731
0.28963467 -0.10220514 0.36355045 0.060896173 0.28674835 -0.5149851 0.7905936 0.3989453
-0.11988443 -0.4304881 0.16325134 0.38665637 0.6159892 -1.2301837 -0.4659777 0.5495615

static_variable_selection.single_variable_grns.encoder_length.fc1.bias f4 [8]
00000000: 98a5 72bc 6f8b 70bb f895 3d3c a764 d43a
00000010: dd0c 11b9 bdd9 b9ba 4e80 2fbc 995d c8bc
-0.014809988 -0.0036704203 0.0115714 0.0016204313 -0.0001383307 -0.0014179271 -0.010711743 -0.024458693

static_variable_selection.single_variable_grns.encoder_length.fc2.weight f4 [8, 8]
00000000: 8bbf c5bd ec83 c4bd 2e00 6c3e 1840 3f3e
00000010: 438f 14bf 4b12 f5be 3e53 50bf 5963 9abe
00000020: fb5d 003f bda4 26bf 9602 0e3d f25a c93e
00000030: bc59 f23e c333 39bd 13b2 fe3d c6fa 8dbe
00000040: 3e36 1bbf 1fff 80bf 888d ebbd b01d 3bbe
00000050: ee63 943f 638b 9f3e ed6e 94be c141 ec3e
00000060: c1b1 c0be b678 3e3e e33a bc3e 1832 8e3e
00000070: 22c7 dabd 55af 4bbc 33b1 92be 1d7b 5cbf
00000080: b3cc 5f3e 1e07 943f 85d3 3a3e ac76 22be
00000090: 8a68 17bd dcc7 263f 857e d43e 99df 5c3e
000000a0: 0326 03be c9fb 8b3e e225 1ebe 0ab6 0f3e
000000b0: 83ef 3abf e1b3 593f edfb d7be 60df 193f
000000c0: afaf 13be 1d40 b4be 7d04 8bbe 970e bc3d
000000d0: 6471 203e c846 8ebe c7ed 9b3e 2691 d43d
000000e0: d3d0 30be 6eaa 2cbe 102b 2abf fc22 20be
000000f0: e0f3 823e 2dab 283f 0106 863e 8cb9 46be
-0.096556745 -0.095954746 0.23046944 0.18676794 -0.580311 -0.4786552 -0.8137702 -0.3015392
0.501434 -0.6509512 0.034670435 0.39327198 0.47334087 -0.04521538 0.12436309 -0.27730387
-0.6062964 -1.0077857 -0.11501604 -0.18273044 1.1592996 0.3116103 -0.2899088 0.46143916
-0.37635615 0.18600735 0.36763677 0.27772593 -0.10682513 -0.012431939 -0.28650817 -0.86125356
0.2185543 1.1564672 0.18244751 -0.15865582 -0.03696493 0.6514871 0.41502777 0.2156967
-0.12807469 0.27340534 -0.15444139 0.14034286 -0.73021716 0.850401 -0.42184392 0.6010647
-0.14422487 -0.35205165 -0.27151862 0.0918247 0.15668255 -0.27788377 0.30454847 0.10379247
-0.1726716 -0.16861889 -0.6647196 -0.15638345 0.25576687 0.65886194 0.26176456 -0.19406718

static_variable_selection.single_variable_grns.encoder_length.fc2.bias f4 [8]
00000000: ae3a 54bb 81e6 3039 796e 973a 0dbc cb3c
00000010: f3e2 52bc 03dd 8bbc 603f a6bc 982d c93c
-0.0032383609 0.00016870537 0.0011553309 0.024869943 -0.012871492 -0.01707316 -0.020293891 0.024557874

static_variable_selection.single_variable_grns.encoder_length.gate_norm.glu.fc.weight f4 [32, 8]
00000000: 23d8 7bbe 2ef3 16bd bb27 87bc 8ee8 b43e
00000010: 802b 23be 6bb9 d4be b8fd b1be 5aff a63d
00000020: 4ec7 a2be d7df c03e 4f99 5bbe 2a92 a83e
00000030: 6a1d c7be cb7f 81bd 64e8 153e 67b6 36be
00000040: d60b b4bc 93c7 a63e 1472 8b3e 96ee f0bc
00000050: d66b 253d 9f4b 29be 3f4a f8bd 2c38 663e
00000060: 67d7 4dbe 6bb3 6b3d ac03 bb3d 98eb 1f3e
00000070: 5762 113e 4d51 813e c606 9abe a2cd 87be
00000080: 38de a0be c949 68bd 7511 9abe 7028 253d
00000090: 016e 15be f3ea c53e df80 8e3d 28af 343e
000000a0: 6532 c83e 3101 2a3e d70a 33be e499 0e3e
000000b0: 16b0 59be 0756 963e d1ac ec3d caba 2dbd
000000c0: 1494 2bbe b2ed 3b3e 0243 02bd 69d6 7a3d
000000d0: d069 363d 8c20 833e a044 b33e 6a84 8b3e
000000e0: 5592 be3d 2e11 bf3e e393 5e3e e2b5 8a3e
000000f0: e308 04be b36f 643d ab2b 9bbe 8164 5cbe
00000100: ceba b6be 263f b3be 29de 69bd 9ad4 81be
00000110: 6c43 81be ab73 a43e e112 093e 72ff 35be
00000120: c222 3bbe e409 643e 71d7 95be 0e86 e83d
00000130: 700c 86be 7c3c 3f3e 3343 6c3e 1f6f a33e
00000140: 5c0a 9abe e595 083d 2e59 19be 24c1 84be
00000150: 3a1e 68be 4822 7b3d 4958 8b3e df76 0b3e
00000160: 4392 adbe 8dd7 83be 4927 14be 1ee7 95be
00000170: 54b2 573e 55d0 9f3c 2604 11bd 9ea6 143e
00000180: c3d4 303e 93fe 323d 0bba ebbc a700 e9bd
00000190: 3329 503e d17e be3c f2a0 973e f980 0f3e
000001a0: 72fd 813e c795 a43e a0ac 8dbe 4a81 053e
000001b0: 4dba 32be 2eac aebd fa9e 62bd d352 a43d
000001c0: 5b9a 19be dd8f 303e 4313 d4bc d9c7 923e
000001d0: 30ea 573d d4af 03be c9c4 97be 73a1 5c3e
000001e0: 61ec c6bd eb76 ce3c 6441 703e 2c71 4cbe
000001f0: 9fad ab3e 5e44 91be df6a 92be ead3 713e
00000200: b819 8dbd 4078 963e 3f57 013e 6f81 9cbd
00000210: bc73 05be c29d a8be a56e 36be 49fc 893e
00000220: e8bf 16be 4f97 28be 6924 7fbe 64fd b8bd
00000230: 9a3b c0be cbfc dd3d 9cd3 8f3e e1c5 d3bd
00000240: dda3 9dbe 7f4b bf3e 5401 9e3e 5cec 293e
00000250: a5a8 cd3d fe7b 0abe 50a2 76bd 9be0 9a3e
00000260: 2662 a93e d6be d6bc 8787 74be 0273 76be
00000270: 163e 92be 2257 34bd a9d6 2b3e 915c 813e
00000280: ffd4 3abd 2172 5abe 0cdc 4ebe ac34 98bd
00000290: 24a4 923d f83b e93d 7a25 b93c d49e ae3e
000002a0: e1cb 7bbe 488c c13e 1e27 c2bc 2cc3 af3e
000002b0: e7ca 773e 1891 113e 3393 413e 76c4 a73e
000002c0: 4626 4d3d 5a47 b83e b1b1 b53e 3fa0 1f3e
000002d0: 0653 afbe ab9d 27be 510c 883d a7b5 473e
000002e0: d1c3 ae3e c9e6 a7be 445c 3abe 2500 ae3e
000002f0: a0e7 95bd 825a 483e fe1f 5d3e d182 e03d
00000300: d2af cc3c de59 af3e ee5d 64be e4bb 6abe
00000310: ae37 c93d f205 b0be 4707 93be 3092 bb3d
00000320: 5c07 a2be 35a8 75be 74e2 10be abdc eebd
00000330: d6b6 5f3e d7d2 fcbc 1c58 5fbb 7bec 21b8
00000340: 7837 2f3e 7df9 d3bd 926d b7be d3d0 66be
00000350: 4e16 c0bd 6b8c 143e 4431 1d3d b404 4f3d
00000360: 5dd2 8d3e 52a0 40bd 1b41 a33e cff2 7dbe
00000370: e827 c8bd fdf9 8abd 6962 03bc 1525 5b3e
00000380: 9098 2c3d 3adc a3be 8bb3 cb3c 55d3 8cbe
00000390: 2382 733e cdb9 4e3e 1383 4a3e 5c9c b03e
000003a0: 2ec3 81be d735 663e e4ec 27be 1d1d 47bc
000003b0: 0617 563d 9af6 6d3d 2fd5 a3be 58f9 9f3e
000003c0: 6cc8 c2be 43b3 bb3d a7e0 7d3e 3dd9 eb3d
000003d0: e1b4 b2be b750 1d3e 0e0b c9be a77c aa3e
000003e0: f91c 9e3e a468 b3be 4a94 a0bd 7a04 b93e
000003f0: cd78 8b3e 42d1 10be f005 8d3e 86f3 543d
-0.24594168 -0.036853008 -0.016498437 0.35333675 -0.15934563 -0.41547713 -0.34763885 0.08154173
-0.31792682 0.37670776 -0.21445201 0.32924014 -0.3888963 -0.06323203 0.14639431 -0.17843018
-0.0219783 0.32574138 0.27235472 -0.029410642 0.040386043 -0.16532753 -0.12123536 0.22482365
-0.201017 0.057544153 0.0913156 0.15617216 0.1419767 0.2525734 -0.30083293 -0.26524073
-0.3141954 -0.056710992 -0.30091444 0.040321767 -0.14592744 0.38655815 0.06958174 0.17644942
0.39100948 0.16602017 -0.17484604 0.13925892 -0.21258578 0.2936251 0.115563996 -0.042414464
-0.16755706 0.18352392 -0.031802185 0.061239634 0.044534504 0.2561077 0.35013294 0.2724946
0.09305254 0.37317795 0.21736102 0.2709189 -0.12894015 0.055770587 -0.30306754 -0.21522714
-0.35689396 -0.35009116 -0.057096634 -0.25357515 -0.2524675 0.32119498 0.13386108 -0.17773226
-0.18274978 0.22269398 -0.2926593 0.11353694 -0.26181364 0.18675417 0.2307251 0.31920716
-0.3008603 0.033346076 -0.14975426 -0.25928605 -0.2266778 0.06131199 0.27215794 0.13619564
-0.3390065 -0.2575039 -0.14468111 -0.2927789 0.2106412 0.01950852 -0.035404347 0.14516684
0.17268662 0.043699812 -0.028775236 -0.113770775 0.20328216 0.02325383 0.2961498 0.14014043
0.25388676 0.3214552 -0.27670765 0.13037601 -0.1745388 -0.085289344 -0.055327393 0.0802361
-0.15000288 0.1724238 -0.025888091 0.28668097 0.052713573 -0.12860042 -0.29642323 0.21545963
-0.097130544 0.025203189 0.23462445 -0.19965047 0.335309 -0.28372473 -0.2859716 0.23615995
-0.06889671 0.29388618 0.12630938 -0.07641875 -0.1303243 -0.3293286 -0.17815645 0.2695029
-0.14721644 -0.1646397 -0.24916233 -0.090327054 -0.37545472 0.10839232 0.28091133 -0.10340477
-0.3078908 0.37362286 0.30860388 0.1659407 0.10041932 -0.13523862 -0.060213387 0.30249485
0.33082694 -0.026214045 -0.23879825 -0.2406731 -0.28562993 -0.04402841 0.16781105 0.25265935
-0.045613285 -0.21332599 -0.20201129 -0.07431921 0.071602136 0.11388391 0.022600878 0.3410555
-0.24589492 0.3780234 -0.023700293 0.34328592 0.24198495 0.14215505 0.18903808 0.32767075
0.05008533 0.35991937 0.3548713 0.15588473 -0.3424303 -0.1636874 0.06642974 0.19502889
0.3413377 -0.32793263 -0.18199259 0.33984485 -0.073195696 0.19565776 0.21594235 0.10962451
0.024986181 0.3424825 -0.22301456 -0.22923237 0.09825073 -0.34379536 -0.2871649 0.091587424
-0.3164624 -0.23989947 -0.14148885 -0.11663183 0.2184709 -0.030862255 -0.0034079617 -3.860563e-05
0.17111003 -0.103503205 -0.35825783 -0.22540598 -0.09379254 0.1450669 0.03837706 0.050541595
0.27699557 -0.047027893 0.3188561 -0.24799655 -0.097732365 -0.06785963 -0.008019068 0.21400864
0.042137682 -0.32003957 0.024865886 -0.27504984 0.23780112 0.20188065 0.19776563 0.34494293
-0.25344223 0.22481476 -0.1639896 -0.012152937 0.05226805 0.058096506 -0.31998584 0.31244922
-0.38043535 0.09165051 0.2479273 0.11516044 -0.34903625 0.15362822 -0.39266247 0.33298227
0.3088148 -0.35040772 -0.07840784 0.36136228 0.272406 -0.14142326 0.27543592 0.051990055

static_variable_selection.single_variable_grns.encoder_length.gate_norm.glu.fc.bias f4 [32]
00000000: 9545 043d 5af6 7e3b be78 e13c b71f debc
00000010: 2d24 6ebc b188 093d 2da5 d83b 1cd6 0cbb
00000020: 2222 e03b f869 90bc 5a7a c6bc 0ca0 ae3b
00000030: 8d93 08bd f82d 12bd 8400 b839 6cb9 84bb
00000040: d55e 013d abfb 983b 435f e03c 41f6 de3c
00000050: 0002 7a3c 3d36 1d3c 7206 87bc eb76 cabb
00000060: 69fe 09bc 17d1 a6bc 84d5 cfbc 9aac cdbb
00000070: 44f6 0f3c c32b 12bd d622 04bc f8b2 b0bb
0.03229292 0.0038904161 0.027523395 -0.027114732 -0.014534992 0.033577625 0.0066114874 -0.0021489924
0.0068400064 -0.017628655 -0.024228264 0.0053291377 -0.03334384 -0.03568837 0.000350956 -0.0040504243
0.03158458 0.004668673 0.027389174 0.027217032 0.015259266 0.009595451 -0.016482566 -0.006178727
-0.0084224725 -0.020363374 -0.025370367 -0.006276679 0.008786742 -0.035686266 -0.008064946 -0.0053924285

static_variable_selection.single_variable_grns.encoder_length.gate_norm.add_norm.norm.weight f4 [16]
00000000: c816 843f f79a 803f 207a 793f 18d6 833f
00000010: 88fd 813f a15d 843f 17ed 813f dad3 803f
00000020: 24b4 7d3f a41c 823f 59d5 823f f7f9 7d3f
00000030: 611c 783f d420 793f 3557 7f3f 0282 803f
1.0319452 1.0047292 0.9745197 1.0299711 1.0155497 1.0341073 1.0150479 1.0064652
0.99103 1.016499 1.0221359 0.9920954 0.969183 0.97315717 0.9974244 1.0039675

static_variable_selection.single_variable_grns.encoder_length.gate_norm.add_norm.norm.bias f4 [16]
00000000: 672e 033d 7dbb 113c e8cf ee3c 075b f1bc
00000010: 0e6c 7fbc 1402 063d 8154 8a3c a2c1 f63b
00000020: f491 023c 5a89 8cbc 32ff babc 090f b83b
00000030: 1e35 febc 10f3 debc 37a6 e63b b9eb 98bb
0.032026675 0.008894798 0.029151872 -0.02946235 -0.015589727 0.032716826 0.016885998 0.007530407
0.007969368 -0.017155338 -0.022826765 0.0056170267 -0.031031188 -0.02721551 0.0070388573 -0.004666772

static_variable_selection.single_variable_grns.cantidad_center.resample_norm.mask f4 [16]
00000000: c945 e0bc 55f1 023c 7068 4abc 5aff 113d
00000010: bf75 ea3c 83fa f4bc 8790 9dbc 9114 7d3b
00000020: a308 2e3b f91d 1fbc 95f5 1a3d d7ff 01bc
00000030: 4db6 963c fd33 eb3c 7741 88bb 2053 8c3b
-0.027377026 0.007992108 -0.012354001 0.035643913 0.028620599 -0.02990461 -0.019233955 0.0038616995
0.002655544 -0.009711736 0.03783186 -0.007934532 0.018397475 0.028711313 -0.0041581946 0.00428237

static_variable_selection.single_variable_grns.cantidad_center.resample_norm.norm.weight f4 [16]
00000000: 4b9c 783f 9c21 813f 42a6 7c3f 56b9 843f
00000010: 40db 833f 0623 793f bab2 7e3f 971c 833f
00000020: 530c 813f e3d0 783f 5c13 833f 537f 813f
00000030: ab1f 7c3f cb14 813f b41d 803f c152 7e3f
0.97113484 1.0088382 0.9869119 1.036906 1.0301285 0.97319067 0.99491465 1.02431
1.0081886 0.97193736 1.0240283 1.0116981 0.9848582 1.008447 1.0009065 0.9934502

static_variable_selection.single_variable_grns.cantidad_center.resample_norm.norm.bias f4 [16]
00000000: 6dc6 e03c 2e0b 163b 3156 4b3c 96bd 09bd
00000010: 6b77 e5bc 1c08 fc3c 50bc 913c a991 813c
00000020: 4fdb 543c 3284 e4bc d8c1 1ebc 1c63 073c
00000030: 1bb7 06bd 9b44 35bc 8261 003c 3ef4 0dbc
0.027438367 0.0022894847 0.012410686 -0.03362807 -0.028011044 0.030765586 0.01778999 0.015816526
0.01299174 -0.027895067 -0.009689771 0.008263376 -0.032889467 -0.01106372 0.007835748 -0.008664189

static_variable_selection.single_variable_grns.cantidad_center.fc1.weight f4 [8, 8]
00000000: a5c9 74bf a40e 023e b052 73bc 52d8 c6be
00000010: 6e6b 33be 1c0f 353e 77ea 0bbf 9721 dcbe
00000020: 06fb 523f 705d 4c3d 7707 d0bd a42e fc3d
00000030: 4e54 5b3e 1c56 7e3f bd34 7f3e 206c 2f3f
00000040: 81e1 26bf a0c6 24bf 851d 0e3e 1288 453f
00000050: df62 c3be 4622 d03e fe56 e53e 17b5 5a3f
00000060: f377 52bd 301d f9bd 7150 693b 3300 743f
00000070: 572e 44be 6397 69be 33d0 223f 9a8b 813e
00000080: 8f03 853c 6518 f2bc b81e 7dbe 65a1 c6bd
00000090: e8eb 73be 83ff f5be f01b 4abe 7953 90be
000000a0: 2fbe cabd 6c5a ff3e 3ebf dc3e 60cf 3e3f
000000b0: 033b 003e f64a 9c3e aeb8 a23f 91ed 653d
000000c0: 82d6 883e 47ef 0ebf 51e6 c5be 7bd9 d83e
000000d0: fc76 d0be 884b 9fbe b4f8 db3d 0490 d93d
000000e0: 6459 b53d f2e9 c0bd b896 c5bd e087 d83e
000000f0: d2dc 82bf 0eb2 5abf 657a 84bf 3954 643e
-0.95620185 0.12700897 -0.014851257 -0.38836914 -0.1752145 0.17681545 -0.5465464 -0.42994377
0.8241428 0.049893796 -0.10157674 0.123135835 0.21418878 0.9935014 0.24922462 0.6852436
-0.6518784 -0.6436558 0.13878448 0.7716075 -0.3816137 0.4065115 0.44792932 0.8543257
-0.051383924 -0.1216377 0.0035600925 0.95312804 -0.19158302 -0.22811656 0.63598937 0.2530182
0.016237048 -0.029552648 -0.2471875 -0.09698752 -0.2382046 -0.48046502 -0.1973722 -0.28188685
-0.09899556 0.49873674 0.43114656 0.7453518 0.12522511 0.3052594 1.271261 0.056134764
0.26726156 -0.5583386 -0.3865228 0.42353424 -0.40715778 -0.31112313 0.10740796 0.10623172
0.088549405 -0.094196215 -0.09647888 0.42291164 -1.0223639 -0.8542794 -1.0349852 0.22297753

static_variable_selection.single_variable_grns.cantidad_center.fc1.bias f4 [8]
00000000: 887f 2f3b 9bad 2b3d 194f bd3c ba3a 1d3c
00000010: b582 343a e4a3 25bc 6b5b 013d 914a acbc
0.0026778895 0.04191361 0.023109006 0.009596521 0.0006885932 -0.010109875 0.031581324 -0.02103165

static_variable_selection.single_variable_grns.cantidad_center.fc2.weight f4 [8, 8]
00000000: d282 ba3d 4c38 723f f235 813e 0984 2fbf
00000010: 3847 87be 740c 193f f762 c7be 6c91 efbd
00000020: 26bb df3e e3d8 90bd 22a8 0d3e 9931 c63d
00000030: 43b5 06bf a8b5 ca3e 20cf 40bf b9ae 34bf
00000040: da4f d03d cb1b fbbd d6ac 3cbf 32c3 393e
00000050: ca3b 39be c7ce 0f3e a0cd 6abd e68a d13e
00000060: d91f 263e f8ab 053e 7e58 47be 2667 ae3e
00000070: 4e33 02bf 5526 bdbc 228d 033f c966 94be
00000080: 5b37 6abf 0c14 4bbe 47e4 133f 3df5 66be
00000090: 595f 3e3f 11c4 9dbe 1c3b 283f 24b1 8bbe
000000a0: a2be 8a3f 2fbe ac3d 3130 8e3e d0dd df3e
000000b0: 1aaa 0abf e0c2 423e f0c1 f23e 9887 86bd
000000c0: e81b 25be 1253 343f 969c 743f 3a71 523f
000000d0: 5ce1 973e 27cc 36bf e078 8a3e fffa 65bf
000000e0: e159 8b3e bb14 8cbe c937 c4bd ebdb 203d
000000f0: e8f9 423f ef0b 723e 5471 7bbe dc6b 5fbd
0.09106983 0.9461715 0.2523647 -0.68560845 -0.26421523 0.59784627 -0.38942692 -0.11697659
0.4369747 -0.07072618 0.13833669 0.09677429 -0.52620333 0.39591718 -0.7531605 -0.70579106
0.101714805 -0.122611605 -0.73701227 0.18140867 -0.18089214 0.14043723 -0.057325006 0.40926284
0.16223086 0.13053882 -0.19467351 0.3406307 -0.50859535 -0.023089567 0.51387227 -0.2898467
-0.91490716 -0.19831866 0.577702 -0.22554488 0.7436424 -0.3081365 0.65715194 -0.27283585
1.0839427 0.08434712 0.27771142 0.43723917 -0.54165804 0.19019651 0.47413588 -0.06568831
-0.16123927 0.70439255 0.9555143 0.8220402 0.29664123 -0.7140526 0.27045345 -0.89836115
0.2721701 -0.27359566 -0.09580953 0.03927223 0.76162577 0.23637365 -0.2455495 -0.054546222

static_variable_selection.single_variable_grns.cantidad_center.fc2.bias f4 [8]
00000000: 9387 de3c 2705 e9bc 8fd9 cebc 259a 1c3d
00000010: f0a6 a13b d326 203c a7e8 9d3c 12e6 bc3c
0.027164256 -0.02844484 -0.025250224 0.03823294 0.0049332306 0.009774881 0.019275976 0.023058925

static_variable_selection.single_variable_grns.cantidad_center.gate_norm.glu.fc.weight f4 [32, 8]
00000000: 7644 f83d 7e5b a33e 4b20 aebc e997 31be
00000010: 31cf 79bd 1b9a 443e 31ca d13e 23a5 d13e
00000020: 322e a6bd a6b8 29be a424 36bd 99fd b93e
00000030: 811b c6be df69 103e 55c3 3dbe 619d 3d3e
00000040: 2aff e9bd 6f4a 93be de83 7c3e eec1 813e
00000050: 7de5 68be f79e ff3d 1b5c 833d 3b07 0c3c
00000060: 42ff 0bbe 571a 943e a759 113e cc15 87be
00000070: 65bc afbd b165 263e c114 52be d7c7 1ebe
00000080: 5a04 07be ccca ef3d c0fc be3e 790b 5fbe
00000090: 5fdd 8d3e 327e 9fbe 75d8 fabc 753a acbe
000000a0: 083e 85be 1828 b0be 8457 bcbe ced7 923e
000000b0: 3a8d 6939 d386 16bd e0f9 a7be 1857 a33e
000000c0: 9b6d 82be 3bfb bbbe 16ed 32be b991 aa3e
000000d0: 5635 b33d de78 db3d 4f60 d53d 26d9 98be
000000e0: 4a34 1d3e 201c 393e d1db aa3e d179 da3d
000000f0: 11c5 9cbe dbe8 19be 1dd6 ae3e d56f 6bbe
00000100: 7f7f e9bd c7ae 35be a9e7 e83c b57e 913e
00000110: 52c4 573e 6437 c93e e901 5abe ef40 2ebe
00000120: 545b a3be e7ed f13d ba98 ed3d 9cc0 2ebe
00000130: 20ba d53d d6d8 8d3e 6048 183e e9b4 b0bd
00000140: bc4e 073d ced6 abbe 8e48 c93e f916 6a3d
00000150: 8b66 98be d437 42be d653 ca3d ce90 283e
00000160: c801 29be 5658 5c3d 9c56 6a3e b544 a23e
00000170: ea77 1e3e f7ba aabe f348 703e 5207 3d3d
00000180: 0274 5fbe f808 003e e7f8 523e c6cd 46be
00000190: 7a5a 8cbe 07e3 79bc a71f aebd ed45 883e
000001a0: 85ce be3e 51d8 abbe 7a5f 89be 0f15 b73e
000001b0: 9b9d 60be 3c72 1dbd ef61 9fbe 2ca0 89be
000001c0: 14fe b3be 1f2e 11bd 04c0 5ebe 37a6 9f3e
000001d0: 2df4 603e 6a0b 84be 912f ad3e 4ec6 3c3d
000001e0: 1e3c 4a3d 8d75 ff3c f784 723e af94 45be
000001f0: 23ab 043e 42d5 8dbe cd94 babd e2d1 f33d
00000200: 0d45 bcbe bc78 863e 2fa6 45bc c617 973d
00000210: ba32 52bd 31da 3c3e 97b0 54be 794f 243c
00000220: 939c a53e 4c25 8f3e f638 acbe 2123 3b3e
00000230: 325c 6f3e 47d0 383e fc62 48be a1df 00bd
00000240: f27f 93be a0dc 703e 3cef a5be 5bb6 b83e
00000250: 1bbc c93e ccb1 883e 3cd9 1cbd 1297 17bd
00000260: 4521 15be 00f1 863e fc80 bbbe 6c89 9e3e
00000270: 0d5d 343e a2ea 8c3e 77b1 f1bd b6db 83bd
00000280: 1501 c1bc 2cf8 d0bd a864 7bbe f30c 05be
00000290: a38d 103e debb 86be e413 92be 8c2e eabd
000002a0: aa5c 9f3e a0d1 ab3d a5e2 a13e f52d 52be
000002b0: 7fef 513e 77b9 86be 54de 9abe a64b b0be
000002c0: 7574 b1be 13bb 733e 749d 8f3e 691c 63bc
000002d0: 3b9e be3e 2ea7 f43d 5094 88be f022 4b3e
000002e0: e40e bb3d 8fda 17bd 11e5 10be b68a 933e
000002f0: 3b8c a63d 35dd a9be 78b6 f33d c820 23bd
00000300: 9d5e 94be 8752 8a3e 4665 953e 1c3c 253e
00000310: 7646 b2bd 9396 9cbd 1d84 8cbe a2d7 883e
00000320: 97fc 08be bfac 7c3e e699 313e d331 0ebe
00000330: 9f60 67be 7cf5 ba3e 827b ad3e 1b69 bd3e
00000340: ab0d 5ebe b1e6 563d 0cde 2dbe ed66 4abe
00000350: 0f36 b1bd 9fdc 9ebe dbb6 4f3d d265 0fbe
00000360: 895e 933e e80f 8cbe 103c 81be 767d 9b3d
00000370: 1d53 4c3d 2924 b6be 7bcc b9be 51cf 07be
00000380: 1474 44bd d227 803e a6c2 aa3e fa5e 0fbe
00000390: 4014 cbbb 1b8a 5ebe 143b c03d 76b0 843e
000003a0: a903 523d b369 a13d b6c2 9abe 5f8d 4b3d
000003b0: 4d3c 953c df5e 823e be48 c3bd b796 953e
000003c0: 30a8 1dbe 4147 863e 1f47 303e 9523 0fbc
000003d0: acbb 82bd e35a 02be 094d b2be 34d8 91be
000003e0: 66d4 5abe 0da4 28be 9be4 a83c d401 1b3e
000003f0: 8b2d fdbc 8b65 913e 5988 b1be 423e 15be
0.12122433 0.3190574 -0.021255633 -0.17343105 -0.06098861 0.19199412 0.40974572 0.40946302
-0.0811428 -0.16574344 -0.044468537 0.36326292 -0.3869286 0.14102887 -0.18531545 0.18517067
-0.11425622 -0.28767726 0.24659678 0.2534327 -0.22743793 0.12481492 0.06414052 0.008546646
-0.13671592 0.28926346 0.14194356 -0.26383817 -0.08580855 0.1624973 -0.2051573 -0.1550592
-0.13185254 0.11708602 0.37302208 -0.2178172 0.27707955 -0.31150967 -0.030620793 -0.3363835
-0.2602389 -0.3440559 -0.3678552 0.2868027 0.00022273223 -0.036749672 -0.32807827 0.31902385
-0.25474247 -0.3671511 -0.17473254 0.33314303 0.087504074 0.10716413 0.1041876 -0.2985317
0.15351978 0.18077135 0.33370832 0.10667766 -0.306191 -0.15030234 0.3414773 -0.2299188
-0.11401271 -0.17742454 0.028430777 0.28416982 0.21070984 0.39300072 -0.21289791 -0.17016958
-0.31905615 0.118129544 0.11601396 -0.17065662 0.10435891 0.27704495 0.14871359 -0.08628256
0.03303407 -0.3356232 0.39313167 0.057150815 -0.29765734 -0.18966609 0.09879272 0.16461489
-0.16504586 0.05379518 0.22884601 0.31693044 0.15475431 -0.33345768 0.23465328 0.04614956
-0.21821597 0.12503421 0.20602761 -0.19414434 -0.27412778 -0.015251881 -0.08502131 0.2661585
0.37266937 -0.33563474 -0.26830655 0.35758254 -0.21935122 -0.03843902 -0.31129405 -0.26880014
-0.35154784 -0.035444375 -0.21752936 0.311815 0.21968146 -0.25789958 0.33825353 0.046087556
0.04937374 0.031183982 0.23683535 -0.19295 0.12955908 -0.27701765 -0.09110413 0.11905266
-0.36771432 0.26263988 -0.012063547 0.07377581 -0.051317908 0.18442608 -0.20770489 0.010028713
0.3234602 0.27958143 -0.33637208 0.1827512 0.23375013 0.18048202 -0.1956901 -0.03146327
-0.28808552 0.23521662 -0.32409084 0.36076626 0.39401326 0.26698148 -0.03829311 -0.037009306
-0.14563473 0.26355743 -0.36621845 0.3096422 0.17613621 0.2752276 -0.11801427 -0.06438391
-0.023560086 -0.10203585 -0.24550116 -0.12993221 0.1411653 -0.26315206 -0.285308 -0.11434659
0.31125385 0.08389592 0.3161823 -0.20525344 0.20501517 -0.26313373 -0.30247748 -0.34432715
-0.34659162 0.23801832 0.28049815 -0.013861754 0.37230095 0.119459495 -0.26675653 0.19837546
0.091336995 -0.037073668 -0.14149882 0.28816766 0.081322156 -0.3317658 0.119000375 -0.039826185
-0.28978434 0.27016088 0.29178828 0.16136211 -0.087048456 -0.07645907 -0.27444544 0.26727015
-0.13377605 0.24675272 0.17343864 -0.13886194 -0.22595452 0.36515415 0.3388329 0.36994252
-0.21684901 0.0524661 -0.16979235 -0.19765826 -0.08652889 -0.31027696 0.050711494 -0.14003685
0.28783062 -0.27355886 -0.25241137 0.07592289 0.04988395 -0.35574463 -0.3628882 -0.13262679
-0.047962263 0.2503038 0.3335163 -0.14001074 -0.0061974823 -0.2173237 0.09386268 0.2591588
0.05127302 0.07881489 -0.30226678 0.04969537 0.01821723 0.25463006 -0.09535359 0.2921655
-0.1539619 0.26226237 0.1721463 -0.008736511 -0.06383452 -0.12729983 -0.34824398 -0.28485262
-0.21370086 -0.1646883 0.02061682 0.15137416 -0.030905506 0.28397784 -0.34674338 -0.1457453

static_variable_selection.single_variable_grns.cantidad_center.gate_norm.glu.fc.bias f4 [32]
00000000: febc e03c 0824 9d3a c183 803c c3af fbbc
00000010: a4b6 efbc a70d dd3c c6ac 863c 2814 973c
00000020: edd1 323c 3dcb bdbc d726 9ebb c303 463c
00000030: cc84 07bd 7004 c0bb ac5c 553c 816a ebbb
00000040: 300f e43c f14e 2e3c 13f1 c23b 94d5 e2bb
00000050: 9068 b63c b2b2 f53c 69ab c63b 6073 e3bb
00000060: 2178 433c bb00 c1bc ab8a 0f3d 642c 09bc
00000070: c674 03bd 3879 8cba 07a9 c53b c105 ef3c
0.027433868 0.0011988888 0.015687825 -0.030723458 -0.029261895 0.026984049 0.016439807 0.018442228
0.010914308 -0.0231682 -0.0048264074 0.012085858 -0.03308563 -0.005859904 0.013022583 -0.007184327
0.027839273 0.010638938 0.0059491484 -0.006922433 0.022266656 0.029992435 0.006062914 -0.006941244
0.011930496 -0.023559919 0.035044353 -0.0083724 -0.032093786 -0.0010717278 0.0060321125 0.029177548

static_variable_selection.single_variable_grns.cantidad_center.gate_norm.add_norm.norm.weight f4 [16]
00000000: 1e81 783f 5111 803f 6754 7a3f 372b 843f
00000010: 1506 833f a5d7 783f 9171 803f 1b48 823f
00000020: a9c9 7f3f 160a 783f 39a7 833f 2d7f 803f
00000030: 12c1 7a3f 46be 7a3f 4409 803f fa70 803f
0.9707202 1.0005285 0.9778504 1.0325688 1.0236231 0.9720405 1.0034658 1.0178255
0.99917084 0.9689039 1.0285407 1.0038811 0.9795085 0.97946584 1.0002828 1.0034478

static_variable_selection.single_variable_grns.cantidad_center.gate_norm.add_norm.norm.bias f4 [16]
00000000: 8c20 e53c 3fc3 493c 2dbb 523c e4f6 e9bc
00000010: 8d2a b4bc 4371 ff3c f5f3 9e3c 7b5c 813c
00000020: 620e 5d3b a570 f4bc 2eac fbbb 6e8c e73b
00000030: b7ce 04bd 9cc7 cfbc c02d 593b 931d 28bb
0.027969621 0.012314617 0.012862009 -0.02856011 -0.021992946 0.031181937 0.019403437 0.015791168
0.0033730497 -0.02983887 -0.0076804375 0.007066301 -0.0324237 -0.025363736 0.0033138841 -0.0025652393

static_variable_selection.single_variable_grns.cantidad_scale.resample_norm.mask f4 [16]
00000000: 76ff d13c 4a0d ad3c a4ff 60bc f4d5 6abc
00000010: 11d7 09bd 3b45 ed3c 4d1b 4dbc d54f 81bc
00000020: b552 b33c 83b8 04bd 7c67 dabc bd1f ef3b
00000030: 8773 e13c 7557 893c 5819 4ebc c9fb a83c
0.025634509 0.0211245 -0.0137328245 -0.014333237 -0.03365237 0.028963676 -0.012518716 -0.015785137
0.021890024 -0.032402527 -0.026660673 0.0072974847 0.027520908 0.016765336 -0.012579285 0.020627873

static_variable_selection.single_variable_grns.cantidad_scale.resample_norm.norm.weight f4 [16]
00000000: 1c6f 833f c039 823f 388e 793f b829 7c3f
00000010: 4a8c 773f d0c2 833f 63a9 7c3f 8a8d 7c3f
00000020: 4600 813f 7fed 753f ba98 793f a280 803f
00000030: b536 843f ca3e 823f 53ed 7e3f 15cb 823f
1.0268283 1.0173874 0.97482634 0.9850116 0.9669844 1.0293827 0.98695964 0.9865347
1.0078208 0.96065515 0.9749867 1.0039256 1.0329195 1.0175412 0.9958088 1.0218226

static_variable_selection.single_variable_grns.cantidad_scale.resample_norm.norm.bias f4 [16]
00000000: a58b ca3c 9811 823c a2d9 8b3c d6d4 e2bc
00000010: 0be7 ffbc 369f e63c 9a3e 06bb e9fd 793c
00000020: 51b5 833b 8d4f 0bbb 9298 d8bc 815e 913c
00000030: e72d 10bd c56d d1bb 9723 80ba 60b4 053c
0.02472479 0.01587753 0.017071549 -0.027689379 -0.0312381 0.02815209 -0.002048409 0.015258291
0.0040194173 -0.0021257133 -0.026439939 0.017745258 -0.035200026 -0.0063912594 -0.0009776232 0.0081606805

static_variable_selection.single_variable_grns.cantidad_scale.fc1.weight f4 [8, 8]
00000000: f16f 13be 595f 683f 6efa f03e cf9d 353e
00000010: 3f6b 183e 2192 aa3e 21af 463e c0d3 783f
00000020: 3c7d d93e 1e7d 92be 67c0 e8bc 9d1a b0be
00000030: 216a 53be 4e59 b43e 3b2e 3bbe 4e61 45bf
00000040: bf37 503f ff44 703d 3984 00be 71ab 993d
00000050: f455 e03e 1437 513f 4f45 94be de3b 17bf
00000060: 3d1b 8bbf 79dc 843e 62a5 02bf abc5 23bc
00000070: 5106 09bf ad9e 6cbe 0b7f 163f 6cc6 53bf
00000080: 4fd1 04bf 567c 49bf 24d8 963e 3ad8 53bf
00000090: 1776 eebe 9d6f d13e e044 14be 17d4 d93d
000000a0: ee0d c4bc 2cf7 253f 2439 c23e 5909 08be
000000b0: 531d 723d dc26 493e 2a83 1abf 3de0 b43e
000000c0: 36f6 28bf 2034 b4be 7978 af3d c346 86be
000000d0: 0c87 4a3f 6ed0 533f 798e 80bf 9bd8 393f
000000e0: 35ba b03e d30a b9be b0e7 0ebe 375c acbe
000000f0: bb3e c5be 168b 2b3e e386 d3bd 7924 ddbe
-0.14398171 0.9077049 0.47066063 0.1773598 0.14884661 0.33314613 0.19402744 0.97198105
0.4247836 -0.28611082 -0.028412057 -0.34395304 -0.20645954 0.35224384 -0.18279354 -0.771016
0.8133506 0.05865955 -0.12550439 0.07503403 0.43815577 0.8172467 -0.28959128 -0.59075725
-1.0867687 0.25949457 -0.51033604 -0.009995858 -0.53525263 -0.23107405 0.587876 -0.8272464
-0.5188188 -0.78705347 0.29461777 -0.8275181 -0.4657447 0.40905467 -0.14479399 0.10636156
-0.023932423 0.6483028 0.3793422 -0.13284816 0.059109997 0.1964373 -0.6035639 0.3532733
-0.6600069 -0.35196018 0.085679 -0.26225862 0.79112315 0.82739913 -1.0043479 0.7259614
0.34517065 -0.3614107 -0.1395557 -0.33664104 -0.38524422 0.16752276 -0.10328462 -0.4319189

static_variable_selection.single_variable_grns.cantidad_scale.fc1.bias f4 [8]
00000000: 9a58 b43b d789 e33c afa0 dd3c bf27 f2bc
00000010: 488f 94bc c3bb b03c 4a52 8b3c 4683 1fbd
0.005503726 0.027775688 0.027054159 -0.029559968 -0.018134728 0.021573907 0.017007012 -0.03894355

static_variable_selection.single_variable_grns.cantidad_scale.fc2.weight f4 [8, 8]
00000000: ba50 1d3f 62eb 06bf 2c11 1b3e f379 13bf
00000010: 5f1a 483e 1790 23be 3112 e9be 7f4c 9f3f
00000020: 25b1 9ebd 73c9 4abe f87a a2bd 03ce c0be
00000030: 41ba 31bf 50a9 a2be afa5 68be 1337 1ebd
00000040: e2f6 acbe c6cc d0be 74ce 1bbf f114 4d3f
00000050: 4e6a 363e 56e8 f6be 9e2c 843e a886 c13d
00000060: ba81 d8bc ace8 92be 35d1 7f3d bc29 b93e
00000070: 46e8 373f 05a2 a0be 405b 1a3d 7f57 bbbe
00000080: f9b3 d63e a9bd 973f 0fee 603e bdef 94be
00000090: 92d0 81bf 6d1a 353d 6dc2 88be 8df6 8c3e
000000a0: b779 753f 9c34 26bf 8523 e63e dfaa 6d3e
000000b0: 796f 75be 1b89 21b9 ea56 4bbe cf70 cf3e
000000c0: d2c5 023f 1590 5dbf 9471 823e bacc 30bf
000000d0: 331a ca3e c5ea adbe fa6f 013f 8730 e53d
000000e0: aff9 0abe 9a00 94be abd9 fdbe 401c e33d
000000f0: fceb 17bd 1dcd 43bf 4964 16bf 991c 6b3f
0.61451304 -0.52702916 0.1514327 -0.57607955 0.1954131 -0.15972935 -0.4552169 1.244522
-0.077486314 -0.1980341 -0.07933611 -0.37657174 -0.69424826 -0.317698 -0.22719453 -0.03862674
-0.33782107 -0.4078123 -0.608619 0.8011008 0.1781399 -0.48224133 0.2581529 0.09449512
-0.026429046 -0.2869314 0.062455375 0.36164653 0.71838796 -0.3137361 0.03768468 -0.36590192
0.41934183 1.1854755 0.21965812 -0.29089156 -1.0141776 0.044214655 -0.26710835 0.27531853
0.9588885 -0.64924026 0.44948974 0.23209713 -0.23968305 -0.00015405232 -0.19857374 0.40515754
0.510831 -0.86547977 0.25477278 -0.6906239 0.39473113 -0.33968177 0.5056149 0.111908965
-0.13571809 -0.2890671 -0.4958013 0.11089373 -0.037090287 -0.76484853 -0.58746773 0.9184051

static_variable_selection.single_variable_grns.cantidad_scale.fc2.bias f4 [8]
00000000: 0bf4 2fbd d2df 853c 4e04 fdbc 82fc 85bc
00000010: dda1 bc3c 2712 debc 965d e63c 2db1 3d3c
-0.042957347 0.016342077 -0.030885842 -0.016355757 0.023026401 -0.027108265 0.028120797 0.0115778865

static_variable_selection.single_variable_grns.cantidad_scale.gate_norm.glu.fc.weight f4 [32, 8]
00000000: ddab b23e cf63 ccbe bb09 adbe 5c45 e13d
00000010: c6f7 0abe b745 73be 120a ad3e 144d 893e
00000020: d2db af3e f6fe c43d ba7d 8fbe 2c25 493c
00000030: c0aa cc3d 8a49 eb3d 67d4 bcbd 1179 38be
00000040: 1634 343e 3825 143c 6757 ffbd cb9f 78bd
00000050: f8c0 babe d19a b1be b5af 1d3d 7aae 013e
00000060: 56a9 bf3e f1be ae3d c310 d2bd 7177 82be
00000070: 709a 00bd 6099 50be 5839 9a3d cbc4 973e
00000080: 797d 323e 27c0 a73d a548 cc3e c0a6 763e
00000090: a59c e6bc 6dad 22be a61a 9ebe 8ebf 1c3e
000000a0: 22a3 01be 72d6 963e 0b2c 64be e02f 6cbd
000000b0: 8a6c 5e3e 0368 04be 6c28 853b 6fd6 2c3e
000000c0: 06ad 7fbe 5549 b23e 9b08 0c3e 75ac 713e
000000d0: ae72 3e3e a062 b8be 7a4c 63be 504c d7bd
000000e0: 5505 ba3e 2456 a9be bac8 a13d e6c7 44be
000000f0: 53e9 0b3d 3c00 cc3d 9b87 48bd 62b9 ad3d
00000100: 132d 523e f2fe 7c3e 4e3a adbe 2191 3dbe
00000110: 0f02 06be cdaa 5bbe 504c cdbd c7a1 833e
00000120: 8a84 04bd 655d 69bd 9365 6abe 0cef 01be
00000130: d39c 7e3e 80ed bf3e fced 97be feff 7d3d
00000140: d3ef a6be 7504 a13e 7c34 b8bc 04ad 113e
00000150: d19d 0f3e 8df1 92be 2275 693d b1a2 d33e
00000160: 68c4 173e 1729 2f3e 6499 703e a804 2c3e
00000170: 92fa b03e 77ee 42be afef 673e 9b0a fabd
00000180: e022 823e b270 9b3d e351 593e c3ff 6a3e
00000190: dd56 7bbe eabf 433d 79c9 82bd 3c71 3d3e
000001a0: 7619 dabd 0622 4abe f23e 6a3e 0cbb 6d3d
000001b0: acc2 b03e 76e2 81be 9aaa abbc a351 bd3e
000001c0: 70d4 6d3d 7a16 813e f924 27be 6727 a33b
000001d0: aa14 21be 93ac 883e 14a5 63bc e240 313e
000001e0: 9798 8e3e 8924 c43d ffe8 813c 8805 5ebe
000001f0: 10a3 ae3e a19b 4abe 3ab0 8bbd 8d57 af3e
00000200: 98fb a3be efa8 c6bd d362 8bbd 9a5d 93be
00000210: f4fe 133e ffee 8a3e f4ed 4bbe 0811 8abe
00000220: cabe 5a3e a8fa cabc 9397 a2be 4eb8 163e
00000230: b852 ee3d 2814 91be 0283 a03e e2bf 303d
00000240: a8a5 94bd 265d 3bbe 3cd7 c23e a306 bbbd
00000250: 1edb 36be 528e 9ebd 5b1f 093e 2685 a83d
00000260: 9dd6 57be 6130 b33e f2b3 513e be3c 42bd
00000270: 1f61 ba3e 55b0 463d b937 ecbd 4c15 85be
00000280: 51da 76be d830 b63d 4603 cc3d c995 16be
00000290: dc03 d13d ee1e 843d 6b19 953e 74bc 35be
000002a0: 8715 b13e 12f2 06be d6f9 1ebd 0bb2 80bc
000002b0: 0cb0 b93e a26b bfbd 49d3 763c ffa3 b73e
000002c0: 2a4b 943e d574 37be 126f 1c3e fa2d 30be
000002d0: 1f18 c13e e625 0ebe 7595 863e 944d c33e
000002e0: c0a0 5bbd d9ae b4bd 5cd7 0bbd 6344 0abe
000002f0: 2e3e c0be 213f a5be 078c 96be fe53 adbd
00000300: 0486 8abe ca83 4abe 5749 263d f3c5 a93e
00000310: 15bf 43be 8d17 693e 5d85 b93d 9ada 0abc
00000320: f99d 013e 1f73 93be 70fe 903e b8a3 463e
00000330: d83e 1fbe 6838 aabe 4432 553e 19b7 99be
00000340: fc24 b7be 22d2 f53d 1a10 d4bd 1f7d 43be
00000350: 4d16 a2bd 9f01 a0be d523 9c3d 9ace ec3d
00000360: de0d 77bd cffe a9be 2a87 8d3d 44ba 3c3e
00000370: 9c3d 993e de8e 013e 8bb1 3ebe a9e6 c33e
00000380: d5e3 8abe ccb3 a63e aba4 61be d1e8 82be
00000390: 718f c2be feb6 1f3e 1256 423e affc 43bd
000003a0: 8590 c13c c3ea eabd 5436 8a3e bb9e 953d
000003b0: ff72 a7be 991f 323e 5182 543e 7618 813d
000003c0: 5a0d 06be 3136 903e 1ab6 d63a 296d 193d
000003d0: ce1d 8fbe 3ef4 ecbc aa0e 27be 5c92 b83e
000003e0: e4ba d03d abf6 9c3c d43e adbe 4be2 83be
000003f0: 9c88 363d 08f2 8d3e 40e9 823e 785e 91be
0.34896746 -0.39919898 -0.33796486 0.109995574 -0.1357108 -0.23757063 0.33796746 0.26816618
0.34347397 0.096189424 -0.2802561 0.012276929 0.099935055 0.11488636 -0.092202 -0.18014933
0.17597994 0.009042077 -0.124678425 -0.060699265 -0.36475348 -0.34688428 0.038497645 0.12664214
0.3743388 0.08532513 -0.10257103 -0.25481752 -0.031397283 -0.20371008 0.07530469 0.2964233
0.17430677 0.08190947 0.39899173 0.24087048 -0.028150866 -0.15886469 -0.30879706 0.15307447
-0.12659886 0.29460484 -0.22282426 -0.057662845 0.21721092 -0.12930302 0.0040636566 0.16878675
-0.24968347 0.34821573 0.13675158 0.23600943 0.18598434 -0.36012745 -0.22197142 -0.10512602
0.36332193 -0.33073533 0.07899614 -0.1921688 0.034158062 0.09960982 -0.04895745 0.084826246
0.20525007 0.24706629 -0.33833545 -0.18512394 -0.13086723 -0.21451874 -0.10024321 0.25709364
-0.03235296 -0.056973834 -0.2289031 -0.12688845 0.24864511 0.37485886 -0.29673755 0.06201171
-0.32604846 0.31448713 -0.022485964 0.14226156 0.14025046 -0.28699914 0.056996472 0.4133506
0.14821017 0.17105518 0.23496014 0.16798651 0.3456617 -0.1903628 0.22650026 -0.12209054
0.25417233 0.07589854 0.21222644 0.22949128 -0.24544854 0.047790445 -0.06386084 0.18500227
-0.106493875 -0.19739541 0.22875574 0.05803971 0.34523523 -0.25368088 -0.020955373 0.36976346
0.058063924 0.2521246 -0.16322698 0.0049790624 -0.15730539 0.26694164 -0.013894338 0.17309907
0.27850792 0.09577281 0.015858172 -0.21681798 0.34108782 -0.1978593 -0.06820722 0.34246483
-0.32027888 -0.0970019 -0.068059586 -0.2878235 0.14452726 0.27135465 -0.1991499 -0.2696612
0.21361843 -0.024777725 -0.31756267 0.14718744 0.11636871 -0.2833569 0.3134995 0.043151744
-0.07258159 -0.18297252 0.38054836 -0.09132125 -0.17857024 -0.07741989 0.13390867 0.08228521
-0.21077962 0.34997848 0.204788 -0.04742121 0.36402223 0.048508007 -0.11534066 -0.2599281
-0.24106719 0.08896035 0.09961562 -0.14705576 0.10205814 0.06451212 0.29120955 -0.1774767
0.34586737 -0.1317828 -0.03881248 -0.015709898 0.36267126 -0.09346701 0.015065023 0.35867307
0.28963596 -0.17915662 0.15276745 -0.17205039 0.37713715 -0.13881645 0.26285902 0.38145125
-0.0536201 -0.08822412 -0.03414093 -0.1350265 -0.3754744 -0.32274726 -0.29403707 -0.08463286
-0.2705537 -0.19776836 0.040597286 0.33158836 -0.19115861 0.2276289 0.0905864 -0.00847497
0.12657918 -0.28798768 0.2831912 0.19398391 -0.15551317 -0.3324616 0.20819956 -0.30022505
-0.35770404 0.1200297 -0.10354634 -0.19090699 -0.0791441 -0.31251237 0.07624022 0.115628436
-0.06031596 -0.33202216 0.06910546 0.1843043 0.29929817 0.12652156 -0.18622415 0.38261917
-0.27126947 0.3255905 -0.22035472 -0.2556825 -0.38000062 0.1559715 0.18978146 -0.0478484
0.023628483 -0.114705585 0.26994574 0.07305666 -0.32704923 0.17394866 0.20752837 0.06303494
-0.1309103 0.28166345 0.0016381175 0.03745762 -0.27952427 -0.028925058 -0.16314188 0.36049163
0.101918966 0.01916059 -0.33836997 -0.25758585 0.044563875 0.27723718 0.2556858 -0.28392386

static_variable_selection.single_variable_grns.cantidad_scale.gate_norm.glu.fc.bias f4 [32]
00000000: 4e35 dd3c 754f 303c 44c6 0dbc 47f6 ecbc
00000010: 170e ebbc 2156 e33c 8ea5 2ebb 38b6 663c
00000020: e06f d03a 79da 02bc d0a0 95bc c6a1 993c
00000030: 3be2 0abd dabd e93b cbec 9bb8 d0a8 ee3b
00000040: d43f a9bb 61c4 6a3c 8551 44bc fa37 983b
00000050: 4b18 cb3c 0b36 dfbc 25ee 073c 0ad6 003c
00000060: 0280 14bc f924 46bc 2a6b 083d ed00 99bb
00000070: 9b94 103c 9dd2 08bb 6514 06bc 4e16 1abc
0.027002957 0.0107611315 -0.008653227 -0.028926028 -0.028693242 0.02775103 -0.0026648971 0.01408153
0.0015902482 -0.007986658 -0.018265158 0.018753897 -0.033907156 0.007133228 -7.435082e-05 0.0072833076
-0.0051650796 0.014329047 -0.011982326 0.004645345 0.024791857 -0.02724745 0.008296524 0.007863531
-0.009063723 -0.012093776 0.033305325 -0.0046693 0.008824493 -0.0020877488 -0.008183573 -0.009404732

static_variable_selection.single_variable_grns.cantidad_scale.gate_norm.add_norm.norm.weight f4 [16]
00000000: 2e44 823f 09a4 7f3f 9fd2 783f 91be 7c3f
00000010: 3160 7a3f 9e98 833f 2cb3 7d3f bad8 793f
00000020: a29e 7c3f a10b 793f 65a0 7a3f 1c3b 803f
00000030: 2b1f 823f d506 813f 406b 7c3f 7396 803f
1.0177057 0.9985967 0.9719638 0.9872828 0.97803026 1.028095 0.9910152 0.97596323
0.98679554 0.9728337 0.9790099 1.0018039 1.0165762 1.008021 0.9860115 1.0045913

static_variable_selection.single_variable_grns.cantidad_scale.gate_norm.add_norm.norm.bias f4 [16]
00000000: b4c0 c43c 5362 5b3b f25d cc3c f038 08bd
00000010: 726d debc 4e78 d93c 1fbb ad3b d2c6 8e3c
00000020: ab5a 693c 6f64 6fba 545e e8bc 8476 523c
00000030: fc4a e9bc abaa 5cbb 864f c4bb cdb6 0e3b
0.02401767 0.0033475354 0.02494714 -0.033257425 -0.027151797 0.026546624 0.0053018476 0.01742879
0.014242808 -0.0009132092 -0.028365292 0.012845639 -0.028478138 -0.0033671062 -0.0059909252 0.0021776438

static_variable_selection.prescalers.encoder_length.weight f4 [8, 1]
00000000: a3a4 ecbe 3149 083e f8d8 aabe 0154 643f
00000010: 93d7 ecbe 8e8c 44bf a45d 323f f475 d7be
-0.46219358 0.1330917 -0.3336866 0.8919068 -0.4625822 -0.7677697 0.69674134 -0.4208218

static_variable_selection.prescalers.encoder_length.bias f4 [8]
00000000: 3a6d 613f 38fe 2ebf 0f1d c5bd d8bf 813f
00000010: b650 e1bd 8ea1 733f 7857 1d3f 888a a9be
0.8805729 -0.6835666 -0.09624683 1.0136671 -0.110017225 0.9516839 0.6146159 -0.33113503

static_variable_selection.prescalers.cantidad_center.weight f4 [8, 1]
00000000: c757 4abf 6340 90be 0656 3ebd aab9 eebd
00000010: b829 68bf dba9 d8be fbb6 6e3f 9e80 15be
-0.7904019 -0.28174123 -0.046468757 -0.11656506 -0.9068866 -0.4231709 0.93247956 -0.14599845

static_variable_selection.prescalers.cantidad_center.bias f4 [8]
00000000: 9f1a 5dbf 3116 09bf 0bde 73bf 7319 9dbe
00000010: 9956 9a3e 7b9a a0be c1b7 2d3e 1f72 27bf
-0.86368746 -0.53549486 -0.95260686 -0.3068348 0.30144194 -0.3136786 0.16964628 -0.6540851

static_variable_selection.prescalers.cantidad_scale.weight f4 [8, 1]
00000000: 1439 383f 2b50 fdbe 8784 253b 1b5e fabe
00000010: 5eb4 5c3f 6f04 713f bb13 6ebf c44e 3bbf
0.71962094 -0.49475226 0.0025255994 -0.48899922 0.8621272 0.9414739 -0.92998856 -0.7316706

static_variable_selection.prescalers.cantidad_scale.bias f4 [8]
00000000: d50f 573f 42d5 2d3f 2a51 583f 4c45 5f3e
00000010: ade0 61bf 3489 643f 8699 62bf cc6c 423e
0.8400853 0.6790353 0.84498847 0.21803778 -0.88233453 0.89271855 -0.8851551 0.18986815

encoder_variable_selection.flattened_grn.resample_norm.mask f4 [11]
00000000: 9029 02bd 3080 763d 1d1d 1cbd d704 f63c
00000010: b48c 49bc 3147 97bc a86b 793b fe62 073d
00000020: 0fe3 f23c 5f74 3cbd 2bcf 36bd
-0.03177792 0.060180843 -0.038113702 0.030031605 -0.012301613 -0.018466564 0.0038058553 0.03305339
0.029649286 -0.046009418 -0.044631165

encoder_variable_selection.flattened_grn.resample_norm.norm.weight f4 [11]
00000000: 68e6 763f 8f04 863f 0c71 763f 5d1f 823f
00000010: c384 7d3f c42d 7c3f 4cd6 813f 38b7 823f
00000020: fa66 833f 3ad8 753f 892f 793f
0.9644532 1.0470141 0.96266246 1.0165821 0.99030703 0.9850733 1.0143523 1.0212164
1.0265801 0.9603306 0.9733816

encoder_variable_selection.flattened_grn.resample_norm.norm.bias f4 [11]
00000000: 2be1 e03c 351d 333d 23b9 263d caec 40bc
00000010: 9e51 21bc 9439 8fbc ba5b 963c 77b7 c4bc
00000020: 4c5d 0dbb 1892 b3bc a6df 35bd
0.027451118 0.043729026 0.040703904 -0.011775205 -0.009846119 -0.01748351 0.018354286 -0.024013264
-0.0021570502 -0.021920249 -0.04440274
