Notebooks_Development/mlartifacts/400716610318719328/b82175e0e93f4c9896edd58b19156386/artifacts/checkpoints/latest_checkpoint.pth (torch, 850369 bytes, 1197 tensors)

prescalers.encoder_length.weight f4 [8, 1]
00000000: 6855 b03e 6271 cd3e af70 ca3e efdc 2abf
00000010: e0f0 233f 3455 5e3f d5f1 48bf 87ec c3be
0.3444016 0.40125567 0.39539096 -0.6674337 0.6403942 0.8684876 -0.78494006 -0.38266394

prescalers.encoder_length.bias f4 [8]
00000000: 680c bfbe 040f 763f 826c 52bf 1d9b 2bbf
00000010: bc28 55bf 49ec c33d b72e 64bf ae47 6fbf
-0.37314153 0.9611666 -0.8219682 -0.6703356 -0.8326528 0.09566552 -0.8913378 -0.9346875

prescalers.cantidad_center.weight f4 [8, 1]
00000000: 392b b6be c0fc e73e 6581 0fbf 09be c1be
00000010: fbb4 153f c2f4 413e 4a1a 243f d30a 46bf
-0.3557985 0.4531002 -0.56056815 -0.37840298 0.5847928 0.18941024 0.64102614 -0.77360266

prescalers.cantidad_center.bias f4 [8]
00000000: 4fbd 5c3e f55d 783f 6360 8e3e fa6b 2d3f
00000010: 4174 99be 855e 123f 5701 23bf 7d17 fc3e
0.2155659 0.9701837 0.27807912 0.67742884 -0.29971507 0.57175475 -0.6367392 0.4923667

prescalers.cantidad_scale.weight f4 [8, 1]
00000000: f36d cfbe c373 76be 9953 cfbc d764 5e3f
00000010: 9f1b 54be afba 27be db3b d8be 9b78 1b3e
-0.40513572 -0.24067597 -0.025308417 0.8687262 -0.20713662 -0.16379808 -0.42233166 0.15182726

prescalers.cantidad_scale.bias f4 [8]
00000000: 8493 4b3f e315 6a3f b809 0cbd de0b 3dbf
00000010: edd7 203f 6890 3e3f 56fa 6c3e e360 2dbc
0.79521966 0.91439646 -0.034188956 -0.7384623 0.62829477 0.74439096 0.2314237 -0.010582182

prescalers.time_idx.weight f4 [8, 1]
00000000: 07ed 7d3f e8fd 423f f8ca 13bf f649 fe3e
00000010: 5675 363f b4ba d13e 725f c93d 681b 1b3f
0.991898 0.7616868 -0.5773158 0.49665803 0.7127279 0.40962756 0.09832658 0.60588694

prescalers.time_idx.bias f4 [8]
00000000: 3043 153f 5925 493f 1795 4d3f cee3 77bf
00000010: 5417 713f 8d03 e2be b438 4abf 0267 e23e
0.58305645 0.78572613 0.8030562 -0.9683198 0.9417622 -0.44143334 -0.7899277 0.44219214

prescalers.mes.weight f4 [8, 1]
00000000: cbac 483e 40d6 8e3e ebe2 3abf 3e96 f43c
00000010: b633 8abe f6e0 b1be 88cc 8d3e bd0c adbe
0.19597165 0.27897835 -0.730025 0.029856797 -0.26992577 -0.34741944 0.27695107 -0.3379878

prescalers.mes.bias f4 [8]
00000000: 87d9 b73e b6f1 d63e bfa2 70bf b95a 5dbf
00000010: 6e0b 5bbd f6cf 55bf 0ab5 7fbe f770 59bf
0.35908148 0.41981286 -0.9399833 -0.86466557 -0.053477697 -0.8352045 -0.24971405 -0.84937996

prescalers.semana_ano.weight f4 [8, 1]
00000000: 156e 9dbe 331c 67bf b95d b8be d934 81bd
00000010: ecd6 1f3f b7cd d8be 2307 d9be c43e 54bf
-0.30748048 -0.90277404 -0.36009005 -0.06308908 0.6243732 -0.42344448 -0.42388257 -0.8290827

prescalers.semana_ano.bias f4 [8]
00000000: ab79 efbe 72a2 bbbe bb12 e53e 9a94 ab3d
00000010: 74b5 febe c24c 25bf e26e b53d 181c 4b3f
-0.46772513 -0.36647373 0.44740853 0.08377953 -0.49747813 -0.6457025 0.0885904 0.7933974

prescalers.trimestre.weight f4 [8, 1]
00000000: 7c17 373f 809c 0cbf e07f 373f 166a 8fbe
00000010: b449 52bf e40d 2ebf b57f 83bf 0331 d13e
0.7152021 -0.549263 0.71679497 -0.28010625 -0.8214371 -0.67989945 -1.0273348 0.40857705

prescalers.trimestre.bias f4 [8]
00000000: 60a9 3cbc f9cc 7b3f dca7 bb3e dd5a 683f
00000010: a0aa 803f 80a3 123f 2f4f 733f a4e6 0b3f
-0.0115149915 0.9835964 0.36651504 0.90763646 1.0052071 0.5728073 0.950427 0.54648805

prescalers.ano.weight f4 [8, 1]
00000000: 3b83 0dbf 81cc a43e f7ec 46bf 7791 4c3e
00000010: 11d5 2dbf c0ed d1be 50c5 be3e 7e31 393e
-0.55278367 0.32187274 -0.7770533 0.19977365 -0.6790324 -0.410017 0.37259912 0.18085286

prescalers.ano.bias f4 [8]
00000000: 483e 1b3f 31c6 943d be22 183f 7ab7 133f
00000010: ee31 1dbf ed57 f33e 9f55 893e 47f1 10be
0.6064191 0.072643645 0.5942801 0.5770184 -0.6140431 0.4752802 0.26823136 -0.1415454

prescalers.dia_festivo.weight f4 [8, 1]
00000000: 3657 113f f560 373f 8ee5 49bf 1185 213e
00000010: 54c8 0fbf 2945 e9bd 03f9 8d3d 910c 643f
0.567737 0.7163232 -0.788659 0.15773417 -0.5616505 -0.113901444 0.06932261 0.89081675

prescalers.dia_festivo.bias f4 [8]
00000000: 58af 69be 35c5 50be f40d 3abf 333a 083e
00000010: d559 78bf 2bb9 4d3f 860d 273f d2cb f23e
-0.22820795 -0.20387729 -0.7267754 0.13303451 -0.9701207 0.8036067 0.6525501 0.47421128

prescalers.ocupacion.weight f4 [8, 1]
00000000: 7a15 1fbf b480 523f a956 283f bab9 1a3f
00000010: ca7d b13e b877 f93e 204c 053f 37b0 74bf
-0.62142146 0.82227635 0.6575723 0.60439646 0.34666282 0.4872415 0.5206928 -0.9558138

prescalers.ocupacion.bias f4 [8]
00000000: ca2d f93e 754a 3a3f 2df8 48bf df65 723d
00000010: 95f6 7abf 8b5b 18bf cb03 3d3f e59c 20bf
0.48667747 0.7276986 -0.78503686 0.059179183 -0.98032504 -0.59514683 0.7383391 -0.627394

prescalers.relative_time_idx.weight f4 [8, 1]
00000000: 5ed5 1f3f 3939 f6be 0aa9 1cbf 71ce 30bf
00000010: 15f6 28bf 8a8b e23e 3cd6 08bf 2301 6ebf
0.6243495 -0.48090532 -0.61195433 -0.69065005 -0.6600049 0.44247085 -0.53451896 -0.92970484

prescalers.relative_time_idx.bias f4 [8]
00000000: f957 323f 1032 d73e 09c0 7bbf 0f96 d13e
00000010: 00a0 35bf ce86 f4be 53e8 023e 6e6b 823d
0.69665486 0.42030382 -0.983399 0.40934798 -0.70947266 -0.47759098 0.12783937 0.06368147

prescalers.cantidad.weight f4 [8, 1]
00000000: ca76 c53e 27eb 75bf 9268 6c3f f678 42be
00000010: 404a 643e a0ba e0be 157e c33e 49dd 0ebf
0.3856719 -0.9606194 0.9234706 -0.18991455 0.22293949 -0.43892384 0.3818213 -0.55806404

prescalers.cantidad.bias f4 [8]
00000000: 8777 9dbe d9cf e13e 421b 673d 8f0c 093e
00000010: 7339 0abf d9d0 c8be 49bd 4d3f d7b4 a43e
-0.30755255 0.44103888 0.05642248 0.13383697 -0.5399391 -0.39221838 0.8036695 0.3216922

prescalers.lag_1.weight f4 [8, 1]
00000000: 2fe8 38bd b4d1 12bf cfdd 233f 136b a53b
00000010: b600 403e 8b46 62be ff01 8bbd 75d0 a73e
-0.045143303 -0.5735123 0.6401033 0.0050481646 0.18750271 -0.22097223 -0.0678749 0.32776228

prescalers.lag_1.bias f4 [8]
00000000: 6171 9ebe a575 cebe c4a5 903e 586c ce3e
00000010: a4d1 1fbe ba57 e8be f86e 2abf cc34 423f
-0.30945876 -0.4032413 0.2825147 0.40317035 -0.15607315 -0.4537943 -0.66575575 0.7586181

prescalers.lag_2.weight f4 [8, 1]
00000000: 5023 803f b5a3 c73e 493e 4cbf d306 723f
00000010: ccfb 97bc 60c7 433f 1d18 30bf fa5a 0abf
1.0010777 0.38992086 -0.7978254 0.9454166 -0.018552683 0.764761 -0.68786794 -0.5404507

prescalers.lag_2.bias f4 [8]
00000000: fd96 a8be c6fa 7b3f 6f96 bc3e 5358 e6be
00000010: 5a63 233f d404 44be f1aa ab3e a738 77bf
-0.32927695 0.98429525 0.36833522 -0.4498926 0.63823473 -0.19142467 0.33528855 -0.9657082

static_variable_selection.flattened_grn.resample_norm.mask f4 [3]
00000000: 062c af3a 4552 803c f099 81bc
0.001336456 0.01566423 -0.015820473

static_variable_selection.flattened_grn.resample_norm.norm.weight f4 [3]
00000000: d641 7e3f 77e1 813f ce07 7d3f
0.9931921 1.0146931 0.98840034

static_variable_selection.flattened_grn.resample_norm.norm.bias f4 [3]
00000000: a25e 603b b89b 6c3c c3fe 39bc
0.0034236093 0.014441423 -0.011352244

static_variable_selection.flattened_grn.fc1.weight f4 [3, 24]
00000000: 9ce0 1fbd 18bd 243e 33dd 42be 12ba e5bd
00000010: 805a 0b3f 07c5 64be 8b78 4ebe 8000 ac3e
00000020: b812 c7bd 29bc 2e3e 2e91 103f e699 363e
00000030: d00c 4cbe ea18 df3e 553e abbd 4a4e ff3e
00000040: a2b6 f03e 294b ab3e b5f3 9c3e f4aa bd3d
00000050: 082c edbd 818a 813d 349f 13bf 462d 1cbe
00000060: ae71 59be 0d75 3abf c176 b23e cfc1 263f
00000070: 953f 94bd 58a1 9abe ce4d 66bd dc9e 3f3e
00000080: d15c efbe 1c89 8dbe 747c 403d 9edb 4abe
00000090: 7720 f2bd 9529 97be a82e 35be 0399 053e
000000a0: 619b c2be 9652 f73d f1f4 443e 1663 c8be
000000b0: 0929 b83e bff1 b33e ca32 9c3e 4f08 563e
000000c0: 6b59 05bd 8b19 17bf c9cd 21bf e108 0abf
000000d0: cf83 123f 3508 be3e 7a41 edbe 5d36 a7be
000000e0: 4312 a4be e364 ca3e 86ae f3bc cb43 b3be
000000f0: 5878 d2bd 2444 7abe 15aa 2ebd f96c 7e3d
00000100: 5d12 1a3f 3809 cebd 0726 063f a99e 883e
00000110: 293e 1abc 483b fabd fde3 403e 02e8 40be
-0.039032564 0.16087759 -0.19029693 -0.11217131 0.5443497 -0.22340785 -0.20163171 0.3359413
-0.09720367 0.17063965 0.56471527 0.17832145 -0.19926763 0.43573695 -0.08361498 0.49864417
0.47014338 0.3345578 0.30654684 0.09261122 -0.11580664 0.06325246 -0.576648 -0.15251645
-0.21234772 -0.72834855 0.34856227 0.6513948 -0.0723869 -0.3020122 -0.056226544 0.18712944
-0.467505 -0.2764367 0.046993688 -0.1981034 -0.118225984 -0.29523912 -0.17693579 0.1304665
-0.3800917 0.12076299 0.19234063 -0.39138097 0.35968807 0.35145375 0.305075 0.20901607
-0.03255598 -0.5902335 -0.6320463 -0.539198 0.57232374 0.37115636 -0.46339017 -0.32658663
-0.32045183 0.39530095 -0.029746305 -0.3501266 -0.1027686 -0.24440056 -0.04264267 0.062115643
0.6018427 -0.10060352 0.52401775 0.26683548 -0.009414234 -0.12218338 0.1883697 -0.18838504

static_variable_selection.flattened_grn.fc1.bias f4 [3]
00000000: 4de3 863c 30e3 1b3c 9791 293b
0.016465807 0.009514615 0.0025874132

static_variable_selection.flattened_grn.fc2.weight f4 [3, 3]
00000000: be29 073f 0caa c9bf 4664 dbbd dfdd acbf
00000010: 454a bebe c17d 8fbf bf49 20bc c415 233f
00000020: fd1b 67bf
0.5279807 -1.5755019 -0.10712485 -1.350521 -0.37166038 -1.1210252 -0.009783207 0.63705087
-0.9027708

static_variable_selection.flattened_grn.fc2.bias f4 [3]
00000000: fb65 0b3c e4cf 17bc 5495 bbba
0.008508201 -0.009265874 -0.0014311471

static_variable_selection.flattened_grn.gate_norm.glu.fc.weight f4 [6, 3]
00000000: cede a3be f714 d43e 414e 2bbf 97c5 e6bd
00000010: 0b04 89be 5acc 82bd d4e4 42bf 6af2 263d
00000020: 2305 df3e 3550 173f 8b06 07bf 5368 2a3d
00000030: b79d c43e 8e9b 5dbe c941 0b3f 385e c8be
00000040: 1737 b2be 5f09 7dbe
-0.32005924 0.41422245 -0.6691628 -0.11268156 -0.26760897 -0.06386633 -0.76130414 0.040758528
0.43558607 0.5910676 -0.5274436 0.041603398 0.38401577 -0.2164137 0.54397255 -0.39134383
-0.34807655 -0.24710606

static_variable_selection.flattened_grn.gate_norm.glu.fc.bias f4 [6]
00000000: f158 023b 851e 853c 4c3d 53bc 2e9e 213c
00000010: 9203 363c 736b 65bb
0.001988944 0.016249904 -0.012893032 0.009864373 0.01110925 -0.0035006672

static_variable_selection.flattened_grn.gate_norm.add_norm.norm.weight f4 [3]
00000000: f9db 773f 40a9 7c3f 2221 773f
0.96820027 0.98695755 0.9653493

static_variable_selection.flattened_grn.gate_norm.add_norm.norm.bias f4 [3]
00000000: d77a 043c 0024 c4bb c18b c53a
0.008085928 -0.005985737 0.0015071557

static_variable_selection.single_variable_grns.encoder_length.resample_norm.mask f4 [16]
00000000: 2e26 1f3c 7f60 6cbc 9131 463b 07af 81bb
00000010: 67a5 43bc 9678 163d 38c9 563a 8676 0abd
00000020: a978 e0bc 6311 01bd 4365 bc3c 3518 953c
00000030: 336e a6bc a4f2 59bc 5bba a0bc 70b9 b33c
0.009713693 -0.014427303 0.0030241946 -0.0039576325 -0.01194129 0.036736093 0.0008193436 -0.03380444
-0.027401285 -0.031510722 0.022997504 0.01820002 -0.020316219 -0.013302479 -0.019620111 0.02193901

static_variable_selection.single_variable_grns.encoder_length.resample_norm.norm.weight f4 [16]
00000000: 0d3f 803f d21a 7d3f 9fe4 813f e8b5 803f
00000010: 749c 813f 5ebe 843f 7e7e 803f 8a9f 773f
00000020: df04 793f e601 783f afba 823f aeef 823f
00000030: 6e63 7b3f d205 7e3f 02a1 7d3f eeef 823f
1.0019242 0.9886905 1.0147895 1.0055513 1.0125871 1.0370595 1.0038602 0.9672781
0.9727306 0.96877897 1.0213221 1.0229394 0.9819859 0.9922763 0.99073803 1.0229471

static_variable_selection.single_variable_grns.encoder_length.resample_norm.norm.bias f4 [16]
00000000: 0da9 fe3a 3d75 38bc c5ff 723c f6bf b33b
00000010: 5129 4b3c 1cce 16bd 5b0d 81bb 27e2 053d
00000020: eaea dc3c d9e7 ffbc 6e07 ae3c fd86 bb3c
00000030: f7fd 913c 1ee2 fa3b f148 173c 3dbb bbbc
0.0019429043 -0.011258421 0.014831488 0.00548553 0.012399987 -0.036817655 -0.0039383597 0.03268638
0.026967485 -0.031238483 0.021243777 0.022891516 0.017821295 0.00765635 0.009233699 -0.02291643

static_variable_selection.single_variable_grns.encoder_length.fc1.weight f4 [8, 8]
00000000: ce57 abbd d36f a2bc 2ab0 fbbe 9d49 28bd
00000010: 3d32 b23d b80b 7cbf d7f8 07be 427e de3e
00000020: 5465 753d c550 a0be a4ce 363f 8161 bcbd
00000030: edca 87be efba 7dbe 2eaf 953e 4014 00be
00000040: c13f 0ebf 21d1 8b3e 6a89 f5be e3a4 863e
00000050: 1271 a2be 6d53 863e 22d9 a33f b055 e93d
00000060: bb84 41bc f26a 4d3f 8926 ac3e 42ea cd3e
00000070: 6e61 a2bd 366f 6e3d 2532 823f 0f40 803e
00000080: 003a eebc ed58 86be 4d96 933e 424d 173e
00000090: d89d 12be fc8e 19bf dccd 04be 17e4 213f
000000a0: b341 ff3e 2be1 21be 6f73 853e 2b3e 7e3f
000000b0: 480f 0c3f d367 9b3e 6f25 cb3e 0171 77bf
000000c0: 9390 443f 3eba b43e 91fd fe3e 2891 b53d
000000d0: ec82 a83e 2f92 5d3e 3658 00bf 2d4c 483f
000000e0: c349 e03e 38ed e7be 8849 2e3e 1299 58bf
000000f0: 5cbf e53c 0168 c3be d044 afbf b5c8 4fbf
-0.08366357 -0.019828713 -0.4915784 -0.041085828 0.087009884 -0.9845538 -0.13278519 0.43455702
0.059911087 -0.31311622 0.7140906 -0.09198285 -0.26522008 -0.24778341 0.29235214 -0.12507725
-0.5556603 0.2730799 -0.479564 0.26297674 -0.3172689 0.26235524 1.2800639 0.11393297
-0.011811431 0.8024131 0.3362315 0.40217787 -0.079287395 0.058211528 1.0171553 0.25048873
-0.02908039 -0.2623972 0.28825608 0.14775565 -0.14318025 -0.599838 -0.12969154 0.6323866
0.49854812 -0.15808551 0.2606463 0.9931361 0.5471082 0.3035265 0.39676997 -0.96656805
0.767831 0.35298342 0.4980283 0.08865577 0.32912385 0.21637796 -0.501346 0.78241235
0.43806276 -0.4529817 0.17020237 -0.84608567 0.028045349 -0.38165286 -1.3692875 -0.8116563

static_variable_selection.single_variable_grns.encoder_length.fc1.bias f4 [8]
00000000: 674e b73c 61b3 bbbc 2d86 d83c 3b47 693c
00000010: e8b6 94bc b314 653b 7846 06bc da1f 04bc
0.022376252 -0.022912683 0.026431167 0.014238174 -0.018153623 0.0034954965 -0.008195512 -0.008064235

static_variable_selection.single_variable_grns.encoder_length.fc2.weight f4 [8, 8]
00000000: e93c 58be 9944 0b3f e200 2f3e c36f 8e3e
00000010: f453 183d 946e b73e 9ce2 35bf 097f 1dbe
00000020: 7f0e 70be 816c d33e db4c 4ebf 37ca 18bf
00000030: 6c4a a23e 6e25 d7bd c9a8 afbe 9b63 8e3e
00000040: 1db7 ae3d f2c5 2fbe 3707 85bb 135a 50bf
00000050: 27c4 88bf f4cd 99bd 848e b23e 9a91 b13e
00000060: 7136 80bf e59c e23e cfe8 86be 3bc1 1d3f
00000070: 34e5 2e3f d401 01bf f8c3 acbd 32ec aa3d
00000080: f7d6 64bf 0804 5a3e b8a1 bf3d 452c 69be
00000090: 4e1f b83e 5c65 9b3e eb7e 22be 7f4c 4e3f
000000a0: c9e9 15be 368f 82bd ad0c f7be 1589 373f
000000b0: 312a 8b3d d785 093e 5e90 1a3f 0040 203f
000000c0: 3a38 453e 8ce6 f33d f1b2 ef3b d544 60be
000000d0: 1127 77bf 0732 31be 1eb4 2ebe 671a e43e
000000e0: 8fad 923e 48ab 9f3f 64d5 bbbf 2791 41bf
000000f0: c449 9d3e 4faa 6f3e f4f8 39bc 5591 e73e
-0.21116985 0.54401547 0.1709018 0.27819642 0.03718944 0.35826552 -0.71048903 -0.15380491
-0.2344303 0.4129372 -0.8058602 -0.59683555 0.31697404 -0.10505186 -0.3430846 0.27810368
0.0853102 -0.17165354 -0.004059698 -0.8138744 -1.0684861 -0.075099856 0.34874356 0.34681398
-1.0016614 0.44260326 -0.26349494 0.6162297 0.68318486 -0.50393414 -0.084358156 0.08345832
-0.8939051 0.212906 0.09357017 -0.22770794 0.35961384 0.3035077 -0.15868728 0.80585474
-0.14639963 -0.063749716 -0.48251858 0.71693546 0.06795157 0.13429962 0.60376537 0.62597656
0.1925973 0.11909208 0.0073150326 -0.21901257 -0.96543986 -0.1730424 -0.17060897 0.44551393
0.2864804 1.2474146 -1.4674497 -0.7561211 0.3072034 0.23404811 -0.011350859 0.45228067

static_variable_selection.single_variable_grns.encoder_length.fc2.bias f4 [8]
00000000: ffee b63a a59a ed3a 9927 2ebb 9281 d2bc
00000010: 33e2 adbb 38a9 243c 290c a93c e4b9 17bd
0.0013956724 0.0018127753 -0.0026573895 -0.02569655 -0.005306506 0.0100501105 0.020635681 -0.037042513

static_variable_selection.single_variable_grns.encoder_length.gate_norm.glu.fc.weight f4 [32, 8]
00000000: b3e5 15bd 2290 dd3d da54 f6bc 0457 8a3e
00000010: 2468 963e 8d48 dbbc 6cdf a7be be55 80be
00000020: 57ba 893e f174 cbbc c18c b43e 86cf 563b
00000030: 498a cfbd fb02 b23e e74b 123e c5be 613e
00000040: d771 94be 2c73 373e f18f ab3e 2c90 3abe
00000050: 19f7 94be 03b4 ca3e 9fbd 893e ee6d 7bbe
00000060: 4933 0d3c 256d 543e 6069 bdbd f5f8 b73e
00000070: efdf babd 8dba b03e 92d3 83be feca 6d3c
00000080: 3696 16be 3b46 b4be d477 fbbd 1083 c13e
00000090: cab8 3d3d 2d1a 9fbe 7a08 43bc 343a b03e
000000a0: ceb6 24bd db59 c0be 2d89 e43d 78d2 4abe
000000b0: e541 ad3e e0ad 85bd d5ff 543c 7fc6 5dbe
000000c0: b31a 2c3e 213c 9ebd 6c3c 9cbe cb4b 07be
000000d0: 9062 50be de1a 7ebe 27da 8dbe 7c86 a5be
000000e0: 2668 703e 732b bf3e fad7 b53c e7be 32be
000000f0: a634 1f3e 4dc6 bd3d 682f 52bd 2786 43bd
00000100: 1e45 7d3e 81fa 3c3e 8af1 6dbe 5127 833d
00000110: 5081 3ebd 42b2 f7bd 27ef eb3d d4ee a13e
00000120: d580 173e 5388 ab3d 46a2 78bc 11c5 4c3d
00000130: 5569 a8bb 00ec 9abe 8ce2 823e 1dad 4b3e
00000140: b158 c3bc c6f3 2dbe 725f 4bbe dd75 25be
00000150: a215 45be 42ee 13be 2b32 00be 5908 76be
00000160: c086 6d3e f0c4 93be 6db3 5e3e 41c7 babd
00000170: 6155 e73d 50f9 633d 9876 053e b51d 673d
00000180: c1e9 8abe 374a 043d 3738 0abe 1479 78be
00000190: 7f31 3abe 9ccc 24bc d745 543e d5a5 b9be
000001a0: 99fb cbbc e58a a23e 3c26 433c 9d55 94be
000001b0: b3ef 0fbe 73b7 05be 1388 1b3e cc54 58bd
000001c0: 3603 0ebe 7012 98be e073 48bd 016d fabd
000001d0: f279 663e 96c4 19be 993d b83e 04a9 7e3e
000001e0: dfab 483e 1e90 73bd 294d 433e 8df9 71be
000001f0: 2425 083d 356f ce3d f9d6 a63e afa8 593e
00000200: 18ad a33e 718a ecbc c917 bcbe 6dc5 babd
00000210: 53f2 b03e 47ad 71be 35e1 85be c143 32be
00000220: 9029 91be d50a c03e b11c 51be 9980 a8be
00000230: 8517 2bbe 3d94 9e3e c8b4 863e d7e6 4b3c
00000240: a60b adbb 62ed 423d 522f a2bd 8f7e 3c3e
00000250: 613d 59be 2d51 113e 4dad c13e 0ad0 c13c
00000260: 36e0 c0be 05a2 bfbd 03dc 133d ea26 693e
00000270: f5c1 aa3e 6b92 1c3e 451e 403c e5e5 e13c
00000280: 858a cdbd 6a3a 65be cfcd c0be 2ded 853e
00000290: 5ba3 dc3b fe9d 36be 15ff a2be 874e 9f3d
000002a0: 2515 803c 76c0 b4be 0007 82be 737b 383e
000002b0: a1d9 c2be b046 65be 307c 0e3d 25f0 e83c
000002c0: 2b09 adbe 0d2b b4be 6906 be3e ff54 b6be
000002d0: 520e 623e 3e48 adbd ee2a bc3e 3c1c 083d
000002e0: 757f b5be 4a87 7b3d af26 d93d 6e50 b7be
000002f0: 8505 30be ea75 4ebe 9650 d33c 0291 8c3e
00000300: 47dc 283e 86b3 a4bd 6033 87bd 0fd2 723e
00000310: 6d6b 9fbe 3a06 a43d 7c4b 17be 8ccc 93be
00000320: 24bd a7bd c452 32bd 8357 f83d 4a88 a3be
00000330: 652f 1bbd 0b74 c2be 43ed b6be 054a 583d
00000340: af0b 9abd 2c3b cabe b585 9abc c705 06be
00000350: a771 873e 6000 713e 1b67 95be 4311 6abe
00000360: ff8d 3d3e b94f 923d 6fc2 a33e d7f0 c9bd
00000370: 2b66 11bd a7b5 10bd dfa6 823e b2d3 43bc
00000380: 2b4c fb3d 9044 10be 23ad b93d e51e 943d
00000390: 689b b23e d178 3b3d f34f 843e 80d6 dabd
000003a0: a794 2cbe 1b2c 7c3e b7be 5bbe e539 b7be
000003b0: aa27 803e e87a 9ebc dfae 42be 78d6 e9bd
000003c0: c503 fb3d 24a9 4abc 67b7 7bbd 8a40 3e3d
000003d0: e023 893e 9ab3 aabe ab92 b63e 9cbc 98bd
000003e0: 89bf 583e cd99 82be 24af 7abe f445 943e
000003f0: e7a7 95be 67bd b0be dbee c2bd 2d0a a23e
-0.03659601 0.10818507 -0.030069757 0.27019513 0.29376328 -0.026767993 -0.32787645 -0.25065416
0.2689998 -0.024836035 0.35263637 0.0032777502 -0.10133798 0.347679 0.14286767 0.22045429
-0.28993103 0.17915028 0.33508256 -0.1821906 -0.2909477 0.39590463 0.26902482 -0.24553654
0.008618184 0.2074476 -0.09248614 0.35932127 -0.09124743 0.34517327 -0.25747353 0.014513729
-0.14705738 -0.35209832 -0.12278715 0.37795305 0.046318807 -0.31074658 -0.011903876 0.34419405
-0.0402134 -0.37568554 0.11158977 -0.1980685 0.33839336 -0.06527305 0.013000448 -0.21657752
0.1680706 -0.077263124 -0.30514848 -0.13212506 -0.20350099 -0.24814937 -0.277055 -0.32329166
0.2347723 0.37337837 0.022197712 -0.17455636 0.15547428 0.092663385 -0.05131474 -0.04773536
0.24733397 0.18454935 -0.23236671 0.064039834 -0.04651004 -0.12094547 0.11520224 0.31627524
0.1479524 0.08375611 -0.015175408 0.049992625 -0.0051395097 -0.3025818 0.25563467 0.19890256
-0.023846002 -0.16987523 -0.19860628 -0.16158243 -0.19246534 -0.14446357 -0.12519138 -0.24026622
0.23195934 -0.2886119 0.21748133 -0.09120036 0.112955816 0.055657685 0.13033521 0.056424815
-0.27131465 0.03229734 -0.13498007 -0.24264938 -0.18182944 -0.010058548 0.20729767 -0.36259332
-0.024900245 0.31746593 0.011910971 -0.28971568 -0.14056282 -0.13058262 0.15188627 -0.052815244
-0.13868412 -0.29701567 -0.048938632 -0.12227822 0.22507456 -0.15016398 0.35984495 0.24869162
0.19596814 -0.059463613 0.19072403 -0.23630352 0.033238545 0.10079805 0.32585886 0.21255754
0.31967998 -0.028874608 -0.36736897 -0.09119687 0.3455988 -0.23601256 -0.26148382 -0.17408659
-0.28352022 0.37508264 -0.20421101 -0.32910612 -0.1670819 0.30972472 0.263098 0.012445173
-0.0052809296 0.047589667 -0.07919182 0.18407653 -0.2121482 0.14191122 0.3782753 0.023658771
-0.3767106 -0.09357075 0.03609849 0.22768751 0.33351102 0.15290229 0.011725967 0.027575443
-0.10036186 -0.22385564 -0.3765702 0.26157513 0.0067333407 -0.17833707 -0.31835237 0.0777865
0.015635082 -0.35303086 -0.25395966 0.18015842 -0.38056663 -0.22390246 0.034786403 0.028434822
-0.33796057 -0.35189095 0.37114266 -0.35611722 0.22075775 -0.08461045 0.36751503 0.03323005
-0.35448804 0.06140832 0.106030814 -0.3580355 -0.17189606 -0.20162168 0.025795262 0.27454382
0.16490279 -0.08042054 -0.06601596 0.23712943 -0.31136647 0.08009 -0.14774889 -0.28866994
-0.081903726 -0.043535963 0.121260665 -0.31939918 -0.037886996 -0.3797916 -0.3572789 0.052804966
-0.0752176 -0.3949827 -0.018862585 -0.13088141 0.26453897 0.235353 -0.29180226 -0.22858147
0.18511198 0.07144112 0.3198428 -0.0986039 -0.035497826 -0.035329487 0.25517938 -0.011952328
0.12270387 -0.14088655 0.09066226 0.07232455 0.3488419 0.045769516 0.25842246 -0.10685444
-0.16853581 0.246262 -0.2145947 -0.35786358 0.2503026 -0.019345716 -0.1901202 -0.1141786
0.12256578 -0.012369428 -0.061454203 0.046448268 0.26785183 -0.3334015 0.35658774 -0.074578494
0.21166815 -0.25507966 -0.24480873 0.2895962 -0.29229662 -0.34519503 -0.09518214 0.31648389

static_variable_selection.single_variable_grns.encoder_length.gate_norm.glu.fc.bias f4 [32]
00000000: 745d 973b 663a 22bc 2842 433c c8a7 ae3b
00000010: 424f b93b f1cd 15bd cd53 88bb 4fe2 083d
00000020: 1d37 f93c 6e11 e3bc 7265 973c 9a28 b83c
00000030: 5ac5 a13c c010 313c c16f 563c 00ea c9bc
00000040: 4b62 42bc 242b 80bc eedb 453c 9598 84bb
00000050: bcd7 62bb b647 a1bc 244e 113b aef6 de3c
00000060: 2418 fabc f62a f9bc 96e4 9fbc dc88 843c
00000070: 4521 57bc d769 8bbc 012f 123c 2f66 c1bc
0.004619295 -0.009901619 0.011917628 0.0053300597 0.0056552 -0.036573354 -0.0041603805 0.03341895
0.030421788 -0.027718272 0.01848099 0.022480298 0.019747425 0.010807216 0.013088168 -0.024647713
-0.011864255 -0.015645571 0.012076361 -0.0040465095 -0.003461345 -0.019687515 0.002217182 0.027217235
-0.03052909 -0.030415993 -0.019518178 0.01617854 -0.013130491 -0.017018242 0.008922339 -0.023608295

static_variable_selection.single_variable_grns.encoder_length.gate_norm.add_norm.norm.weight f4 [16]
00000000: d028 7d3f 9cc6 7b3f 7334 7f3f 38b5 7c3f
00000010: b7db 7f3f fab9 843f b9ea 803f d286 773f
00000020: f959 793f b855 783f e27d 803f c2f6 813f
00000030: 8292 7c3f ac17 813f 835e 803f 232b 833f
0.988904 0.9834993 0.99689406 0.9871402 0.99944633 1.0369256 1.0071632 0.96690094
0.9740291 0.97005796 1.0038416 1.015343 0.98661053 1.0085349 1.0028843 1.0247539

static_variable_selection.single_variable_grns.encoder_length.gate_norm.add_norm.norm.bias f4 [16]
00000000: acb6 3bbc 3803 83bc 98ec f5ba 03d3 37bc
00000010: 7e01 e03a 8390 10bd 857b ddbb 5436 043d
00000020: 74a4 cf3c f7ae 02bd 4add 6f3c fc3c 8e3c
00000030: fa79 323c db57 25bc 0aed 82ba 147a ccbc
-0.011457127 -0.015992746 -0.0018762527 -0.011219743 0.0017090288 -0.035294067 -0.0067591094 0.032278374
0.025346972 -0.03190514 0.014640162 0.017363064 0.010893339 -0.010091747 -0.0009988856 -0.024960555

static_variable_selection.single_variable_grns.cantidad_center.resample_norm.mask f4 [16]
00000000: d83d 94bc f7a3 b5bb 4261 723b 2b02 08bb
00000010: 451c 82bb e6ff b9bc 0df8 b0bc 3a67 1c3d
00000020: 5f49 623c 2d87 b83c 366c ae3a aacf a13c
00000030: d994 3bbd f7f4 81bc 2067 68bc 1bbe 87bb
-0.018095896 -0.005543228 0.003698424 -0.0020753245 -0.003970655 -0.02270503 -0.021602655 0.038184382
0.013811438 0.022525394 0.0013307396 0.019752342 -0.04579625 -0.015863879 -0.014184743 -0.0041425354

static_variable_selection.single_variable_grns.cantidad_center.resample_norm.norm.weight f4 [16]
00000000: 8aad 7e3f 3fa8 7e3f 4bd1 813f 0fa2 7f3f
00000010: a628 7f3f 2aab 813f 0d5f 7a3f 4406 843f
00000020: e28a 7c3f 7dde 843f 12e5 803f fd7b 823f
00000030: b2f3 773f c075 7b3f 40a3 7d3f 92ef 803f
0.9948355 0.99475473 1.0141996 0.99856657 0.996714 1.013036 0.97801286 1.0314412
0.9864942 1.0380398 1.0069907 1.0194088 0.96856225 0.9822655 0.99077225 1.0073111

static_variable_selection.single_variable_grns.cantidad_center.resample_norm.norm.bias f4 [16]
00000000: cd70 ffbb 8166 f7bb cee2 723c faf1 58ba
00000010: 7a16 66bb a6d5 c8bc 0655 09bc ecd4 0b3d
00000020: fb16 0d3d d28b 9ebc bd13 183c 9c8a cc3c
00000030: dab4 793a ca9f 563c 0757 a33b 3b83 a3bc
-0.0077954293 -0.007550061 0.014824582 -0.00082758034 -0.0035108612 -0.024515938 -0.008382088 0.034138605
0.034445744 -0.01935378 0.00928205 0.024968438 0.0009525545 0.01309962 0.0049847397 -0.019960037

static_variable_selection.single_variable_grns.cantidad_center.fc1.weight f4 [8, 8]
00000000: 519b 31be 1c2e 093f 8979 40be c52f cb3d
00000010: ef4e e6be 9a4c d9be 8ade 3f3e 6566 eb3e
00000020: 0ef1 fcbe 3bb6 d6be 79b9 e3be 5ef7 27bf
00000030: 09cf 143f 8ddc 333f 6882 c7be b906 753e
00000040: 6bc7 4ebf 4106 a03e 6b9e 143f a8b2 15be
00000050: e117 7a3d 2b43 a2bd 521f 533e 143c 893f
00000060: e598 c63e d913 813e 2298 0e3f f31b e9be
00000070: 7d54 3b3e e8c9 a0be a8d1 a73b 105a ab3e
00000080: 2cb8 e2be 17b9 0ebf ab25 103f 7b3e 86bf
00000090: e6c1 9ebe b382 0e3f ec0c 623e adcf d63d
000000a0: e305 70bd 8a0a 973e 99cb 52bf e0f9 5abe
000000b0: d62b b03d 2bbf 453e a9c3 ac3e e465 6d3f
000000c0: adc4 1cbf d6ad 963f 27b2 303f a414 2abf
000000d0: 2c87 8f3e a4b4 1dbf dc16 1d3f f540 6ebe
000000e0: 262d 0fbf f656 82be 40bc 063e cf92 0c3f
000000f0: 7f36 4d3e bfd2 843e fd32 8f3e ce14 ff3c
-0.17344405 0.5358598 -0.18796362 0.09921221 -0.44982097 -0.42441255 0.18737236 0.45976558
-0.4940266 -0.41935906 -0.44477442 -0.6561183 0.5812841 0.7025841 -0.3896668 0.23928346
-0.8077304 0.3125477 0.58054227 -0.14618933 0.06105793 -0.079229675 0.20617417 1.0721459
0.38788524 0.25210455 0.55700886 -0.45529136 0.18293948 -0.31404042 0.0051214285 0.3346715
-0.44281137 -0.55751175 0.56307477 -1.0487818 -0.31007308 0.5566818 0.22075242 0.1048883
-0.058599364 0.29500228 -0.82341915 -0.21384382 0.08602111 0.19311206 0.33743027 0.927336
-0.61237603 1.17718 0.6902184 -0.66437745 0.28032815 -0.6160376 0.61363006 -0.23266967
-0.55928266 -0.2545697 0.13157749 0.5491151 0.2004032 0.25942037 0.27968588 0.03113785

static_variable_selection.single_variable_grns.cantidad_center.fc1.bias f4 [8]
00000000: 503d 993c 803e 00bd 73fd a73c 1e50 093d
00000010: 69ca 083b 9bb3 14bd 324a 293b 29e0 4dbc
0.018705994 -0.031309605 0.020506596 0.03352367 0.00208726 -0.036304098 0.0025831577 -0.012565651

static_variable_selection.single_variable_grns.cantidad_center.fc2.weight f4 [8, 8]
00000000: 7c18 1abd 891e 863d 45c6 f7be b915 48bc
00000010: 5ce6 6d3e 4cf4 0ebf c6e1 03bf 18a4 d8be
00000020: f7e8 84be 5f70 2a3c dcb8 933e d12d c2be
00000030: 2bfa 243d b58a f9bd 59f0 f73e b62e 76be
00000040: ac8e d83e 5883 a93d 890e f0be 2d46 023f
00000050: 17af 113f b50d e4bd 7ffc a5bf 5740 5fbd
00000060: 7e56 82bd 688f 03bf 681c b13f 6b83 493c
00000070: f140 1c3f 3d0a 60bf 7854 8f3f ec6f 1f3e
00000080: 00ba 2e3f 5df6 b4be ccad 30bf 20a7 0fbf
00000090: 3ccf 813e 09b1 a13d b102 f5be e85e 48bd
000000a0: 15b8 6f3d c8e3 673f 2440 ce3d 1fb7 87bf
000000b0: 23d3 0e3e 2d2e d73e 1711 0bbe fbd8 f03e
000000c0: 5490 633e 266d ac3e ff72 083e 945a 02bf
000000d0: 0207 d4bd 4f2b 883f f859 15be fa1d b8bd
000000e0: c0e2 4d3f 50cb dc3e 5312 503e 18e1 733f
000000f0: a2f6 6abf cad1 3bbf 7d4f 2abc 9f00 97be
-0.037621006 0.06548793 -0.48393455 -0.01221221 0.23232406 -0.5584152 -0.5151638 -0.42312694
-0.25958988 0.010402768 0.28851974 -0.3792558 0.04027764 -0.121846594 0.48425558 -0.24041256
0.4229635 0.08277005 -0.4688609 0.5088833 0.5690779 -0.11135427 -1.2967681 -0.05450472
-0.06364153 -0.51390696 1.3836794 0.012299399 0.6103659 -0.8751562 1.1197653 0.15570039
0.68252563 -0.3534421 -0.69015193 -0.5611439 0.2535342 0.07895095 -0.47853616 -0.048918635
0.058525164 0.9058194 0.100708276 -1.0602759 0.1394773 0.42027417 -0.13580738 0.47040543
0.22223026 0.33677024 0.13325118 -0.5091946 -0.10352899 1.0638217 -0.14585102 -0.089900926
0.8042412 0.43123865 0.2031949 0.9526534 -0.9178258 -0.7336699 -0.010394928 -0.2949266

static_variable_selection.single_variable_grns.cantidad_center.fc2.bias f4 [8]
00000000: c0d1 04bc 87cf b1bc 7282 013c d375 f83c
00000010: 9395 e23c 4708 febc d9f4 8abc f648 8b3c
-0.008106649 -0.021705402 0.007904636 0.03032962 0.027659213 -0.031009806 -0.016962456 0.017002564

static_variable_selection.single_variable_grns.cantidad_center.gate_norm.glu.fc.weight f4 [32, 8]
00000000: 00e8 01be 66fc 343e cbca 0abd 6a6b 8bbe
00000010: 6ec5 fdbd 7f83 bd3e 42f2 98be 3761 82be
00000020: ba62 863e e5af c83d 36d9 b7be e68c 063c
00000030: bc8a 863e 191a 8ebd 6408 cd3d af67 55be
00000040: 09bb 6abd 1133 adbe 859b 15be 9350 9abd
00000050: 38ba 34be 6bd6 393e 0142 a93e 0155 3d3e
00000060: 701e a23e 791b 663e 87ee 483d 0a60 43bd
00000070: e2bb 513e cfb9 e23d 32b8 d9bd 7b43 373d
00000080: 3c5c 83be 2e26 81bd 2422 aabe 6176 82bc
00000090: cfe0 48be dba5 5cbe dbac a43b b1ae a5be
000000a0: 0cf4 05be 7a7a 623e 84b6 a5bd 7f06 9ebe
000000b0: 9b6b 883e 6455 ca3e 88c0 b53c 125b 953d
000000c0: 62ae 6b3e aa1a d2bd 670f 133c f950 633e
000000d0: 3814 c03e 573c d2bd d80d 823e d491 393e
000000e0: 7995 473e 5bd7 513e bc8b 04be 4a8c c33d
000000f0: f503 8bbd c5a9 76be a323 d53d 9365 943e
00000100: 0ff3 61be b24d 86be 1788 ad3e c449 0f3e
00000110: 8e7c 423e 7446 8bbe 521b 9abd aa7d 46bd
00000120: 43f7 c63e 460b 4fbe bf23 623e 8156 45be
00000130: 0bbb 96be d690 b03c 3e7d acbd bcde 10be
00000140: 4eaa a6be 2e60 5f3e 5497 bc3e 9ae7 42be
00000150: 8a08 08be ef4e c43e a810 acbe 42e8 30bb
00000160: 2aeb 8c3e e4c4 30be 6428 a3be 4f56 d23d
00000170: 248e e3bd 5f74 63be 2043 91be a84b 973e
00000180: 6385 4ebe 02d2 4abe 3acc 813e e54c 9dbe
00000190: 059b 713d 0320 8a3e 9684 b8be b9b2 a33a
000001a0: 979a afbe ce65 bb3e 5b12 87be fd1f 6a3c
000001b0: fe92 a53e ffa1 c3be 8571 35be 9ae7 53be
000001c0: a87a 2e3e bd68 63bd 539f 7dbd 996b 353e
000001d0: 1ea7 7f3e 5ef0 97be c7fe a63c dc46 1d3e
000001e0: 72e0 07be d094 283e 34c6 5b3d ff1e 5bbe
000001f0: c1ac e3bd caed 7dbd 5b6d ab3d 54b5 bb3e
00000200: f575 83be 0216 b93d 90b1 97bd 088a 1dbe
00000210: 9b2d 4f3c c5d9 80be dc88 9cbd b5dd babd
00000220: ade4 9abe d0a9 973e 12b6 bbbe 6d9e 473e
00000230: e7e8 b83d db3b 843e 686a b3be 3cd9 443e
00000240: 4d9a 96be 7780 2cbc 94a4 893e ee0f 2a3e
00000250: 8b75 583e 7be7 a73e ea8f b13e 3527 9bbe
00000260: dc2e 343e aeaf 7ebe ccf8 113d a6ed 8f3e
00000270: 0eff bfbe eb4c 4c3e 5dda 5cbe 5cd8 3abe
00000280: 8453 163d ab46 4abe 6227 1c3d dc8c 7fbe
00000290: d643 6dbe 2c11 453e ac76 003c d5ff 973e
000002a0: 498e 703e 53a5 abbe cf39 b13e a1eb bfbe
000002b0: 3f30 c23e 5200 adbe 807c ecbd 8714 903e
000002c0: aa16 933d 5fb3 e2bd 48d4 c8bd eaea 033e
000002d0: 9e3e 7fbe bc29 25be 8b03 893e 8b87 49be
000002e0: 5fe8 0fbe 5c05 963e 3e36 98bd eb2b 1d3d
000002f0: 9067 243e fc7e 85be b505 a53e 9adf 9bbe
00000300: 1f8c af3e 914f 973e a655 38bd 42fb f23d
00000310: 625b 893e f520 82be 723e 36be db82 06be
00000320: c4b3 593e 4384 9a3e ef4a 15be 6081 343e
00000330: f91e 7a3e 8e3a 963e cf3b 4c3c 2a4a 1bbd
00000340: 731b 633e 1c5b 413e ca40 fcbc 6ca3 f5bd
00000350: 13f2 a9be 1f30 333e c13d 2abe 7df6 593e
00000360: a9bb b03e c974 adbe 0215 41be 9f77 663d
00000370: a8f8 b5be 356d 6fbe afa6 ad3e 13fd 9dbd
00000380: 59db 353e 3a83 433e 0fa4 90be aa1a 77be
00000390: 7588 473e f4d4 a33d 0244 9cbe 6ad3 1b3e
000003a0: 3ea3 71be 9b70 733e 3294 79be 6bca 8f3b
000003b0: c36b 5cbe 8dea 8dbe e7aa 8d3e c9b3 703d
000003c0: 96e0 833e 0c9a dbbd 3af8 aa3e 9007 b2be
000003d0: 62d2 f9bd 5aa3 603e f7d6 a23e 161b 053d
000003e0: bbc5 aa3e 8184 5cbe 8e00 79be 6673 39be
000003f0: fa3d b6be b22c c13e 684c 92be ad45 803d
-0.12686157 0.17674407 -0.033884805 -0.27230388 -0.12391172 0.37014386 -0.29872328 -0.25464794
0.26247197 0.09799174 -0.35907906 0.008212304 0.2627772 -0.069385715 0.10011366 -0.20840333
-0.057307277 -0.33828023 -0.14610107 -0.075348996 -0.17649162 0.181482 0.3305817 0.18489458
0.31663847 0.22471417 0.049055602 -0.04769901 0.20481828 0.110705964 -0.106308356 0.04474209
-0.25656307 -0.0630611 -0.33229172 -0.015925588 -0.19617008 -0.21547644 0.005025489 -0.3235984
-0.13081378 0.22117034 -0.08091453 -0.3086433 0.26644596 0.39518273 0.022186533 0.07292761
0.2301574 -0.10258992 0.00897584 0.22198857 0.37515426 -0.10265415 0.25401187 0.18122035
0.19490613 0.20492308 -0.1294393 0.095482424 -0.06787864 -0.240882 0.10407188 0.28983745
-0.22065376 -0.26231152 0.3389289 0.13992983 0.18992826 -0.2720219 -0.07524742 -0.048459686
0.3886052 -0.20219144 0.22083949 -0.1927128 -0.29439577 0.021553438 -0.084223256 -0.14147466
-0.32551807 0.21814033 0.36834204 -0.19033661 -0.13284507 0.38341472 -0.33606458 -0.0026993905
0.27523166 -0.17262608 -0.31866753 0.10270368 -0.111110955 -0.22212361 -0.28371525 0.2954991
-0.2016807 -0.19806674 0.25351125 -0.30722728 0.05898573 0.26977548 -0.36038655 0.0012489177
-0.3429763 0.36601108 -0.26381192 0.014289853 0.3233871 -0.3820953 -0.17719086 -0.20693818
0.17038977 -0.055519808 -0.06191952 0.17716826 0.24966094 -0.29675573 0.02038516 0.15359062
-0.13269213 0.16463017 0.053655818 -0.21398543 -0.111169346 -0.06199435 0.08370467 0.3666178
-0.25675932 0.09037401 -0.07406914 -0.15384686 0.012645151 -0.25166145 -0.07643291 -0.091243185
-0.3025259 0.29621744 -0.36662346 0.19494028 0.090287976 0.25826916 -0.3504212 0.19223493
-0.29414597 -0.010528675 0.26883376 0.16607639 0.21138589 0.32793793 0.3468011 -0.3030335
0.17596 -0.24871704 0.03563766 0.28111 -0.3749928 0.19951217 -0.21567674 -0.18246597
0.03670074 -0.1975352 0.038123496 -0.24956077 -0.23170409 0.19244832 0.007840794 0.29687372
0.23491777 -0.3352457 0.34614417 -0.37484458 0.37927434 -0.33789307 -0.11547184 0.2814066
0.07182057 -0.110693686 -0.098061144 0.12882581 -0.2492623 -0.16129202 0.26760516 -0.19680612
-0.14053486 0.29300964 -0.07432221 0.03837196 0.16055131 -0.26073444 0.32230917 -0.30444032
0.3428659 0.29552892 -0.045003556 0.1186433 0.26827532 -0.2541577 -0.17797258 -0.13135855
0.21259981 0.30179033 -0.14579366 0.17627478 0.24425878 0.2934155 0.012465431 -0.037912525
0.2217844 0.18882412 -0.030792613 -0.11994061 -0.331925 0.17498825 -0.1662512 0.21285434
0.34518173 -0.33878163 -0.1885567 0.056266423 -0.35541272 -0.23381503 0.33916232 -0.07714286
0.17759456 0.19093028 -0.28250167 -0.24131265 0.19485648 0.07999602 -0.30520636 0.15217367
-0.23597428 0.23773424 -0.24372938 0.004388144 -0.21525483 -0.2771801 0.2766945 0.058765206
0.25757283 -0.107227415 0.33392507 -0.34771395 -0.121983305 0.21937314 0.3180463 0.032496534
0.3335398 -0.21534921 -0.24316618 -0.18110427 -0.3559416 0.37729412 -0.28573918 0.062632896

static_variable_selection.single_variable_grns.cantidad_center.gate_norm.glu.fc.bias f4 [32]
00000000: 21e3 86bb 9f2a 07bc 61f2 703c b47d 8239
00000010: 9129 85bb e397 cbbc 9b9c 12bc 63bc e83c
00000020: 0bdc fe3c 2b39 7abc b946 353c f2a2 e83c
00000030: 9b50 173a b78c 1e3c 64ef fc3b 9ce0 a3bc
00000040: 08bf 653c 107f 50bc d290 c43c 23d8 363c
00000050: 6e2e b6bb 9449 20bc 7192 bbbc 0026 063d
00000060: ef43 82bc b871 b23a 0210 28bc a47b 693c
00000070: 511a 3d3c a09e 87ba ada9 4dbb 38ef afbc
-0.0041164313 -0.008249908 0.014706225 0.00024889188 -0.004063793 -0.024852699 -0.0089484705 0.028410142
0.031110784 -0.015272419 0.011064225 0.02839801 0.0005772204 0.009677104 0.0077189673 -0.020004563
0.014022596 -0.012725607 0.023994837 0.011159929 -0.005559734 -0.009783167 -0.022896977 0.032751083
-0.015901534 0.0013614213 -0.010257723 0.01425067 0.011541919 -0.0010346957 -0.0031381652 -0.021476373

static_variable_selection.single_variable_grns.cantidad_center.gate_norm.add_norm.norm.weight f4 [16]
00000000: 9f04 803f 75f6 793f a214 803f 0e95 7b3f
00000010: 6764 7a3f 9476 813f 1485 793f 8663 823f
00000020: abb4 7a3f 1989 823f d3b9 7c3f d166 823f
00000030: 6256 793f cfea 7d3f ea34 7e3f a4c1 7f3f
1.000141 0.9764169 1.0006297 0.98274314 0.9780945 1.0114312 0.97468686 1.0186622
0.9793193 1.0198089 0.98721045 1.0187627 0.97397435 0.99186414 0.9929949 0.9990485

static_variable_selection.single_variable_grns.cantidad_center.gate_norm.add_norm.norm.bias f4 [16]
00000000: 23bd 4bbc f882 42bc 092e 203c 2219 96bc
00000010: 81b0 85bc 2f5a b8bc f510 4cbc fa0d ef3c
00000020: 225b 023d 6701 9bbc e95a 5a3b 619a d43c
00000030: 8eda 6bbb 3090 353b bcce 743b b7f2 abbc
-0.01243523 -0.011872046 0.009776601 -0.018322531 -0.016319515 -0.02250394 -0.012455215 0.02918147
0.031825192 -0.018921567 0.0033318347 0.02595252 -0.0035988423 0.002770435 0.0037354669 -0.020989759

static_variable_selection.single_variable_grns.cantidad_scale.resample_norm.mask f4 [16]
00000000: d3dc c8ba f45a c9ba 48c9 a5ba db1d c4bb
00000010: 6fa3 923b 77da 393c 238b 5dbc 5734 76bb
00000020: c7c0 bf3c 0263 e2bc ae46 e3bb 94f2 c03c
00000030: 56d3 bb3c 847a 643b c9e0 eabb 092c 6c3c
-0.00153246 -0.0015362189 -0.0012648487 -0.0059850044 0.004475049 0.01134359 -0.013521942 -0.0037567818
0.023407353 -0.027635101 -0.006935916 0.02355317 0.022927921 0.0034863064 -0.0071679098 0.014414796

static_variable_selection.single_variable_grns.cantidad_scale.resample_norm.norm.weight f4 [16]
00000000: 60e0 803f 4227 7f3f 2aab 7c3f 031f 7e3f
00000010: 60c4 813f 82da 823f e00b 7c3f 52c5 7a3f
00000020: cce1 813f 6d22 773f a11f 7f3f a147 823f
00000030: aff5 803f f6b0 7e3f ed8b 7c3f 6487 813f
1.0068474 0.9966928 0.98698676 0.9926607 1.0138054 1.0222933 0.9845562 0.97957337
1.0147033 0.96536905 0.99657637 1.017811 1.0074977 0.9948877 0.9865101 1.0119443

static_variable_selection.single_variable_grns.cantidad_scale.resample_norm.norm.bias f4 [16]
00000000: 1b1f 97bc 36ed 27bc 3735 8e3c 929f 1b3b
00000010: 1182 4738 d3fd 5dbc 2b30 aabc 4f14 a33c
00000020: db75 9f3c 129d bdbc e272 f8bb 362e 013d
00000030: 9837 653c 96ab e13b 2670 9b3c 1203 4e3b
-0.01844745 -0.010249427 0.01735936 0.0023746234 4.756643e-05 -0.013549286 -0.020774921 0.019907145
0.019465378 -0.023146186 -0.0075820545 0.03153821 0.013990305 0.0068869097 0.018974375 0.0031434936

static_variable_selection.single_variable_grns.cantidad_scale.fc1.weight f4 [8, 8]
00000000: a10f 29be 19a3 0f3f cbf3 9abe 0046 80bf
00000010: 3226 c4be e442 a1bf 502f 0ebf 88eb 223d
00000020: 4f7b 613e 306b 40be 83b7 2bbf 3f8d 5d3f
00000030: deed b33e b81c 68bd 5b6c 81bc 0091 643e
00000040: 4d9a ed3e 4309 28bf b8a2 d7be 5014 a3be
00000050: 4154 563f 57ee 7bbe f0e7 c0be 212a b73e
00000060: ca9d 393f d2cc dabe 2e92 033f 33fb e2be
00000070: 5a4b 0b3f be14 07be ba80 cd3e da62 4fbf
00000080: b694 693e 710c 793f 54b3 bc3f 8275 20bf
00000090: be3c 653e 5576 c2be 9b75 0d3e bdfc 21be
000000a0: d63d bd3e d117 c7be 1959 56bf a464 0dbf
000000b0: a41d a4bc 3f1c e43e 53f8 07bf 8061 a43e
000000c0: 9736 62be ad62 573f bbdf 0cbf 07e9 d13e
000000d0: b6e3 0e3d f6e7 10bf 7a0d 963e c0d8 b4be
000000e0: 5050 5abf 3795 713f e45c 4f3d 0467 8ebb
000000f0: 7bde 6e3e b60b e73d 75a7 93be 5a54 bd3e
-0.16509868 0.5610824 -0.30264124 -1.0021362 -0.3831039 -1.2598538 -0.55540943 0.0397754
0.22019695 -0.18790889 -0.6707689 0.8654365 0.35142416 -0.056668013 -0.015798738 0.22320938
0.46406785 -0.6563913 -0.42116332 -0.31851435 0.8372231 -0.24602638 -0.37676954 0.3577433
0.7250639 -0.4273439 0.5139493 -0.44332275 0.5441185 -0.13191506 0.40137273 -0.8101021
0.22810635 0.9728461 1.4742227 -0.626793 0.22386453 -0.37980905 0.13814394 -0.15819068
0.3696124 -0.38885358 -0.837297 -0.5523169 -0.020033665 0.445528 -0.5311329 0.32105637
-0.22091137 0.8413494 -0.55028886 0.40998098 0.03488513 -0.56603944 0.29307157 -0.35321617
-0.852788 0.9436831 0.050625697 -0.0043457765 0.23327057 0.112815306 -0.28838697 0.36978418

static_variable_selection.single_variable_grns.cantidad_scale.fc1.bias f4 [8]
00000000: 6626 64bc bb65 023c 072f 943a 3cbc e33c
00000010: d1fb 82bc 60df 3c3b 5685 a73c 9327 4d3c
-0.0139251705 0.007958825 0.0011305519 0.027799718 -0.015989216 0.0028819665 0.020449322 0.012521642

static_variable_selection.single_variable_grns.cantidad_scale.fc2.weight f4 [8, 8]
00000000: a0cf b1bd ca29 82bf 154c b6be 3f71 5f3e
00000010: 5b21 ec3d b1cd 863f ae23 3dbd 38f9 b3be
00000020: d953 afbb 2e9e 6d3e 6d71 edbd c8a0 c6be
00000030: c90d 123e 7fe5 94be 4e98 2abf 9961 273e
00000040: 2940 873e fa9e f53e a803 ee3e 6518 e13e
00000050: 0f76 823e 5454 263f dac0 223f 06ac 893e
00000060: 309b b9be aef7 debe 45e2 8dbf f783 bebe
00000070: 16cd 2dbe 5fc0 eebe 1406 93bd 3abc b93d
00000080: a338 7f3d 022f c6be 7141 e13e 4f5d 893d
00000090: 67d4 85bd 95b6 dd3d c71c c53e c232 87be
000000a0: 3b89 213f 416b 233f d415 753f 2403 cabe
000000b0: a8bf a6bc 8a29 e43e 4a88 e9be 0be6 d3bd
000000c0: 672d 693e 9f8b c9be ca3f e33e 8e21 72bf
000000d0: ed1a 373f b14c a23e 3984 4bbf e712 2ebf
000000e0: 8c4f 30bd e16e 143f 928a 4c3f 2151 e23c
000000f0: c9e0 41be d724 a7be 342e 7d3e 0ca8 5fbe
-0.086821795 -1.0169003 -0.3560492 0.21820544 0.115297996 1.0531522 -0.046176605 -0.35151076
-0.0053505716 0.23204872 -0.115939 -0.3879454 0.14263071 -0.29081342 -0.6663865 0.16345824
0.26416138 0.47972852 0.46487164 0.43963924 0.25480697 0.64972425 0.6357552 0.26889056
-0.3625121 -0.4354834 -1.1084677 -0.37210056 -0.16972765 -0.46631142 -0.07178894 0.090691045
0.062309872 -0.3870774 0.4399524 0.0670725 -0.06534653 0.108258404 0.38498518 -0.26405913
0.6310002 0.6383553 0.9573643 -0.3945552 -0.02035506 0.44562942 -0.45611793 -0.103466116
0.22771226 -0.39364335 0.44384605 -0.9458245 0.7152546 0.31699136 -0.7949863 -0.6799759
-0.04304461 0.5798169 0.7989894 0.027626576 -0.18933405 -0.32645294 0.24724656 -0.21841449

static_variable_selection.single_variable_grns.cantidad_scale.fc2.bias f4 [8]
00000000: 0c32 9e3a d9c7 98bb 267a 483c 1a8d d8bb
00000010: 777e c23c e004 c2bc a195 93bc 8f67 1f3c
0.0012069358 -0.0046624956 0.012236154 -0.0066086175 0.023741944 -0.023683965 -0.018015685 0.00972928

static_variable_selection.single_variable_grns.cantidad_scale.gate_norm.glu.fc.weight f4 [32, 8]
00000000: 8ea7 2c3e 5e92 59bd 155f 303e a6f3 a1be
00000010: 824e 633e 3ac6 4e3e 038e 9b3d 1b46 74be
00000020: aaca afbe 1bbe cd3c 7671 4d3e 2f8b a2be
00000030: f8b1 aa3e 2d22 0a3e ce6f a73d ba85 aebd
00000040: f63c 75be c7ea ab3e a368 3a3e 6d10 003e
00000050: e226 693e cfb5 163d a7f7 c5be 0fee ca3e
00000060: 12a0 743d cbc7 033e 625d 3a3e 912d 8cbe
00000070: 3dcf c13e 2aaa 1f3c d1f8 993e d47f a23e
00000080: 375f 8c3d 0ce8 92be c1ee 9b3e fc8b dfbd
00000090: 613f d8bc 1e5e 233e 498a f6bd 88de 43be
000000a0: e6e4 923e d449 9d3e b90e 8c3d 39bf a0be
000000b0: b0e3 a73e 16a7 8cbe fe3b 21be 4f08 79be
000000c0: dd5f 0ebe cbd4 31be 6576 65be 6a18 a13d
000000d0: 4419 553c 9e91 b63e 3a47 d9bd add2 89be
000000e0: e87b d0bc 9c3d a53e 7667 95bd f3c3 c5be
000000f0: e619 9e3e d0a3 bebd 639d 5abe b0ba b0be
00000100: c731 683d 304d bfbe cfb0 7d3e 94f3 1e3e
00000110: 3072 8cbe 5ff8 34bc 3921 763e ace2 aebd
00000120: 5301 3fbe e310 0cbd b4ba 42bd 370f c83e
00000130: a639 8cbe 234a 9a3e 57f5 8f3e 6f0b 4f3e
00000140: bdf3 893e 97c2 2abe 3a7c 903e 0718 c8bd
00000150: b41c 28be c0d9 b03e 7fa0 7b3e 6016 bdbe
00000160: 7edc ca3d 0d4f a0be b2c7 fc3c c9bc 2bbd
00000170: c70f 9c3e 5a46 003e ea68 7bbc 6b8e a53d
00000180: 6f1a aebd 916e bfbc b9e5 323e 7e81 b1be
00000190: 23c3 98bd 534b 9ebd bf11 73be 5859 89be
000001a0: 6f0c b53c 925c 803c e223 853d 2ef7 1ebe
000001b0: 4925 04be 0de9 60be e460 8d3e 7bdf ae3c
000001c0: 2219 c1bc 173a 4a3e 0ea2 e03c 25de f93d
000001d0: 7c14 aa3e 3b69 a93e 999c 8abe 1172 8a3d
000001e0: 7205 40be b85b 12be 194f 8e3e 6320 343e
000001f0: 120e d13d d60b c9bd 6727 a3be 0ffc 96be
00000200: 5d3e b23e 8cb9 3ebe 2f78 0c3e 5956 7cbe
00000210: 061e bebd f0bd bebe 683a 213e 43e8 813e
00000220: 2314 813e 3181 b6be aec1 b9be a561 913d
00000230: 41e6 9b3e a00b 803e 3232 373e 1bcd f93c
00000240: f799 a9be 25cc 503e 5928 80be 2927 b5bd
00000250: d9b1 5cbe b367 043e 3128 68be 8672 1abe
00000260: 5128 9f3e 38e5 803e ee88 92bc 161a 883e
00000270: 52dc 8ebc 93b9 953e b1b8 9a3e 0441 6f3e
00000280: da3f 503e 2423 a23e c761 d43c 65bc 45be
00000290: 4bf8 8c3e df69 ac3e b1ca b33e a835 50be
000002a0: c276 883d 3e06 c73d a98b 563e a3a1 9fbd
000002b0: a7ae 5fbe 686f 533e 90d9 ba3b eb31 093e
000002c0: da07 e0bd 9172 bcbe 52f1 a33c 06de 39be
000002d0: 6e87 b2be d63a 773e 6c74 b33e 4217 5ebd
000002e0: ceb9 b9be 71f5 87be 426b 0a3e b380 883d
000002f0: 0aa7 80be a447 123e 888a a13e f76f 61be
00000300: d727 a53d f28b 28be 4326 013e 58c9 aabd
00000310: db22 b63e 9e0c fcbd e3ea 463d 6d47 21be
00000320: 2352 2f3d e58f 923e 66ea 5ebe be39 76be
00000330: 11dc 503e 54d9 c33d 3501 a4be 715a 97be
00000340: d09a 5f3e a9d5 11be 35a8 8bbe edb9 443e
00000350: 369e 13be 8ec6 83be 4722 3dbe d0d9 5abe
00000360: a7ab c3bd da35 70be aa0a 8cbe 4d3c 813d
00000370: e376 2b3e fa86 6bbc bb2c aebd 9297 27be
00000380: 5aac b5be ef48 f5ba 9495 22be 1214 26be
00000390: 350c 3c3e 70c3 c13e 6d69 0abe 5b24 babd
000003a0: 32a4 20be f183 cbbe 10e6 763e 5f5c 9d3e
000003b0: 93e1 a0be b9f1 ae3e 98da 3dbe 84eb b9be
000003c0: 6389 05be d2b2 1bbe 60a8 26be fdb3 a23e
000003d0: d72a 423e 090a 7abe 2f54 88bc 5328 a73d
000003e0: 7f6e 913d 5f8d b23c c780 76bd 3189 b6be
000003f0: 1bb7 3abe bd7b 263e f750 92be 5ac3 92be
0.16860792 -0.053118102 0.17223771 -0.31631202 0.22197917 0.20192805 0.07595446 -0.23854868
-0.34334308 0.025115063 0.20062813 -0.31746814 0.33338904 0.134896 0.08175622 -0.085216
-0.23949036 0.33577558 0.18203978 0.12506266 0.22768739 0.03679448 -0.38665506 0.3963475
0.059722967 0.12869184 0.18199685 -0.27378514 0.37853423 0.00974516 0.30072644 0.3173815
0.06854098 -0.28692663 0.30455592 -0.10915372 -0.026397409 0.15953872 -0.120380946 -0.19127858
0.2869026 0.3072039 0.068387456 -0.3139589 0.327909 -0.27471226 -0.15745541 -0.24319576
-0.13903756 -0.1736633 -0.22408445 0.07865985 0.013006512 0.35657972 -0.106092885 -0.26918545
-0.025449708 0.32273567 -0.07295124 -0.3862606 0.30879134 -0.093085885 -0.21349101 -0.3451743
0.056688096 -0.37363577 0.24774478 0.15522605 -0.27430868 -0.011045544 0.24036111 -0.08539328
-0.18652849 -0.034195792 -0.047541335 0.39074108 -0.27387732 0.30134687 0.28116867 0.20219205
0.2694377 -0.16675793 0.28219777 -0.09770208 -0.164172 0.3454113 0.24572943 -0.36931133
0.09905337 -0.3131031 0.03085694 -0.041928086 0.30480787 0.12526837 -0.015344838 0.08083805
-0.085011356 -0.023368152 0.17470445 -0.34669107 -0.074590944 -0.07729211 -0.23737238 -0.26825976
0.022100655 0.015669141 0.06500985 -0.15523979 -0.12904848 -0.21963902 0.27612984 0.021346798
-0.023571555 0.19748722 0.027421024 0.12200574 0.33218753 0.33088097 -0.270726 0.06760038
-0.18752077 -0.142928 0.27794722 0.1759048 0.10207762 -0.09816711 -0.31866 -0.2948918
0.34813204 -0.18625468 0.13717721 -0.24642314 -0.0928307 -0.37254286 0.15744936 0.25372514
0.25210676 -0.3564544 -0.36280578 0.07098702 0.30449107 0.2500887 0.17890242 0.03049331
-0.33125278 0.20390375 -0.25030783 -0.0884536 -0.21552218 0.12930183 -0.22671582 -0.1508275
0.31085446 0.2517488 -0.017887559 0.26582402 -0.017439041 0.29243144 0.30219033 0.23364645
0.20336857 0.31667435 0.02592553 -0.19310148 0.27533183 0.33674523 0.3511558 -0.20332968
0.06663276 0.097179875 0.20951714 -0.07794502 -0.21843968 0.20647967 0.005702205 0.13397948
-0.109389976 -0.36806157 0.020012531 -0.18151101 -0.3486895 0.24143538 0.3504976 -0.0542214
-0.3627457 -0.26554444 0.13517478 0.066651724 -0.2512744 0.14285141 0.31551003 -0.22015367
0.080642395 -0.16459635 0.12612252 -0.083391845 0.35573468 -0.12307094 0.04856385 -0.15749903
0.04280294 0.28625408 -0.21769103 -0.24045464 0.20396449 0.095629364 -0.3203217 -0.2956119
0.218364 -0.14241661 -0.2727677 0.1921155 -0.14415821 -0.25737423 -0.18470107 -0.21372151
-0.095542245 -0.23458043 -0.27351886 0.063103296 0.1674457 -0.014375443 -0.085046254 -0.16366413
-0.35483056 -0.0018713753 -0.15877372 -0.16218594 0.18364032 0.3784442 -0.13516779 -0.090889655
-0.15687636 -0.397491 0.241112 0.30734536 -0.314221 0.34168795 -0.18540418 -0.36312497
-0.1304069 -0.15204933 -0.16275167 0.31777945 0.18961655 -0.2441789 -0.016641704 0.08161988
0.071011536 0.021795927 -0.060181405 -0.35651544 -0.18233912 0.1625814 -0.28577396 -0.28664666

static_variable_selection.single_variable_grns.cantidad_scale.gate_norm.glu.fc.bias f4 [32]
00000000: 7f1d b3bc 2a54 3abc 5079 923c 09a5 cf3a
00000010: 988d a63b 8941 64bc f262 9fbc b921 903c
00000020: d02e 983c db3b a4bc 6add 35bc 71e0 f83c
00000030: cb37 363c 1fd5 a23b bc78 923c fabf 813b
00000040: b494 7f3c b395 4dbc a8cd 993c 16b8 9f3b
00000050: 9687 843c 7689 aabb 5f8b 8ebc 2575 d63c
00000060: 10b1 7b3c d70e 173c 0444 3c3c 889b a5bc
00000070: 1775 cf3c 2330 d5bb 010e 733c ab76 0c3c
-0.02186465 -0.011372605 0.017880112 0.0015842031 0.0050827973 -0.01393164 -0.01945636 0.017594205
0.01857701 -0.020048073 -0.0111001525 0.03038046 0.0111217005 0.0049692537 0.017879836 0.003959653
0.015599418 -0.012547898 0.018774822 0.0048742397 0.016177934 -0.005204375 -0.017400442 0.026178906
0.015362039 0.009219847 0.011490826 -0.020215765 0.025324387 -0.0065059825 0.014834882 0.0085732145

static_variable_selection.single_variable_grns.cantidad_scale.gate_norm.add_norm.norm.weight f4 [16]
00000000: 796c 7f3f b8ff 7e3f a108 823f f34e 7d3f
00000010: 1eb2 823f 267d 833f 200c 7f3f 836b 7c3f
00000020: 609a 823f 6111 7a3f 7db6 803f ee0a 803f
00000030: b2c4 803f a4c6 7c3f 5dee 7e3f e4ab 823f
0.9977489 0.99608946 1.0158883 0.9894859 1.0210607 1.0272567 0.99627876 0.9860155
1.0203362 0.9768277 1.0055691 1.0003335 1.0060027 0.987406 0.99582464 1.0208707

static_variable_selection.single_variable_grns.cantidad_scale.gate_norm.add_norm.norm.bias f4 [16]
00000000: f3f6 68bc 135f efbb d977 9d3c d9d9 54ba
00000010: 1938 98bb 73cd 7ebc 7a7a 96bc c607 203c
00000020: 1af2 953c fd87 adbc 7959 08bc 4f1c 093d
00000030: 6700 393c d226 f13b 357f 8e3c ff85 4abb
-0.0142190335 -0.007305035 0.019222187 -0.000811962 -0.0046453592 -0.015551913 -0.018368948 0.009767478
0.01830392 -0.021183008 -0.008322113 0.033474263 0.0112916 0.007359364 0.017394641 -0.0030902622

static_variable_selection.prescalers.encoder_length.weight f4 [8, 1]
00000000: 6855 b03e 6271 cd3e af70 ca3e efdc 2abf
00000010: e0f0 233f 3455 5e3f d5f1 48bf 87ec c3be
0.3444016 0.40125567 0.39539096 -0.6674337 0.6403942 0.8684876 -0.78494006 -0.38266394

static_variable_selection.prescalers.encoder_length.bias f4 [8]
00000000: 680c bfbe 040f 763f 826c 52bf 1d9b 2bbf
00000010: bc28 55bf 49ec c33d b72e 64bf ae47 6fbf
-0.37314153 0.9611666 -0.8219682 -0.6703356 -0.8326528 0.09566552 -0.8913378 -0.9346875

static_variable_selection.prescalers.cantidad_center.weight f4 [8, 1]
00000000: 392b b6be c0fc e73e 6581 0fbf 09be c1be
00000010: fbb4 153f c2f4 413e 4a1a 243f d30a 46bf
-0.3557985 0.4531002 -0.56056815 -0.37840298 0.5847928 0.18941024 0.64102614 -0.77360266

static_variable_selection.prescalers.cantidad_center.bias f4 [8]
00000000: 4fbd 5c3e f55d 783f 6360 8e3e fa6b 2d3f
00000010: 4174 99be 855e 123f 5701 23bf 7d17 fc3e
0.2155659 0.9701837 0.27807912 0.67742884 -0.29971507 0.57175475 -0.6367392 0.4923667

static_variable_selection.prescalers.cantidad_scale.weight f4 [8, 1]
00000000: f36d cfbe c373 76be 9953 cfbc d764 5e3f
00000010: 9f1b 54be afba 27be db3b d8be 9b78 1b3e
-0.40513572 -0.24067597 -0.025308417 0.8687262 -0.20713662 -0.16379808 -0.42233166 0.15182726

static_variable_selection.prescalers.cantidad_scale.bias f4 [8]
00000000: 8493 4b3f e315 6a3f b809 0cbd de0b 3dbf
00000010: edd7 203f 6890 3e3f 56fa 6c3e e360 2dbc
0.79521966 0.91439646 -0.034188956 -0.7384623 0.62829477 0.74439096 0.2314237 -0.010582182

encoder_variable_selection.flattened_grn.resample_norm.mask f4 [11]
00000000: b7af 343b a1bf 8bbb f42c 2bbd f836 263d
00000010: dc3c 4f3c 338a 2fbc d6f3 acbc aea2 b4bb
00000020: 5c7e 47bc 6148 f93c cf6b 42bc
0.0027570555 -0.0042647873 -0.041790918 0.040579766 0.012648787 -0.010714102 -0.021112364 -0.005512557
-0.0121761225 0.03043002 -0.011866524

encoder_variable_selection.flattened_grn.resample_norm.norm.weight f4 [11]
00000000: a9c4 813f fa21 7f3f 4634 7a3f 2717 863f
00000010: d895 813f 7ab9 803f 09bb 813f 11e3 7d3f
00000020: 5ce2 7d3f b5e9 813f 9977 7e3f
1.0138141 0.9966122 0.9773601 1.0475816 1.0123854 1.0056603 1.0135204 0.991746
0.9917352 1.0149447 0.9940124

encoder_variable_selection.flattened_grn.resample_norm.norm.bias f4 [11]
00000000: 6117 9a37 0e0c 88b9 9a93 c4bc c78c 283d
00000010: b2c2 353b 1286 54bb 1ce3 03bc c430 9bbb
00000020: c4c1 ecbb 6f6a aebc af29 42bb
1.8369117e-05 -0.00025948923 -0.023996163 0.04114988 0.0027734456 -0.0032428545 -0.008049753 -0.004736038
-0.007225247 -0.021290986 -0.0029626896
